model/final_model_1_param_avg.pt (torch, 219719 bytes, 9 tensors)

lstm.weight_ih_l0 f4 [256, 15]
-0.4420148 -0.08742653 -0.06788216 -0.056639902 -0.011880701 0.12135721 0.23126379 0.1268629
0.03496277 -0.1112398 0.22494912 0.0030437945 0.14797632 0.09622418 0.20145862 -0.28631207
0.43384427 0.47622547 0.4456368 0.20742926 -0.36460966 -0.23090592 -0.18288198 0.48892954
-0.1790489 -0.6931501 0.059170503 -0.35953945 -0.11309125 -0.41016647 0.20702425 0.14340538
0.2465955 0.07309925 0.03640399 -0.05342289 -0.12919503 0.13702057 0.1157313 -0.15418282
-0.0043558064 0.17613482 0.043811318 -0.18704051 -0.2256916 0.014672053 -0.044527486 -0.10969711
-0.011944501 -0.200692 0.086859174 0.023351498 0.0903867 0.107956484 0.0100478865 -0.023790563
0.012587162 0.003648182 -0.18083908 -0.1474384 0.032058008 0.059966374 -0.12969615 -0.18394133
-0.025161041 -0.01496049 0.11692035 -0.06946667 0.03736305 -0.027335744 0.37209895 0.29755116
0.31035155 -0.00872734 0.12369949 -0.30657315 0.10586949 0.13329671 0.09371266 0.36456975
0.23259851 0.1824782 0.03596683 0.30676866 0.28068253 0.08370784 0.16914426 0.3247991
-0.19030707 -0.30454633 0.4981244 -0.12744288 -0.16294837 0.0050696936 -0.048284665 -0.024058994
-0.013989821 0.003959492 -0.15521158 0.048406612 0.12978426 0.20687012 0.095324144 0.07539545
-0.20610416 -0.22928335 0.08432508 -0.0039334106 0.023865845 -0.12576269 -0.05389065 0.13581778
-0.13496079 0.104902886 0.09105323 -0.40050733 -0.26591066 -0.09114709 0.0046043 0.13473505
0.05114186 -0.012588639 -0.10416516 -0.095050536 -0.14692286 0.074202105 0.10706367 -0.1969553
-0.13270281 0.12745945 0.36390173 0.33234593 0.5035168 0.45425427 0.27949667 -0.259441
-0.112047166 0.099056855 -0.057244077 -0.030055795 -0.0038593295 0.0906373 0.04271891 0.14373454
-0.039006047 -0.09827994 -0.16175975 -0.0825573 0.008915074 -0.049554583 0.07233308 -0.021894477
-0.07586399 -0.0032790331 -0.033806767 0.09404584 0.018648954 -0.16159683 0.11879386 -0.44765702
0.26619735 0.096372485 -0.03685054 0.13437329 0.23833774 0.025648613 -0.25906894 -0.122719646
-0.18401833 0.017172711 -0.12815468 0.017453939 -0.43103 0.049976453 -0.07732472 0.12744482
0.22624932 0.35179853 0.1689221 0.023794662 0.35170186 0.21750179 0.093988515 -0.029072322
0.11027602 0.0074070473 0.3023482 0.13577735 -0.3353928 -0.31461662 0.1427216 0.12775242
-0.2007326 -0.070094034 0.15530641 -0.11976134 0.13760746 0.18005005 0.10144888 0.122964054
0.3428549 0.5639985 -0.14054662 -0.5790543 -0.3695834 0.08428126 0.46311915 0.42704332
0.49620596 0.086198375 -0.29389587 0.13188358 0.30029982 0.18287684 -0.19610342 0.1009782
0.2903853 0.12032269 -0.100377545 -0.06236916 0.057245005 0.20244798 0.04445053 0.03463543
0.09749351 -0.4815778 0.25436184 0.26913145 0.13790303 0.052403376 -0.23013842 -0.0021325343
-0.3275346 0.7261545 -0.26283047 -0.37815672 -0.02402709 -0.037469584 0.13536498 -0.16310258
-0.026040921 0.02812099 0.0806692 0.027876481 -0.08098523 -0.1298856 -0.11156927 0.12274338
-0.03649007 0.012424838 0.014671598 0.17368008 0.32593322 0.15473223 0.35183617 0.2472209
00000000: c44f e2be ae0c b3bd cd05 8bbd 3eff 67bd
00000010: 46a7 42bc 218a f83d 6ad0 6c3e 59e8 013e
00000020: 1f35 0f3d b1d1 e3bd 1059 663e 667a 473b
00000030: 1b87 173e 2f11 c53d 2b4b 4e3e 7f97 92be
00000040: d620 de3e d3d3 f33e 822a e43e 5668 543e
00000050: 1eae babe 9a72 6cbe 6a45 3bbe f954 fa3e
00000060: 9858 37be 4972 31bf c55c 723d 8e15 b8be
00000070: 639c e7bd 5701 d2be 2afe 533e dcd8 123e
00000080: 8883 7c3e 0fb5 953d 5a1c 153d f6d1 5abd
00000090: b44b 04be 1f4f 0c3e 8804 ed3d 1ae2 1dbe
000000a0: 27bb 8ebb b05c 343e 7f73 333d 8c87 3fbe
000000b0: b31b 67be 0d63 703c 7462 36bd e1a8 e0bd
000000c0: deb2 43bc 3482 4dbe 39e3 b13d a44b bf3c
000000d0: aa1c b93d 4a18 dd3d e49f 243c 6de4 c2bc
000000e0: 623a 4e3c 5616 6f3b e12d 39be 18fa 16be
000000f0: 424f 033d 4d9f 753d 11cf 04be 1e5b 3cbe
00000100: 871e cebc d81c 75bc f073 ef3d 8b44 8ebd
00000110: ff09 193d 36ef dfbc c183 be3e a058 983e
00000120: 66e6 9e3e 1efd 0ebc 2956 fd3d 28f7 9cbe
00000130: 1ad2 d83d ef7e 083e 6cec bf3d e3a8 ba3e
00000140: 4e2e 6e3e 91db 3a3e f451 133d c810 9d3e
00000150: 9fb5 8f3e 046f ab3d 2734 2d3e 114c a63e
00000160: dbdf 42be 7fed 9bbe 290a ff3e 6380 02be
00000170: f0db 26be ac1f a63b 24c6 45bd 5e17 c5bc
00000180: 9035 65bc a0be 813b c9ef 1ebe 0346 463d
00000190: 2ae6 043e c3d5 533e 4e39 c33d ee68 9a3d
000001a0: f80c 53be 41c9 6abe a1b2 ac3d d7e3 80bb
000001b0: 4e82 c33c efc7 00be 71bc 5cbd d113 0b3e
000001c0: 2933 0abe 53d7 d63d 1e7a ba3d 4c0f cdbe
000001d0: 7125 88be 53ab babd abdf 963b fcf7 093e
000001e0: 217a 513d 9440 4ebc 8b54 d5bd dba9 c2bd
000001f0: f272 16be 46f7 973d 3344 db3d a6ae 49be
00000200: 3fe3 07be bb84 023e 5451 ba3e 3f29 aa3e
00000210: 7ae6 003f 0494 e83e 301a 8f3e 73d5 84be
00000220: fc78 e5bd 52de ca3d c478 6abd 9237 f6bc
00000230: ceec 7cbb 0ca0 b93d 06fa 2e3d 262f 133e
00000240: cec4 1fbd fe46 c9bd 59a4 25be cd13 a9bd
00000250: 8810 123c bff9 4abd 5e23 943d 0c5c b3bc
00000260: 945e 9bbd 0ce5 56bb f778 0abd 1b9b c03d
00000270: b1c5 983c a479 25be 324a f33d 4d33 e5be
00000280: 054b 883e f05e c53d 98f0 16bd 2799 093e
00000290: cf0e 743e 0a1d d23c afa4 84be 7054 fbbd
000002a0: 4d6f 3cbe c9ad 8c3c fb3a 03be 90fb 8e3c
000002b0: f7af dcbe 1cb4 4c3d 6c5c 9ebd e580 023e
000002c0: e7ad 673e f01e b43e eaf9 2c3e 06ed c23c
000002d0: 4412 b43e cab8 5e3e 0d7d c03d 1429 eebc
000002e0: 65d8 e13d d1b6 f23b 62cd 9a3e 3809 0b3e
000002f0: 9bb8 abbe 6e15 a1be 9c25 123e 88d1 023e
00000300: d98c 4dbe 768d 8fbd a508 1f3e 6f45 f5bd
00000310: f8e8 0c3e 0a5f 383e 6ec4 cf3d 94d4 fb3d
00000320: ad8a af3e 3562 103f 74eb 0fbe e73c 14bf
00000330: 093a bdbe a79b ac3d f41d ed3e 6ca5 da3e
00000340: b50e fe3e c688 b03d 8579 96be 7d0c 073e
00000350: e6c0 993e 1144 3b3e 56cf 48be a9cd ce3d
00000360: 62ad 943e be6b f63d be92 cdbd ce76 7fbd
00000370: bd79 6a3d 864e 4f3e c211 363d e1dd 0d3d
00000380: adaa c73d 5e91 f6be b73b 823e 99cb 893e
00000390: 7436 0d3e eca4 563d 68a9 6bbe fdc1 0bbb
000003a0: 9db2 a7be 43e5 393f b791 86be c29d c1be
000003b0: 76d4 c4bc b579 19bd 1e9d 0a3e 5d04 27be
000003c0: c553 d5bc fe5d e63c e535 a53d 385d e43c
000003d0: 96db a5bd bb00 05be 6e7e e4bd e260 fb3d
000003e0: 9d76 15bd 8c91 4b3c 2461 703c 31d9 313e
000003f0: b8e0 a63e 2072 1e3e df23 b43e 7a27 7d3e

lstm.weight_hh_l0 f4 [256, 64]
-0.017000291 -0.05180308 -0.019516518 0.044714067 -0.021104466 0.0019502623 0.073745966 -0.026120821
0.0356633 -0.015178141 -0.01525937 -0.02739713 -0.026854077 -0.11587643 0.14802389 -0.1816552
-0.23386733 0.043893732 -0.007571457 -0.069102585 0.16357118 0.03931843 0.25879574 -0.08700201
-0.061688595 -0.024002511 0.09836756 -0.19421591 -0.15020084 -0.21126986 0.018012725 -0.042448357
-0.14966534 -0.06512278 -0.040825013 -0.09632075 0.045022532 0.052319847 0.05372534 0.23348251
-0.1457559 -0.027787706 -0.0016791088 0.006951821 -0.03224456 0.058245577 -0.09416667 -0.045532662
0.10007472 -0.07047372 0.019106286 -0.11383116 0.14754213 0.2665104 -0.06310395 -0.07822814
0.052179396 -0.021186192 0.22925198 -0.10059106 -0.099602 0.022160118 0.08419962 -0.0026407712
-0.35839036 0.3781136 -0.20451504 -0.0013752662 0.35043275 0.080085404 0.06423158 -0.42345524
-0.7319176 0.39094993 -0.1652993 -0.38770366 0.71235776 -0.6919675 -0.4969403 0.29660362
-0.15085408 0.3717835 -0.03371743 0.3387345 -0.18232256 0.04113684 0.25868562 0.086548954
0.17044716 -0.058585323 -0.0105604585 -0.026609682 -0.03732324 0.379029 0.1489754 -0.36380005
-0.0045615924 -0.21198732 0.16392878 0.12900594 -0.8673066 -0.59920985 -0.29840183 -0.2817558
0.5083124 0.114389844 0.5460917 -0.2663707 0.11087548 0.287903 -0.3995438 0.17809328
0.06470594 0.18802151 0.57724494 0.114020966 -0.09560588 -1.1118393 -0.70248574 -0.39448014
-0.82489336 -0.40995932 0.20837861 -0.51261246 0.58268934 0.14394546 0.0014589785 -0.2389345
-0.23340249 -0.015937274 -0.031502247 0.025538582 0.13068251 -0.07706126 -0.2226226 -0.0729839
0.004947807 0.30705866 -0.24001494 -0.24607748 0.10830709 -0.4345401 -0.16333345 0.13184582
0.06921509 0.21718423 0.015071743 0.25178075 0.029295653 0.20394257 -0.12820451 0.19978935
-0.16467522 0.06405704 -0.10860307 0.14840516 0.081626594 0.079556964 0.024721064 -0.057093423
0.16183685 0.01017144 0.09236173 -0.03543409 -0.32131916 -0.15983021 0.18471107 -0.18084502
0.12251637 -0.016125325 0.041639738 -0.33439746 0.35266238 0.2132441 -0.29403138 0.20369087
0.038992323 0.37572968 0.15955465 0.15956767 -0.15561032 -0.27059788 -0.20131874 0.07202071
-0.32929754 -0.362795 -0.13979428 -0.048160248 0.1053471 -0.03794552 -0.43838134 -0.044448894
-0.2568918 -0.1993804 -0.18391028 0.092405334 0.010058194 -0.14042836 -0.24118465 0.0780955
0.025546754 0.17301959 0.08505583 -0.13191943 0.09020482 -0.27923372 -0.06918453 -0.022148563
0.085924186 0.1782471 0.048733693 0.19322754 -0.024936996 -0.06713695 -0.3792043 0.24308284
-0.09065459 0.07250472 0.06494425 0.051977422 0.087966934 -0.0065892767 -0.04413169 -0.04587779
-0.11282278 0.036749046 0.07034819 -0.0046562273 -0.3453453 -0.15825664 -0.02684137 -0.091897756
0.12766685 -0.05923745 -0.11996706 -0.22346903 0.13039404 -0.108154275 -0.0019291065 0.03220001
-0.053324565 0.044801883 -0.11057107 0.11706552 -0.36702743 0.012238334 -0.11480127 0.084579214
-0.27356714 -0.22624546 0.11772139 -0.031255253 -0.05851838 -0.0506719 -0.23400986 -0.16844398
00000000: 3244 8bbc 772f 54bd 1be1 9fbc 1926 373d
00000010: 46e3 acbc f29f ff3a 2008 973d 55fb d5bc
00000020: ae13 123d bdad 78bc 7002 7abc f26f e0bc
00000030: 15fd dbbc 9f50 edbd 9393 173e d203 3abe
00000040: eb7a 6fbe eac9 333d fc19 f8bb a885 8dbd
00000050: 347f 273e 5d0c 213d e080 843e 1c2e b2bd
00000060: 2ead 7cbd eaa0 c4bc ee74 c93d 89e0 46be
00000070: 40ce 19be 2057 58be 6c8f 933c 54de 2dbd
00000080: df41 19be 185f 85bd 2138 27bd d043 c5bd
00000090: 8c69 383d 564d 563d 1a0f 5c3d 0a16 6f3e
000000a0: 0941 15be 0ba3 e3bc 8b15 dcba 1acc e33b
000000b0: df12 04bd ea92 6e3d 75da c0bd 7580 3abd
000000c0: faf3 cc3d 8754 90bd c984 9c3c 5020 e9bd
000000d0: 4915 173e 0d74 883e a53c 81bd 1336 a0bd
000000e0: 10ba 553d aa8e adbc 08c1 6a3e b002 cebd
000000f0: 22fc cbbd 2389 b53c da70 ac3d ca10 2dbb
00000100: f17e b7be 1b98 c13e 646c 51be 4742 b4ba
00000110: ec6b b33e d103 a43d d98b 833d 20cf d8be
00000120: f45e 3bbf 972a c83e 3844 29be 1881 c6be
00000130: 145d 363f c824 31bf f66e febe 6edc 973e
00000140: 7e79 1abe 685a be3e 4a1b 0abd 9c6e ad3e
00000150: c4b2 3abe 1a7f 283d 7172 843e 9440 b13d
00000160: b389 2e3e 2af7 6fbd c605 2dbc 8cfc d9bc
00000170: 41e0 18bd 1710 c23e 028d 183e 0044 babe
00000180: 6979 95bb 3413 59be f2dc 273e 221a 043e
00000190: ce07 5ebf d165 19bf 20c8 98be 4c42 90be
000001a0: c320 023f 3945 ea3d aacc 0b3f be61 88be
000001b0: af12 e33d 0668 933e 0191 ccbe 165e 363e
000001c0: 8c84 843d b688 403e 53c6 133f d383 e93d
000001d0: 04cd c3bd c050 8ebf 1bd6 33bf 4df9 c9be
000001e0: 362c 53bf 30e6 d1be 3461 553e 923a 03bf
000001f0: 212b 153f 7066 133e 323b bf3a 3fab 74be
00000200: 1001 6fbe e38e 82bc 8008 01bd 4a36 d13c
00000210: a3d1 053e 4bd2 9dbd 2ef7 63be 9578 95bd
00000220: 3721 a23b cb36 9d3e 7ac6 75be bcfb 7bbe
00000230: 1cd0 dd3d 0a7c debe e240 27be 9702 073e
00000240: a4c0 8d3d 8b65 5e3e 79ef 763c 68e9 803e
00000250: 70fd ef3c 52d6 503e 0b48 03be 9495 4c3e
00000260: 9fa0 28be 5630 833d 496b debd 86f7 173e
00000270: d82b a73d c3ee a23d d483 ca3c cbda 69bd
00000280: 8fb8 253e 1da6 263c 2628 bd3d 5623 11bd
00000290: f283 a4be 88aa 23be e624 3d3e 702f 39be
000002a0: dde9 fa3d 4219 84bc 6e8e 2a3d 2536 abbe
000002b0: 2a90 b43e a95c 5a3e 488b 96be 5794 503e
000002c0: 6ab6 1f3d a45f c03e 4b62 233e b565 233e
000002d0: 5058 1fbe ce8b 8abe 8026 4ebe 987f 933d
000002e0: b099 a8be 44c0 b9be 3b26 0fbe ae43 45bd
000002f0: 38c0 d73d c36c 1bbd 8573 e0be 0b10 36bd
00000300: 5287 83be 602a 4cbe fa52 3cbe 023f bd3d
00000310: 20cb 243c 74cc 0fbe 1cf9 76be 89f0 9f3d
00000320: 6d47 d13c 0c2c 313e c031 ae3d e315 07be
00000330: 4ebd b83d b9f7 8ebe 9eb0 8dbd e770 b5bc
00000340: 05f9 af3d 6886 363e fb9c 473d 71dd 453e
00000350: ac48 ccbc 197f 89bd 1127 c2be b5ea 783e
00000360: 1da9 b9bd 5b7d 943d 7e01 853d 47e6 543d
00000370: 0228 b43d dcea d7bb 6ec3 34bd 59ea 3bbd
00000380: a10f e7bd 2b86 163d b612 903d 4493 98bb
00000390: 19d1 b0be 070e 22be 6fe2 dbbc e434 bcbd
000003a0: 19bb 023e f8a2 72bd 4ab1 f5bd 11d5 64be
000003b0: 0486 053e fd7f ddbd 13da fcba 28e4 033d
000003c0: dc6a 5abd 2e82 373d 1673 e2bd 0cc0 ef3d
000003d0: 05eb bbbe 4b83 483c ee1c ebbd de37 ad3d
000003e0: fe10 8cbe e4ac 67be ea17 f13d 8205 00bd
000003f0: f8b0 6fbd 578d 4fbd 48a0 6fbe 947c 2cbe

lstm.bias_ih_l0 f4 [256]
0.103477545 0.2765569 0.09828165 -0.09888441 0.007822379 0.15212308 -0.009707807 -0.06285839
-0.11188219 0.12728016 0.08699956 -0.05548836 0.11844806 -0.054489706 0.09684615 0.07549751
0.11106694 0.0452692 0.0979934 -0.005388334 0.053330764 0.03178065 0.05753813 0.081750624
0.030367244 0.1473367 -0.0055017835 -0.030574238 0.24047187 -0.13484147 0.13667132 -0.12550981
-0.11826171 0.04843198 0.086544745 -0.1045906 0.3159519 0.24063066 -0.020080516 -0.20592616
0.24817105 -0.0691205 0.068934694 0.022939581 0.052031357 0.08655474 -0.03129909 -0.07067375
0.04825583 -0.061021872 0.20974973 -0.102238625 0.32884705 0.09509796 0.09664279 -0.056210957
0.1492924 0.11014377 0.081508175 -0.013096197 -0.0025329336 0.09367522 0.11970826 0.060490813
-0.13707298 -0.26760107 -0.14727326 -0.0043886164 -0.029138284 -0.19517013 -0.050808936 -0.028349917
-0.13132307 0.0028975524 -0.15596677 0.046518654 -0.14023688 -0.05903673 -0.082643285 -0.20589387
0.24000484 -0.069070876 0.049978424 -0.09380254 0.026886035 -0.12065188 -0.09410522 -0.20060565
-0.057071615 -0.16294865 -0.08438556 -0.033844575 -0.16542071 -0.11199493 -0.058577336 -0.052338023
0.14200757 -0.16344889 0.14505026 0.06476741 -0.1398368 -0.052519806 -0.13832714 0.03031087
-0.17581731 -0.20447122 -0.01846147 -0.1249824 0.10731614 -0.17551196 -0.0739357 -0.07826251
-0.1317384 0.032936748 -0.1399764 0.14446306 -0.2773976 -0.031589374 -0.09460965 -0.026248343
-0.15010914 0.10597381 0.17051798 -0.07874933 0.10864255 0.035504937 -0.045865655 -0.087807894
-0.08804494 -0.07712362 -0.06262141 0.018009786 -0.0241947 0.05482908 -0.047658727 -0.07823311
0.018477803 -0.06204254 0.10292882 0.047627717 -0.07404162 -0.039895296 -0.092952505 -0.071611926
-0.028127305 -0.06917484 0.047311783 -0.09485535 0.0489081 0.06675427 0.041726775 -0.0070161824
-0.06256577 0.08456197 -0.041812304 0.046469197 -0.07096255 -0.05690346 0.011855906 -0.10014759
-0.10055089 -0.0942906 -0.02424819 -0.076846294 -0.17233802 -0.021598611 -0.114546776 -0.1079964
-0.030928396 -0.12048192 -0.04626606 -0.040550433 -0.04109976 0.031091154 0.076444596 -0.030808978
-0.0037400704 -0.037876118 -0.03296312 0.049079973 -0.058050767 -0.07634877 -0.07390483 -0.0047392747
0.051513024 -0.009202929 0.050258506 -0.06743272 0.13076128 0.092465624 -0.110092774 0.01773958
-0.07751471 0.18123052 -0.0687771 0.049696665 0.021329552 0.21557288 -0.08757576 -0.081107035
-0.11716093 0.037143424 -0.010364706 0.020563645 0.059724268 0.09307771 0.006483015 0.15714793
-0.016323945 0.06414136 0.012962628 -0.034286063 0.031151483 -0.052747477 -0.0028685445 0.0052220738
0.11379888 0.0914731 -0.0770724 0.008612788 0.28287375 -0.14635155 -0.097580776 0.06413191
0.014279738 0.025359917 0.14810874 -0.058140844 0.14925952 0.074814044 -0.101545446 0.006075069
0.13741778 -0.08700335 0.03062769 -0.015714837 -0.022797592 0.106754124 0.07211844 0.08486757
0.05062499 -0.02329192 -0.047547806 -0.0104670795 0.23483463 0.13856013 0.065225825 0.08549666
0.073488 -0.09939528 0.1015349 -0.0073176688 -0.007348574 0.13274218 0.0018439802 -0.047723893
00000000: 09ec d33d de98 8d3e e447 c93d e983 cabd
00000010: 6f29 003c 27c6 1b3e 7e0d 1fbc e6bb 80bd
00000020: 7d22 e5bd bb55 023e d32c b23d c347 63bd
00000030: e594 f23d 9930 5fbd 4657 c63d 709e 9a3d
00000040: 1077 e33d 326c 393d c4b0 c83d 9f90 b0bb
00000050: 5c71 5a3d 6d2c 023d 1aad 6b3d df6c a73d
00000060: bac4 f83c 6fdf 163e 4e48 b4bb d376 fabc
00000070: 423e 763e e213 0abe 91f3 0b3e a585 00be
00000080: 3233 f2bd 9d60 463d 5f3e b13d 9933 d6bd
00000090: 73c4 a13e e267 763e e57f a4bc 4fde 52be
000000a0: 8d20 7e3e 0c8f 8dbd a22d 8d3d caeb bb3c
000000b0: d51e 553d 9d43 b13d 7933 00bd 66bd 90bd
000000c0: e8a7 453d 12f2 79bd a2c8 563e 7c62 d1bd
000000d0: a45e a83e b8c2 c23d a8ec c53d 763d 66bd
000000e0: 1be0 183e 0f93 e13d c2ed a63d 6e91 56bc
000000f0: 93ff 25bb cbd8 bf3d 9b29 f53d 37c5 773d
00000100: dc5c 0cbe 0203 89be cdce 16be 62ce 8fbb
00000110: 69b3 eebc aeda 47be 081d 50bd 163e e8bc
00000120: 8e79 06be dde4 3d3b c1b5 1fbe 588a 3e3d
00000130: 429a 0fbe 80d0 71bd e240 a9bd d8d5 52be
00000140: d4c3 753e 0875 8dbd 2db6 4c3d 8c1b c0bd
00000150: 1a40 dc3c 5518 f7bd 3dba c0bd 916b 4dbe
00000160: edc3 69bd 03dc 26be 56d2 acbd 9ca0 0abd
00000170: 0c64 29be 995d e5bd caee 6fbd 6560 56bd
00000180: 6f6a 113e 255f 27be 0e88 143e c7a4 843d
00000190: 6131 0fbe 021f 57bd a1a5 0dbe 804e f83c
000001a0: 7409 34be e760 51be 823c 97bc c6f6 ffbd
000001b0: 90c8 db3d 68b9 33be 9a6b 97bd 1848 a0bd
000001c0: 6ee6 06be afe8 063d f955 0fbe 20ee 133e
000001d0: 0f07 8ebe dc63 01bd b4c2 c1bd c406 d7bc
000001e0: 36b6 19be cc08 d93d 449c 2e3e 5447 a1bd
000001f0: fc7f de3d a06d 113d a0dd 3bbd a0d4 b3bd
00000200: e850 b4bd fdf2 9dbd a73f 80bd 4289 933c
00000210: f733 c6bc 7594 603d cc35 43bd ae38 a0bd
00000220: c35e 973c 5220 7ebd 58cc d23d 4815 433d
00000230: 22a3 97bd 4069 23bd e25d bebd 46a9 92bd
00000240: 3c6b e6bc 8aab 8dbd 00ca 413d 8643 c2bd
00000250: dc53 483d 76b6 883d b2e9 2a3d 01e8 e5bb
00000260: 7b22 80bd d32e ad3d 6143 2bbd 7c56 3e3d
00000270: d054 91bd 9a13 69bd 463f 423c 2e1a cdbd
00000280: a0ed cdbd 6e1b c1bd 24a4 c6bc 9761 9dbd
00000290: 6179 30be 92ef b0bc 8097 eabd 372d ddbd
000002a0: 8c5d fdbc 3abf f6bd 7b81 3dbd 3618 26bd
000002b0: 3958 28bd e0b2 fe3c fc8e 9c3d 1c63 fcbc
000002c0: f81b 75bb fd23 1bbd 5604 07bd 1508 493d
000002d0: a4c6 6dbd be5c 9cbd 6a5b 97bd eb4b 9bbb
000002e0: 52ff 523d e2c7 16bc dddb 4d3d 2a1a 8abd
000002f0: 49e6 053e 9e5e bd3d 5278 e1bd 9852 913c
00000300: 08c0 9ebd 7e94 393e 02db 8cbd bb8e 4b3d
00000310: 50bb ae3c 23bf 5c3e ec5a b3bd 721b a6bd
00000320: 12f2 efbd b423 183d bad0 29bc 1775 a83c
00000330: 6fa1 743d 879f be3d 796f d43b 63eb 203e
00000340: cbb9 85bc 8c5c 833d 3461 543c 8b6f 0cbd
00000350: 6531 ff3c bd0d 58bd 31fe 3bbb ee1d ab3b
00000360: 630f e93d 4056 bb3d 22d8 9dbd a71c 0d3c
00000370: d4d4 903e 2edd 15be 6ed8 c7bd 9757 833d
00000380: 90f5 693c 9abf cf3c d1a9 173e 1825 6ebd
00000390: 7dd7 183e 1b38 993d 0ff7 cfbd 5f11 c73b
000003a0: 3fb7 0c3e d02e b2bd ece6 fa3c 67bc 80bc
000003b0: 04c2 babc e8a1 da3d d5b2 933d 0ccf ad3d
000003c0: 265c 4f3d b2ce bebc 7dc1 42bd 1d7e 2bbc
000003d0: 7d78 703e b5e2 0d3e 1e95 853d df18 af3d
000003e0: e080 963d c18f cbbd 88f1 cf3d 0ec9 efbb
000003f0: 4fcc f0bb 91ed 073e b5b1 f13a 217a 43bd

lstm.bias_hh_l0 f4 [256]
-0.041813523 0.20708911 -0.08390501 0.032762542 -0.030399501 0.2731458 -0.053556323 0.09069243
-0.031181617 0.013043172 -0.15839627 -0.09402844 -0.04155339 0.07157978 0.06833122 0.10698524
0.043524485 0.0312505 -0.015263828 -0.032503366 0.13182583 -0.047414307 -0.049260557 -0.0013277429
-0.055460308 0.020763393 -0.043936115 -0.17628926 0.35030898 -0.05937852 -0.028519174 -0.04771033
-0.047733694 0.15636083 0.111413404 0.07646312 0.17228547 0.17488778 0.014557211 -0.03796033
0.017999973 -0.08020355 -0.054392066 0.049697615 0.093633875 0.032023534 -0.08616848 -0.091552764
0.008290985 0.06418324 0.13778237 -0.08981411 0.38996238 0.03856958 -0.042359993 -0.068729475
0.22370186 0.08837576 0.00899535 -0.012497734 0.021314034 -0.07116889 0.11294968 -0.023697851
-0.10398477 -0.31134927 0.03712711 -0.08121386 -0.0900187 -0.046989366 0.09181622 0.045057066
0.066609204 -0.07195622 0.035956293 -0.012635065 -0.11707586 -0.035901617 -0.06454409 -0.31427044
0.1756083 0.08900882 -0.12070735 0.033950206 -0.14235325 -0.024614275 0.025129182 -0.11218999
-0.0037064357 -0.14552869 0.089773 0.06613027 -0.32308084 -0.12400415 -0.11717995 -0.13805144
-0.0050882646 -0.14904551 -0.031262442 0.07716931 0.028093787 -0.20003662 -0.039719805 0.02413858
-0.13261206 -0.028836474 0.063473664 -0.07939844 0.021663703 -0.010333413 0.065342285 -0.1823722
-0.07377063 -0.12843847 0.015453979 -0.010652708 -0.3125186 -0.0043719574 0.002206116 -0.12664908
-0.16070679 0.0031788494 0.09623293 0.02433931 0.00075605826 0.0046204627 -0.035430316 -0.15677632
-0.07400422 -0.0754235 -0.105635725 0.09937611 -0.053956695 0.04242641 -0.012666788 -0.050520483
-0.10197919 0.08487288 -0.050406598 0.09331104 0.063284814 -0.15761663 -0.116962396 0.10166058
-0.01767173 0.019560989 -0.04548535 0.1137118 0.05313001 0.09951554 -0.114262 0.070189625
-0.051217884 0.06594275 0.06707893 0.116053924 -0.022567403 0.13825384 0.10913502 -0.08597737
0.07363634 0.07839069 -0.045246117 0.11646594 -0.065167524 -0.05953771 -0.068390764 0.040402614
-0.05689451 0.07810773 0.080065906 -0.014749005 0.021752387 -0.13621785 -0.09555231 -0.054888546
0.1070535 0.057515576 0.104207285 -0.055861115 -0.014629875 -0.103919014 -0.091775626 -0.022772448
-0.13989231 0.008032797 0.01947914 0.04996535 -0.0012362832 -0.08372994 0.11323822 0.06788884
-0.051801063 0.03508394 -0.054720692 0.013775984 -0.042046297 0.289973 -0.17193095 -0.018857852
0.004278736 0.08870722 -0.13492216 -0.095294006 0.040060926 0.10990104 0.032691084 -0.0024281938
-0.15601128 -0.07647943 -0.048220158 -0.10679547 0.08338272 -0.14052789 0.012187435 0.008445451
0.093400896 -0.040845968 -0.053776093 -0.08895454 0.3255542 -0.07350299 0.10403703 -0.007836768
-0.13225535 -0.04355409 0.13603047 -0.07040665 0.1651572 0.16859308 0.06405042 -0.087454654
0.028741844 0.0872578 0.018565245 -0.07283428 0.056080215 0.09167054 0.040300712 0.146378
-0.16015093 -0.0053004688 -0.021762582 -0.08050632 0.28035998 -0.090992704 -0.101880364 -0.024101846
0.015156854 -0.13436826 -0.060059145 -0.017221954 -0.055212587 0.11955052 0.047574785 -0.03486975
00000000: a844 2bbd 2b0f 543e 64d6 abbd 0432 063d
00000010: 6008 f9bc c4d9 8b3e e05d 5bbd f4bc b93d
00000020: 9770 ffbc 07b3 553c a232 22be fc91 c0bd
00000030: e333 2abd 6b98 923d 3df1 8b3d 141b db3d
00000040: bb46 323d 8600 003d 2315 7abc 4022 05bd
00000050: 5afd 063e 8135 42bd 70c5 49bd a907 aeba
00000060: 592a 63bd fe17 aa3c 5bf6 33bd 2c85 34be
00000070: b35b b33e e436 73bd 0ba1 e9bc e86b 43bd
00000080: 6884 43bd 0e1d 203e b62c e43d b298 9c3d
00000090: 9a6b 303e c815 333e 5e81 6e3c 4a7c 1bbd
000000a0: ae74 933c c241 a4bd 37ca 5ebd ba8f 4b3d
000000b0: 1ec3 bf3d 1c2b 033d 1a79 b0bd 0480 bbbd
000000c0: e9d6 073c 8172 833d d216 0d3e 76f0 b7bd
000000d0: 26a9 c73e 23fb 1d3d ac81 2dbd 0ac2 8cbd
000000e0: 1a12 653e 5afe b43d 3c61 133c 4cc3 4cbc
000000f0: c59a ae3c ffc0 91bd 2952 e73d ff21 c2bc
00000100: f8f5 d4bd 2c69 9fbe 9912 183d 7453 a6bd
00000110: b95b b8bd ec77 40bd 240a bc3d c28d 383d
00000120: 686a 883d c85d 93bd e846 133d 4e03 4fbc
00000130: 78c5 efbd 930d 13bd b12f 84bd 0ee8 a0be
00000140: aad2 333e 424a b63d 6a35 f7bd 5f0f 0b3d
00000150: 0dc5 11be e0a3 c9bc b7db cd3c dec3 e5bd
00000160: ace7 72bb 7905 15be e8da b73d 4f6f 873d
00000170: da6a a5be e3f5 fdbd 0bfc efbd 5b5d 0dbe
00000180: 75bb a6bb 639f 18be 0c0d 00bd f10a 9e3d
00000190: f124 e63c 66d6 4cbe 3cb1 22bd 45be c53c
000001a0: 75cb 07be 783a ecbc 7bfe 813d a69b a2bd
000001b0: 1478 b13c 7a4d 29bc 2dd2 853d c7bf 3abe
000001c0: 0e15 97bd 6085 03be b032 7d3c b288 2ebc
000001d0: 7002 a0be a342 8fbb 7c94 103b 4cb0 01be
000001e0: 5290 24be 3e54 503b c515 c53d 3c63 c73c
000001f0: 3632 463a 4067 973b 611f 11bd f989 20be
00000200: 868f 97bd a377 9abd 8b57 d8bd b485 cb3d
00000210: b201 5dbd 51c7 2d3d 5c88 4fbc 91ee 4ebd
00000220: 77da d0bd d5d1 ad3d 2677 4ebd dc19 bf3d
00000230: 789b 813d 4166 21be fb89 efbd 6c33 d03d
00000240: 4ec4 90bc 5e3e a03c d94e 3abd bbe1 e83d
00000250: da9e 593d cece cb3d 3202 eabd 94bf 8f3d
00000260: d8c9 51bd fe0c 873d ae60 893d aead ed3d
00000270: 46df b8bc 6a92 0d3e 2e82 df3d e714 b0bd
00000280: a6ce 963d 4c8b a03d fe53 39bd b285 ee3d
00000290: 8d76 85bd d0dd 73bd 7510 8cbd 367d 253d
000002a0: 380a 69bd f2f6 9f3d 98f9 a33d d0a5 71bc
000002b0: 1032 b23c b17c 0bbe eeb0 c3bd d0d2 60bd
000002c0: de3e db3d 7495 6b3d a16a d53d a0ce 64bd
000002d0: 25b2 6fbc 7ed3 d4bd dcf4 bbbd 498d babc
000002e0: ee3f 0fbe fe9b 033c b892 9f3c 78a8 4c3d
000002f0: c80a a2ba 9a7a abbd 71e9 e73d 4e09 8b3d
00000300: 5a2d 54bd 2db4 0f3d ce22 60bd aab4 613c
00000310: bd38 2cbd 5777 943e ab0e 30be c87b 9abc
00000320: a434 8c3b 22ac b53d 0929 0abe 8129 c3bd
00000330: ed16 243d cc13 e13d 16e7 053d 5522 1fbb
00000340: 6cc1 1fbe 3fa1 9cbd 8082 45bd 95b7 dabd
00000350: 8fc4 aa3d 8be6 0fbe cfad 473c ca5e 0a3c
00000360: f848 bf3d 1a4e 27bd 5244 5cbd cc2d b6bd
00000370: 0aaf a63e bc88 96bd 5e11 d53d ca65 00bc
00000380: f26d 07be c665 32bd 924b 0b3e 5d31 90bd
00000390: f81e 293e aaa3 2c3e de2c 833d 6d1b b3bd
000003a0: 0474 eb3c 38b4 b23d 2416 983c 242a 95bd
000003b0: 5eb4 653d c4bd bb3d 5c12 253d 1de4 153e
000003c0: 9bfe 23be 8eaf adbb 7147 b2bc 7fe0 a4bd
000003d0: 588b 8f3e 625a babd a7a6 d0bd 3c71 c5bc
000003e0: 7454 783c d597 09be 9400 76bd 0e15 8dbc
000003f0: 9826 62bd e7d6 f43d c7dd 423d 95d3 0ebd

lstm.weight_ih_l1 f4 [256, 64]
-0.16302525 -0.3432579 -0.09712676 -0.055719435 0.20855965 -0.49753743 0.35328835 -0.16161129
-0.20132703 0.06903577 -0.18913274 -0.05972814 0.083728805 -0.32997188 -0.36882204 -0.46433315
-0.16865419 0.613027 -0.19181737 -0.020522457 -0.1640805 0.05526278 -0.07586156 -0.21404886
-0.039465204 0.11917879 0.068485506 0.34577656 0.40547705 -0.30309713 -0.20652649 0.062289797
-0.04931698 -0.002857728 0.0701877 0.12448231 -0.5417084 0.013305722 0.18404439 0.016001847
0.60866845 -0.08331907 0.1058837 -0.3260944 0.09671322 -0.09286132 -0.16964012 0.020397505
0.09232097 -0.15030074 0.18432061 0.015672004 -0.56675017 -0.18094647 0.1007592 -0.1311947
-0.4030696 -0.08760612 -0.017868878 -0.08721035 0.12724856 -0.08868363 -0.2022619 0.36595288
-0.019963466 0.058507584 -0.067023434 -0.07784979 -0.10330127 0.13966556 -0.1861417 0.10872846
-0.13737729 0.08728703 -0.0110056875 0.091178484 0.072296694 0.097122364 -0.108577445 0.13145803
0.022410065 0.16683458 -0.068777785 0.03430721 -0.032571267 -0.07338231 -0.0770749 -0.15380466
0.113079384 -0.17078385 -0.16970648 0.0721303 0.007833645 0.00062013033 0.034811497 0.19457579
-0.049110465 -0.19929014 -0.032985196 -0.05107829 -0.2332298 0.03405613 -0.042928517 0.019554874
0.0013949171 -0.053717744 -0.043669373 0.16270214 0.12611946 -0.08931029 0.024852756 0.08155593
0.14354675 -0.0031918292 0.11719105 -0.041961346 0.14800549 -0.27785537 -0.10926207 -0.0028715297
-0.11617246 0.09924652 0.02367587 -0.11759743 -0.101526394 0.022157997 0.25759152 -0.11045189
0.14069133 0.49878877 0.52783555 -0.12081672 -0.27929997 -0.070289746 0.20044962 0.33840674
0.28830516 -0.30766124 0.3752042 0.16642325 -0.20771371 0.62304115 0.47792745 0.45924515
-0.09878799 0.08052305 0.47460663 -0.22858259 0.46282834 -0.0724978 0.5279787 -0.04318101
0.127091 -0.39727855 0.42299148 -0.27161306 -0.5628696 -0.3103534 0.017177295 0.22073899
-0.111137554 -0.03168437 -0.6180721 -0.16013528 0.5803912 0.47200483 0.14494374 0.20656985
-0.55310786 -0.3431898 0.0311457 0.53312135 0.32265788 -0.2397897 -0.19085917 0.119195566
0.22623071 0.0010733701 -0.1319079 0.07708918 0.5380992 0.27052563 -0.011729662 0.3618595
0.5045669 0.15114546 0.12063126 0.2481915 -0.06503148 0.15374376 0.570958 0.119573005
-0.13210264 0.107853785 -0.15255578 0.08752776 -0.07273702 0.3519777 0.09088343 -0.22502497
-0.2080689 0.22892922 0.038118824 -0.09931742 -0.009865517 0.03917477 -0.18630901 0.15599063
-0.03303247 -0.13258019 0.10760437 -0.061930418 -0.012981113 -0.13523088 0.09504807 -0.3353293
0.047586404 0.17887335 -0.122142754 -0.13505134 -0.15777403 -0.24470511 0.04314209 -0.05886631
0.0076669506 -0.2670034 0.22096105 0.122003876 -0.49103162 0.089342326 -0.024161361 0.05820147
-0.23985639 -0.14938785 -0.08853009 0.15188254 -0.13514242 -0.21069857 0.007730503 0.1825044
0.32536483 -0.13351277 -0.27829948 -0.08154161 0.13807894 -0.2632558 0.09742539 -0.02551127
-0.3820708 0.12979718 -0.120370366 0.075396225 0.022350986 0.12126981 -0.11767791 0.042855423
00000000: 17f0 26be 80bf afbe 65ea c6bd 103a 64bd
00000010: a990 553e 3abd febe 36e2 b43e 6e7d 25be
00000020: ac28 4ebe a062 8d3d 03ac 41be 7ea5 74bd
00000030: 027a ab3d 13f2 a8be 3ed6 bcbe 13bd edbe
00000040: afb3 2cbe 56ef 1c3f c66b 44be b61e a8bc
00000050: b804 28be 3a5b 623d 4e5d 9bbd a02f 5bbe
00000060: 44a6 21bd 0214 f43d 2142 8c3d a009 b13e
00000070: b09a cf3e 8c2f 9bbe ae7b 53be 9623 7f3d
00000080: 9a00 4abd b848 3bbb 92be 8f3d 95f0 fe3d
00000090: 67ad 0abf 3e00 5a3c 2276 3c3e 4e16 833c
000000a0: b2d1 1b3f 30a3 aabd 8ed9 d83d d8f5 a6be
000000b0: 9511 c63d 132e bebd 24b6 2dbe ab18 a73c
000000c0: c712 bd3d 70e8 19be 8bbe 3c3e 9362 803c
000000d0: 8a16 11bf 084a 39be d75a ce3d e757 06be
000000e0: 235f cebe d66a b3bd c161 92bc 579b b2bd
000000f0: 724d 023e c39f b5bd be1d 4fbe 2d5e bb3e
00000100: 6c8a a3bc a6a5 6f3d 9543 89bd b66f 9fbd
00000110: 9e8f d3bd 7d04 0f3e ee9b 3ebe 07ad de3d
00000120: a2ac 0cbe 8bc3 b23d 3351 34bc c9bb ba3d
00000130: 4a10 943d 17e8 c63d da5d debd ef9c 063e
00000140: 5095 b73c afd6 2a3e 5edb 8cbd b885 0c3d
00000150: 7369 05bd 7749 96bd 72d9 9dbd f87e 1dbe
00000160: 2a96 e73d f6e1 2ebe 89c7 2dbe 0db9 933d
00000170: b058 003c 3e90 223a 8096 0e3d e03e 473e
00000180: 0e28 49bd b712 4cbe 7c1b 07bd 7837 51bd
00000190: cbd3 6ebe 717e 0b3d d0d5 2fbd 8b31 a03c
000001a0: a7d5 b63a 2307 5cbd a8de 32bd 649b 263e
000001b0: 7625 013e 50e8 b6bd 0298 cb3c cc06 a73d
000001c0: ebfd 123e 022e 51bb dc01 f03d a9df 2bbd
000001d0: c08e 173e 0f43 8ebe cbc4 dfbd 4630 3cbb
000001e0: d4eb edbd c241 cb3d e6f3 c13c ecd6 f0bd
000001f0: 12ed cfbd b084 b53c 09e3 833e 9a34 e2bd
00000200: 6311 103e 3e61 ff3e 3b20 073f c26e f7bd
00000210: 6800 8fbe 12f4 8fbd aa42 4d3e a643 ad3e
00000220: bc9c 933e c685 9dbe c41a c03e db6a 2a3e
00000230: e7b2 54be a07f 1f3f e8b2 f43e 2e22 eb3e
00000240: 5c51 cabd 45e9 a43d a4ff f23e 8e11 6abe
00000250: d6f7 ec3e ba79 94bd 9d29 073f 92de 30bd
00000260: 2524 023e 1868 cbbe 5792 d83e de10 8bbe
00000270: 3918 10bf a4e6 9ebe 66b7 8c3c 6709 623e
00000280: 169c e3bd 78c7 01bd f939 1ebf 81fa 23be
00000290: 8594 143f 9eaa f13e 226c 143e 0c87 533e
000002a0: 7a98 0dbf 93b6 afbe 4425 ff3c a47a 083f
000002b0: 6a33 a53e 6e8b 75be 9670 43be ce1c f43d
000002c0: 06a9 673e 53b0 8c3a dd12 07be efe0 9d3d
000002d0: dfc0 093f 5682 8a3e c52d 40bc a645 b93e
000002e0: 4c2b 013f e0c5 1a3e 860d f73d ea25 7e3e
000002f0: 392f 85bd 016f 1d3e 4e2a 123f b1e2 f43d
00000300: ea45 07be 72e2 dc3d 9537 1cbe c141 b33d
00000310: 26f7 94bd 6c36 b43e 1721 ba3d f26c 66be
00000320: 0410 55be 6c6c 6a3e 7c22 1c3d ee66 cbbd
00000330: faa2 21bc b975 203d cac7 3ebe 02bc 1f3e
00000340: 0e4d 07bd 1ac3 07be ae5f dc3d c0aa 7dbd
00000350: bcae 54bc f779 0abe 90a8 c23d 48b0 abbe
00000360: f6e9 423d 932a 373e fb25 fabd e64a 0abe
00000370: 848f 21be fa93 7abe c3b5 303d cd1d 71bd
00000380: 0b3b fb3b abb4 88be 9d43 623e 2bdd f93d
00000390: 7f68 fbbe 1cf9 b63d 0cee c5bc aa64 6e3d
000003a0: ea9c 75be 21f9 18be 444f b5bd 1987 1b3e
000003b0: c662 0abe 5ec1 57be 2950 fd3b 6fe2 3a3e
000003c0: 3896 a63e 92b7 08be 457d 8ebe 4aff a6bd
000003d0: 9164 0d3e 77c9 86be f686 c73d 03fd d0bc
000003e0: c99e c3be 8de9 043e bd84 f6bd 5669 9a3d
000003f0: 6a19 b73c 4e5c f83d 1e01 f1bd 2b89 2f3d

lstm.weight_hh_l1 f4 [256, 64]
0.043434456 -0.18810096 0.19364256 -0.10122074 -0.015664767 -0.0973374 0.1936371 0.24168445
-0.19269717 0.040726565 0.1559357 -0.12416014 -0.005629362 0.14732003 0.06318699 -0.4375206
-0.0069555324 -0.34166262 -0.15729463 -0.06155854 0.02307235 0.13125032 -0.25238988 -0.25263417
-0.1713471 0.006750062 -0.2795211 0.2842421 0.3069677 0.049890675 -0.34027857 0.070815384
0.06847977 -0.1102339 -0.0690848 0.06622887 0.102798395 0.27445537 -0.05033559 -0.036158644
-0.012217119 -0.018122066 0.0092510935 -0.27160272 -0.057532772 0.1684362 0.28738454 0.2669529
0.24279141 -0.48987466 0.040616047 0.3193305 0.68489826 0.25229508 0.35110348 -0.0955924
-0.12153215 0.06278264 0.15300016 -0.20076676 -0.11219335 -0.21455413 0.109533235 0.016322795
-0.11648498 0.0813041 -0.100162715 0.061552767 0.01879961 -0.14527401 0.063520394 0.0757853
0.013232829 0.023080895 0.096808806 0.059592597 0.049187027 -0.046376795 0.042085014 0.081246555
0.25023755 -0.014372344 0.013492756 -0.05130818 0.08623788 -0.051630132 -0.16848375 -0.041787155
-0.13285743 0.19514811 0.19055147 -0.001212253 0.017299898 0.035048176 0.0849127 -0.07038856
-0.11245668 0.130968 0.14435484 0.029513605 0.010378029 0.122203976 0.0637082 0.060899995
0.09859295 -0.10633184 0.10223079 0.035436194 -0.14834909 0.0026933723 -0.093879975 -0.24575622
0.055911712 -0.0002676826 0.07162484 -0.10841293 -0.093656704 -0.1697832 -0.057422087 -0.19621922
0.10078448 -0.103914514 0.030472148 0.24335408 0.027571479 0.05955685 0.068324715 -0.18862975
-0.250589 0.08725503 -0.5861204 0.010181296 0.37073797 0.009160586 -0.054778736 -0.09272219
0.23815997 -0.0037556132 0.08376582 0.0132316295 0.2202282 -0.06715623 -0.36029524 0.2415502
0.5640333 0.24277923 -0.09083325 -0.023630371 0.1609136 0.11303042 -0.27145034 -0.33661842
-0.19707114 0.11269832 0.42378008 -0.0152555 0.016366586 0.1858004 0.10712254 -0.26226398
-0.42374238 0.37583625 0.48219126 0.0295527 0.005802278 0.30314854 0.30960265 -0.32668614
0.1411722 0.026338844 0.12792633 -0.27248105 -0.31575105 0.12303659 0.06142579 -0.2456804
0.00619226 -0.03307554 0.23251754 0.22596334 0.2847956 -0.14913929 0.1859622 -0.32728812
-0.08089727 -0.23918757 0.054316547 0.26178077 -0.049622662 0.001495244 0.14079338 -0.21876276
0.061415765 -0.12796879 -0.04699937 0.06410666 -0.07018434 0.048563484 0.07933994 0.0051301452
-0.008255003 0.03346255 -0.0835733 0.0029098883 -0.09788963 0.07388951 -0.25273207 0.16532153
0.18620455 0.15780939 0.10126239 0.18468896 0.027681952 -0.19889915 -0.40253094 0.15944897
-0.14962164 0.11084667 0.3928542 -0.31299382 -0.0783488 0.103269145 0.33800873 0.063875265
-0.22020514 -0.03366539 0.35189942 0.20724544 0.12698968 0.48745 -0.0022532374 0.22812015
0.1902995 0.012732113 0.3435393 -0.124088004 0.03958599 -0.04463877 -0.16027884 -0.3409953
0.20944749 0.20123969 -0.015290404 -0.28522027 -0.39983034 -0.056109913 -0.00826456 -0.049959783
0.17241922 -0.028420327 0.046474334 0.48641178 0.11831071 0.072144724 0.07255681 -0.09675389
00000000: 54e8 313d 8a9d 40be 3c4a 463e d24c cfbd
00000010: 6653 80bc d558 c7bd ce48 463e 217c 773e
00000020: 6852 45be e6d0 263d 9cad 1f3e ac47 febd
00000030: 8376 b8bb 10db 163e 2e68 813d b302 e0be
00000040: 3ceb e3bb 67ee aebe d811 21be cf24 7cbd
00000050: 3a02 bd3c 7c66 063e 3f39 81be 4459 81be
00000060: 9d75 2fbe a02f dd3b 641d 8fbe 2e88 913e
00000070: df2a 9d3e 2a5a 4c3d fe38 aebe a807 913d
00000080: 1f3f 8c3d 50c2 e1bd 557c 8dbd 00a3 873d
00000090: f787 d23d 6a85 8c3e b12c 4ebd 161b 14bd
000000a0: 502a 48bc ba74 94bc e691 173c 830f 8bbe
000000b0: 7ca7 6bbd 8a7a 2c3e 1124 933e 0dae 883e
000000c0: 509e 783e dad0 fabe 035d 263d 4a7f a33e
000000d0: 7e55 2f3f d22c 813e d6c3 b33e f3c5 c3bd
000000e0: d9e5 f8bd 2f94 803d 13ac 1c3e cd95 4dbe
000000f0: a1c5 e5bd 14b4 5bbe f652 e03d 62b7 853c
00000100: ad8f eebd c482 a63d 1c22 cdbd c11e 7c3d
00000110: a401 9a3c b6c2 14be fb16 823d 5335 9b3d
00000120: 82ce 583c 2514 bd3c b243 c63d 5e17 743d
00000130: 5678 493d 98f5 3dbd 5661 2c3d 9864 a63d
00000140: 231f 803e fb79 6bbc b810 5d3c 8728 52bd
00000150: 7c9d b03d 1e7a 53bd 0187 2cbe 0229 2bbd
00000160: c70b 08be e8d4 473e ed1f 433e 76e4 9eba
00000170: 84b8 8d3c ad8e 0f3d b6e6 ad3d e127 90bd
00000180: b04f e6bd 7a1c 063e c1d1 133e 84c6 f13c
00000190: 9c08 2a3c 1446 fa3d 7279 823d 4672 793d
000001a0: 1aeb c93d 82c4 d9bd 605e d13d 8b25 113d
000001b0: d3e8 17be 4a83 303b 2544 c0bd 85a7 7bbe
000001c0: ae03 653d c057 8cb9 0bb0 923d 9907 debd
000001d0: 16cf bfbd a6db 2dbe 6c33 6bbd b1ed 48be
000001e0: 1868 ce3d 22d1 d4bd baa0 f93c d031 793e
000001f0: 95dd e13c e2f1 733d d4ed 8b3d 2828 41be
00000200: 344d 80be c4b2 b23d fd0b 16bf 73cf 263c
00000210: 5ed1 bd3e 4816 163c ab5f 60bd 22e5 bdbd
00000220: 35e0 733e bc20 76bb 6a8d ab3d 7ac9 583c
00000230: 8083 613e 3589 89bd 9e78 b8be f058 773e
00000240: 7d64 103f 1e9b 783e c806 babd 7b94 c1bc
00000250: 89c6 243e 7e7c e73d 8afb 8abe 4059 acbe
00000260: 04cd 49be 60ce e63d b4f9 d83e 34f2 79bc
00000270: 3813 863c 7642 3e3e 1063 db3d 7747 86be
00000280: c3f4 d8be 9c6d c03e c6e1 f63e 8118 f23c
00000290: 0921 be3b 4936 9b3e 3d84 9e3e 6843 a7be
000002a0: 728f 103e 8fc4 d73c 1fff 023e a382 8bbe
000002b0: 1faa a1be 9cfa fb3d 9c99 7b3d a593 7bbe
000002c0: 71e8 ca3b 387a 07bd 1419 6e3e ef62 673e
000002d0: bbd0 913e f8b7 18be e06c 3e3e 4f92 a7be
000002e0: 78ad a5bd 96ed 74be 077b 5e3d 2108 863e
000002f0: 2241 4bbd 10fc c33a 242c 103e 5803 60be
00000300: 198f 7b3d 400a 03be 6982 40bd 5a4a 833d
00000310: cfbc 8fbd 81ea 463d fa7c a23d c71a a83b
00000320: fe3f 07bc 0710 093d 7a28 abbd d3b3 3e3b
00000330: 5c7a c8bd 6253 973d 1966 81be 0c4a 293e
00000340: 68ac 3e3e c998 213e a862 cf3d 1a1f 3d3e
00000350: 43c5 e23c 38ac 4bbe 8918 cebe 9746 233e
00000360: 6a36 19be 9403 e33d 3024 c93e ba40 a0be
00000370: 5675 a0bd c67e d33d 7b0f ad3e 09d1 823d
00000380: 757d 61be b8e4 09bd 292c b43e 2638 543e
00000390: 9509 023e 0c93 f93e 0dab 13bb 5498 693e
000003a0: dfdd 423e 5a9a 503c 62e4 af3e da21 febd
000003b0: eb24 223d 25d7 36bd 2320 24be f096 aebe
000003c0: 6779 563e c711 4e3e 9a84 7abc 6408 92be
000003d0: 90b6 ccbe 82d3 65bd 1468 07bc a1a2 4cbd
000003e0: aa8e 303e bfd1 e8bc df5b 3e3d f70a f93e
000003f0: e34c f23d 9dc0 933d aa98 943d e726 c6bd

lstm.bias_ih_l1 f4 [256]
-0.017000208 -0.08155519 -0.060530942 -0.100885734 -0.09621078 0.03722044 -0.06510904 -0.16752982
-0.01805044 0.08606184 0.031244392 -0.10693063 0.08856692 -0.009415522 -0.104902975 -0.0076987846
-0.13574472 -0.0362233 0.09315088 -0.048446544 0.11583671 -0.121986 0.0959267 0.15692389
-0.008051593 0.02902487 -0.08816044 0.04903156 -0.090227515 -0.0031919223 0.12481219 0.055400316
-0.034098607 -0.08926512 0.20158799 0.04189069 -0.043855324 -0.040674306 -0.07741539 -0.1344148
-0.11337913 0.06815752 0.14039025 -0.032903243 -0.11350602 -0.1480132 -0.042876344 0.0056429
-0.083633065 0.034422614 0.09177027 -0.015563342 -0.027625453 -0.08926314 -0.051813222 0.055899072
0.080377996 0.07991654 0.01587745 0.10579827 -0.06621259 -0.07844459 -0.10639999 -0.16736877
-0.14469607 -0.098111466 -0.063744895 0.12439295 -0.14156525 0.14646779 -0.055796094 -0.004478253
0.041150857 0.1399515 -0.021329153 -0.19468836 0.033357657 0.10692193 -0.061314892 -0.1746118
0.08527862 -0.13136066 0.12893975 -0.098196745 0.018508878 0.035632886 0.042469494 0.10888119
0.115947224 0.007918974 -0.045878794 -0.049955502 -0.0566672 -0.0167143 -0.0134684155 -0.031409085
-0.063935295 -0.0067031845 0.045115214 -0.23334283 0.105584994 -0.01757396 -0.039723814 -0.08301528
0.05667924 -0.06396112 0.013933849 0.088709846 0.10115803 -0.019416861 -0.0018566983 -0.14734407
0.057908647 -0.08242642 -0.09700461 -0.10183714 -0.0111872945 0.04542154 0.040886957 0.053308908
0.16089952 -0.094461516 0.06290235 -0.13267227 -0.05550906 -0.049969867 -0.076856636 -0.04162836
-0.07426548 0.028034411 0.102248296 0.016126454 0.029385502 0.13614799 -0.08001074 -0.02953345
0.08819388 0.012582486 -0.00067464454 0.008736631 -0.047881223 -0.092356466 0.08750479 -0.001446696
-0.08605268 0.021039158 0.11121208 -0.080026135 -0.008594489 0.09543763 0.0717319 -0.032020565
-0.0638029 -0.022753775 -0.023449076 -0.06311342 0.0016591034 -0.10301387 0.08836639 -0.021195628
-0.05388458 0.048597854 -0.06699478 0.054243818 -0.06555647 -0.03787822 0.05696054 0.028772933
0.043733735 0.0548912 -0.018463932 -0.002610118 0.08259523 -0.015437161 -0.029098915 0.05515124
0.008478421 -0.07220169 -0.12101628 -0.0007484157 -0.08997351 -0.11787929 0.0069527077 0.021070976
-0.06678 -0.03955867 -0.0369503 0.040380098 0.0910625 0.12203504 0.055689607 -0.12064229
0.040706567 -0.11201629 -0.15268607 -0.095647655 -0.102707185 -0.079991475 -0.03038617 -0.07599408
-0.07480034 0.0106202625 0.015197555 -0.11043363 0.03865071 0.010851836 -0.16333391 -0.11182521
0.063190624 -0.16826956 0.013119522 0.081513084 0.053391382 -0.091632515 -0.008567888 0.07994351
0.025956308 -0.09173834 0.017216748 -0.15972428 0.0010997417 -0.17922145 -0.023816507 0.05198755
-0.14947088 -0.022701107 0.22674972 -0.015251994 -0.13327786 -0.12053845 0.051264558 -0.19341877
0.07053587 0.07541406 0.012399369 -0.10492925 0.058090206 -0.07750227 -0.115286216 -0.18767336
-0.13232076 0.10246445 -0.0073976708 -0.045241788 0.025001667 0.0021988484 0.015607336 -0.14835228
0.012519458 -0.08195273 -0.10644827 -0.07273355 0.07337529 0.03767927 -0.059251286 -0.14579736
00000000: 0544 8bbc 6806 a7bd 4bef 77bd 2e9d cebd
00000010: 280a c5bd 7674 183d e357 85bd f08c 2bbe
00000020: 84de 93bc 3141 b03d 3df4 ff3c 72fe dabd
00000030: 9362 b53d 9043 1abc 5fd7 d6bd 1646 fcbb
00000040: aa00 0bbe e25e 14bd e3c5 be3d e26f 46bd
00000050: cc3b ed3d ccd3 f9bd 3875 c43d a8b0 203e
00000060: d4ea 03bc 90c5 ed3c 768d b4bd 51d5 483d
00000070: 34c9 b8bd 922f 51bb 899d ff3d 71eb 623d
00000080: fbaa 0bbd a2d0 b6bd 156d 4e3e 9295 2b3d
00000090: a4a1 33bd 1a9a 26bd f68b 9ebd 09a4 09be
000000a0: 5133 e8bd 2b96 8b3d 76c2 0f3e 8dc5 06bd
000000b0: d875 e8bd c690 17be 1b9f 2fbd 13e8 b83b
000000c0: d047 abbd bafe 0c3d 0df2 bb3d 63fd 7ebc
000000d0: c64e e2bc 98cf b6bd 1a3a 54bd 6df6 643d
000000e0: 389d a43d 48ab a33d 6d11 823c c3ac d83d
000000f0: 779a 87bd 8fa7 a0bd 3de8 d9bd b862 2bbe
00000100: 352b 14be aaee c8bd af8c 82bd bbc1 fe3d
00000110: 7bf6 10be a7fb 153e 728a 64bd 4fbe 92bb
00000120: cd8d 283d 724f 0f3e 7aba aebc 635c 47be
00000130: 0aa2 083d e3f9 da3d 5325 7bbd 70cd 32be
00000140: 8fa6 ae3d 6983 06be c808 043e 601b c9bd
00000150: ee9f 973c caf3 113d 7ef4 2d3d 1afd de3d
00000160: bd75 ed3d 96be 013c 67eb 3bbd 249e 4cbd
00000170: de1b 68bd 6dec 88bc a1aa 5cbc d0a6 00bd
00000180: 82f0 82bd 63a6 dbbb bbca 383d 6cf1 6ebe
00000190: f23c d83d 44f7 8fbc 70b5 22bd ea03 aabd
000001a0: 7e28 683d 0cfe 82bd cc4a 643c 82ad b53d
000001b0: f12b cf3d 1c10 9fbc 755c f3ba 5de1 16be
000001c0: 9e31 6d3d 2fcf a8bd 5aaa c6bd fe8f d0bd
000001d0: ea4a 37bc f00b 3a3d 1579 273d 715a 5a3d
000001e0: d8c2 243e 0a75 c1bd f3d2 803d 3ddb 07be
000001f0: 785d 63bd 34ad 4cbd 0367 9dbd 8082 2abd
00000200: 8018 98bd 6ca8 e53c 8e67 d13d a01b 843c
00000210: ddb9 f03c 616a 0b3e acdc a3bd 22f0 f1bc
00000220: fe9e b43d c526 4e3c a1da 30ba 1624 0f3c
00000230: 1a1f 44bd 6325 bdbd b635 b33d 109f bdba
00000240: 633c b0bd 505a ac3c 29c3 e33d bee4 a3bd
00000250: e6cf 0cbc ce74 c33d 2de8 923d ff27 03bd
00000260: 18ab 82bd 2066 babc 4718 c0bc 9c41 81bd
00000270: 4676 d93a f0f8 d2bd 70f9 b43d 74a2 adbc
00000280: 14b6 5cbd 8b0e 473d 8f34 89bd c42e 5e3d
00000290: 7842 86bd 3126 1bbd 754f 693d 37b5 eb3c
000002a0: 2522 333d 98d5 603d ac41 97bc 830e 2bbb
000002b0: b027 a93d 25ec 7cbc d960 eebc 44e6 613d
000002c0: 13e9 0a3c 7bde 93bd 62d7 f7bd 5431 44ba
000002d0: 0844 b8bd b26a f1bd 8ad3 e33b 0a9d ac3c
000002e0: f4c3 88bd 4608 22bd 3359 17bd 9a65 253d
000002f0: fa7e ba3d 82ed f93d c91a 643d 4e13 f7bd
00000300: eebb 263d cc68 e5bd bd59 1cbe ebe2 c3bd
00000310: 2558 d2bd 92d2 a3bd 6bec f8bc c9a2 9bbd
00000320: ec30 99bd 9c00 2e3c 2aff 783c 072b e2bd
00000330: 3550 1e3d e6cb 313c 0141 27be 9e04 e5bd
00000340: 166a 813d db4e 2cbe 43f3 563c 55f0 a63d
00000350: ecb0 5a3d d4a9 bbbd 5460 0cbc 6cb9 a33d
00000360: 53a2 d43c 50e1 bbbd 230a 8d3c c38e 23be
00000370: 3525 903a d485 37be d61a c3bc e6f0 543d
00000380: e50e 19be acf7 b9bc 1431 683e 80e3 79bc
00000390: fe79 08be dddc f6bd c9fa 513d 920f 46be
000003a0: 1c75 903d b072 9a3d b926 4b3c 26e5 d6bd
000003b0: ffef 6d3d 83b9 9ebd 2e1b ecbd 722d 40be
000003c0: 187f 07be e2d8 d13d 2968 f2bb 744f 39bd
000003d0: 4cd0 cc3c 8e1a 103b e9b5 7f3c a9e9 17be
000003e0: 6a1e 4d3c d5d6 a7bd 8d01 dabd 54f5 94bd
000003f0: c945 963d 9455 1a3d 7ab1 72bd e74b 15be

lstm.bias_hh_l1 f4 [256]
-0.030456102 0.060002144 0.08294066 0.028360385 -0.080649145 0.08050857 -0.16017897 -0.02182569
0.019475492 0.12029127 -0.13120809 -0.056469567 -0.057469394 -0.12672248 -0.20452361 0.061139613
0.0499646 -0.018011829 -0.11204543 -0.078055575 -0.12842773 -0.101807535 0.07938971 0.08046381
-0.14919221 0.057298876 0.024646709 -0.07935809 0.02893373 -0.08149362 -0.02605255 0.07699102
0.04644113 0.04405043 0.20598252 0.018095408 -0.1402112 0.13305879 -0.10266491 0.0035323394
0.049970835 0.013539709 0.07223609 -0.033461556 0.03424177 -0.13240637 -0.24407946 -0.13697535
-0.16828406 -0.14315423 -0.07790446 0.065868646 -0.18478662 -0.113419764 -0.10941479 -0.13162675
-0.012140399 0.03901519 -0.12078882 0.092830434 -0.009676936 -0.0046701366 -0.061884046 -0.18647023
-0.1235755 -0.09729795 -0.11709612 -0.0068015354 -0.12098545 -0.031239336 0.0048599704 -0.11092265
-0.056934655 0.03153118 -0.17777672 -0.15846404 0.022991348 0.026517857 -0.048226632 -0.13349259
-0.075366884 -0.1142015 0.11919345 0.033128556 -0.033847064 0.04743404 -0.015087229 0.041224204
0.0833659 0.08917505 -0.13579804 -0.06425117 -0.14574862 -0.010502534 -0.011062948 -0.11637613
-0.103330426 0.0475554 0.07303752 -0.17676821 0.06608065 -0.122519165 0.019852022 -0.1567304
0.056963675 0.1057725 0.050581567 -0.0061193276 0.038163003 0.09832559 -0.019541865 -0.00905038
-0.029458435 0.040268708 0.13856483 -0.07419704 -0.039456572 0.07337884 0.16375785 0.021489948
0.18665567 -0.03301242 -0.020748114 -0.10532141 0.034021858 -0.24073485 0.076005384 -0.055515975
0.0905785 0.005080864 -0.007999611 0.06512 0.023083786 0.0021944107 -0.088072985 -0.055781998
0.040052257 -0.06050642 -0.06305319 0.0327994 -0.0039717015 -0.027413733 -0.051746376 0.10975471
0.057427 -0.06492192 0.09458274 0.0070278267 -0.12694633 0.06265711 0.05633262 0.062256917
0.0966598 0.058074042 0.06585175 -0.0003449232 -0.0016596015 0.08925569 -0.029488442 -0.07187087
0.026230177 -0.057870697 0.04014671 -0.077874646 -0.0652055 0.04881654 -0.102396175 0.07331589
-0.09562736 0.11693332 0.09536365 0.04390765 -0.07889168 -0.022474878 0.010622233 -0.1004459
0.0021514224 0.107910916 -0.076569416 -0.014731776 -0.08406587 -0.12286238 -0.08826913 0.044853196
0.116245896 0.07886947 -0.12627672 0.11076444 0.06815606 0.0118022915 0.079520114 -0.015571407
0.03496394 -0.033517644 -0.05774089 -0.05876273 -0.090343125 0.041929193 0.054055095 -0.19396414
-0.05681192 -0.124497935 -0.09879916 -0.009941247 0.09556549 -0.2204786 -0.036339555 -0.05027834
-0.07772155 -0.029540276 -0.017455336 -0.030539423 0.033476386 -0.08338838 -0.08829525 0.081577204
-0.100715324 0.014982771 -0.1428251 -0.08363501 0.0005838643 -0.023332275 -0.02451973 -0.16187043
-0.1179952 -0.13374388 0.25884405 -0.13409139 -0.0052158553 -0.048337832 0.0061604516 -0.16930047
-0.07410124 0.09374553 0.04649326 -0.08854413 -0.060549363 -0.059132006 -0.04666197 -0.022337934
-0.07388164 0.11160421 -0.01373898 0.060163498 -0.12894233 0.0038592701 0.051138874 0.006964484
-0.07366979 -0.123571604 -0.11681054 0.057791844 0.040865943 0.025554303 0.029286496 0.0063407915
00000000: 137f f9bc cfc4 753d cbdc a93d 0a54 e83c
00000010: 612b a5bd ade1 a43d f505 24be cacb b2bc
00000020: 118b 9f3c 455b f63d 6a5b 06be a24c 67bd
00000030: 0765 6bbd 8ac3 01be a36e 51be 886d 7a3d
00000040: aea7 4c3d 8b8d 93bc 1378 e5bd 9adb 9fbd
00000050: 8f82 03be 7880 d0bd 1397 a23d 36ca a43d
00000060: d8c5 18be 3ab2 6a3d e5e7 c93c 7f86 a2bd
00000070: 6e06 ed3c 21e6 a6bd 286c d5bc 78ad 9d3d
00000080: 0e39 3e3d 396e 343d 15ed 523e d23c 943c
00000090: 8693 0fbe 9040 083e fb41 d2bd d27e 673b
000000a0: 38ae 4c3d a8d5 5d3c 84f0 933d fc0e 09bd
000000b0: 1941 0c3d 8995 07be f7ef 79be 4443 0cbe
000000c0: a852 2cbe 0697 12be 608c 9fbd 24e6 863d
000000d0: b438 3dbe 9f48 e8bd dd14 e0bd 2ac9 06be
000000e0: 86e8 46bc 64ce 1f3d 2160 f7bd e21d be3d
000000f0: 038c 1ebc f207 99bb 207a 7dbd 0df2 3ebe
00000100: 2715 fdbd 2644 c7bd 17d0 efbd 6adf debb
00000110: 38c7 f7bd a3e9 ffbc 6340 9f3b 6a2b e3bd
00000120: 5034 69bd d726 013d 1a0b 36be 6644 22be
00000130: 5a58 bc3c fa3b d93c 4a89 45bd 48b2 08be
00000140: f459 9abd 7ae2 e9bd b21b f43d cfb1 073d
00000150: 38a3 0abd 324a 423d 6d30 77bc b6da 283d
00000160: bebb aa3d 69a1 b63d a40e 0bbe 1e96 83bd
00000170: 203f 15be d212 2cbc 5e41 35bc 9c56 eebd
00000180: e79e d3bd 73c9 423d b294 953d ba02 35be
00000190: 4b55 873d 54eb fabd b5a0 a23c ef7d 20be
000001a0: be52 693d 419f d83d 9e2e 4f3d a484 c8bb
000001b0: cf50 1c3d ed5e c93d 4316 a0bc 0c48 14bc
000001c0: d152 f1bc cdf0 243d f0e3 0d3e 9ef4 97bd
000001d0: 379d 21bd a547 963d 23b0 273e b00b b03c
000001e0: aa22 3f3e 0838 07bd f3f7 a9bc c0b2 d7bd
000001f0: 815a 0b3d 3283 76be b6a8 9b3d b864 63bd
00000200: 3881 b93d 607d a63b cd10 03bc a25d 853d
00000210: 351a bd3c 1ad0 0f3b 9c5f b4bd aa7b 64bd
00000220: d60d 243d 94d5 77bd 0822 81bd aa58 063d
00000230: 0c25 82bb c492 e0bc 02f4 53bd 14c7 e03d
00000240: 9338 6b3d c9f5 84bd 98b4 c13d af49 e63b
00000250: 38fe 01be 5f52 803d 09bd 663d 1c01 7f3d
00000260: 93f5 c53d 0cdf 6d3d 48dd 863d cfd6 b4b9
00000270: fc86 d9ba b0cb b63d bf91 f1bc 0931 93bd
00000280: abe0 d63c d309 6dbd e070 243d be7c 9fbd
00000290: 768a 85bd daf3 473d 16b5 d1bd a426 963d
000002a0: 47d8 c3bd bd7a ef3d 044e c33d 82d8 333d
000002b0: f691 a1bd 3c1d b8bc e008 2e3c 94b6 cdbd
000002c0: e1fe 0c3b 6600 dd3d 6dd0 9cbd 8c5d 71bc
000002d0: ba2a acbd 469f fbbd 72c6 b4bd fcb7 373d
000002e0: 5412 ee3d 5186 a13d af4e 01be 77d8 e23d
000002f0: 6895 8b3d 665e 413c 71db a23d 371f 7fbc
00000300: 5936 0f3d cc49 09bd b681 6cbd 30b1 70bd
00000310: d105 b9bd f2bd 2b3d e068 5d3d 899e 46be
00000320: 9eb3 68bd c6f8 febd 3757 cabd 9de0 22bc
00000330: d7b7 c33d 24c5 61be c9d8 14bd a9f0 4dbd
00000340: 7a2c 9fbd 73fe f1bc 7efe 8ebc d02d fabc
00000350: 891e 093d 87c7 aabd 24d4 b4bd f311 a73d
00000360: d643 cebd 4c7a 753c be40 12be d548 abbd
00000370: 780e 193a 5423 bfbc 9add c8bc 5dc1 25be
00000380: 78a7 f1bd 28f4 08be 3587 843e 414f 09be
00000390: c4e9 aabb e4fd 45bd 9ddd c93b 1a5d 2dbe
000003a0: 64c2 97bd a8fd bf3d b76f 3e3d a056 b5bd
000003b0: 9c02 78bd 6734 72bd 9f20 3fbd 0bfe b6bc
000003c0: 424f 97bd c090 e43d 7519 61bc 006e 763d
000003d0: 7509 04be cfeb 7c3b ff76 513d 5436 e43b
000003e0: 30e0 96bd 1c13 fdbd 5d3a efbd 24b7 6c3d
000003f0: 0c63 273d 4257 d13c 3cea ef3c 6ac6 cf3b
