model/final_model_0_param_avg.pt (torch, 219719 bytes, 9 tensors)

lstm.weight_ih_l0 f4 [256, 15]
0	0x3e83fccd	0.2577881
1	0xbbab0550	-0.005219139
2	0x3db19959	0.08671827
3	0x3d39f15e	0.0453962
4	0xbc9980a1	-0.018738093
5	0xbe2ff60a	-0.171837
6	0x3e293f7a	0.1652812
7	0xbe9e68f9	-0.30939463
8	0xbc088a3c	-0.008333739
9	0xbd87b00b	-0.066253744
10	0xbe947a75	-0.28999677
11	0xbef6d260	-0.48207378
12	0x3e38c826	0.180451
13	0x3e7fdf2c	0.24987477
14	0x3e975dc0	0.29563713
15	0x3d74d006	0.0597687
16	0xbe27d775	-0.16390784
17	0xbe027b5c	-0.1274237
18	0xbe07b797	-0.13253628
19	0xbcdc7e30	-0.02691564
20	0x3dc9e420	0.098579645
21	0xbdf46ef4	-0.11935225
22	0xbdfa1824	-0.12211636
23	0x3cf2e922	0.029652182
24	0xbea8dcd4	-0.32980978
25	0x3e3c6a85	0.18400009
26	0x3edb3569	0.42814186
27	0x3e27a0e6	0.16369972
28	0x3e1b755b	0.15181486
29	0x3cbf52a8	0.023354843
30	0x3e316aac	0.17325848
31	0xbdae2360	-0.08502841
32	0xbd3b68ec	-0.04575436
33	0xbdb7941c	-0.089637965
34	0xbe19390d	-0.1496317
35	0x3db8f5b9	0.09031243
36	0x3d90636d	0.07050214
37	0x3e39ccd6	0.18144545
38	0x3de5c78e	0.11219703
39	0xbe1c460f	-0.152611
40	0x3dfb9b44	0.12285474
41	0x3e04e20c	0.12976855
42	0x3ddb08e0	0.10695052
43	0x3d8a8938	0.06764454
44	0x3dbe22a0	0.09283948
45	0xbeff6fe2	-0.49890047
46	0x3d11d141	0.03559995
47	0xbe094a86	-0.13407335
48	0x3cbafb85	0.022825012
49	0x3dae5b66	0.085135266
50	0xbdaf2a6e	-0.08553015
51	0xbdc03444	-0.09384969
52	0xbdf23d2f	-0.11828076
53	0xbdf4c46f	-0.11951529
54	0x3dce0a1a	0.100605205
55	0x3d72b058	0.059250206
56	0x3e9b5bbb	0.30343422
57	0x3e8342ca	0.25636894
58	0x3ec41efa	0.38304883
59	0x3eaa7964	0.3329574
60	0xbe8d3273	-0.27577552
61	0x3e310473	0.17286853
62	0x3eb1ac4d	0.34701768
63	0x3e972ab4	0.29524767
64	0xbd0071ec	-0.031358644
65	0x3c78c0f0	0.015182719
66	0x3d45d33e	0.04829716
67	0x3e918b4e	0.28426594
68	0x3f0d7feb	0.5527331
69	0xbe6f7ade	-0.23386714
70	0xbdbcdd06	-0.092218444
71	0x3ea1deea	0.31615382
72	0xbe0fc3e2	-0.14039567
73	0xbd43e6e0	-0.0478276
74	0xbea31d6e	-0.3185839
75	0xbe7b466d	-0.24538584
76	0xbe04a50a	-0.12953582
77	0xbd83ad43	-0.064295314
78	0xbde12ad5	-0.10994498
79	0xbe09ae48	-0.1344539
80	0x3d5bc7a3	0.053657185
81	0x3c819a65	0.015820691
82	0x3d358424	0.044315472
83	0xbd45977e	-0.048240177
84	0xbc7cc5ee	-0.0154280495
85	0x3ea8a677	0.32939503
86	0x3e9bbf5c	0.30419433
87	0x3e848e9c	0.25890052
88	0x3da85bdf	0.08220648
89	0x3e8fbb37	0.2807252
90	0x3ea555fa	0.32292157
91	0x3ea83be0	0.3285818
92	0x3ea354b5	0.31900564
93	0x3e720cf6	0.23637757
94	0x3eb517f3	0.35369834
95	0x3e6fa651	0.23403288
96	0x3f028b1a	0.509935
97	0x3d45e426	0.048313282
98	0x3e5b604c	0.21423453
99	0x3d4b1b8e	0.049586825
100	0x3ea1b1cd	0.31580964
101	0x3ecc6f5e	0.39928716
102	0x3ea0bf61	0.3139601
103	0x3dfda5ef	0.12385165
104	0x3dc432fb	0.09580036
105	0x3e753a9c	0.23948139
106	0x3d3749b0	0.04474801
107	0x3db6d98a	0.08928211
108	0x3d797cc7	0.060910013
109	0x3e288886	0.1645833
110	0x3c8e2d78	0.017355666
111	0xbd7cebae	-0.0617482
112	0x3db10e3e	0.086452946
113	0x3c5c79f7	0.013456813
114	0x3dd5c092	0.104371205
115	0xbe86af08	-0.26305413
116	0xbe34c68d	-0.17653866
117	0xbd321a8b	-0.043482345
118	0xbed8e5bb	-0.4236277
119	0xbe6b919b	-0.23004763
120	0xbeae756e	-0.34073967
121	0x3eac4055	0.3364283
122	0x3e8de6e1	0.2771521
123	0x3ec7f67c	0.3905524
124	0x3de6f77d	0.112776734
125	0xbd255206	-0.040361427
126	0xbd903de5	-0.070430554
127	0x3c58af98	0.013225459
128	0x3e09bd15	0.13451035
129	0xbeb66f1d	-0.35631648
130	0xbd450354	-0.048098877
131	0x3df33ec7	0.11877208
132	0xbe5250de	-0.20538661
133	0xbdcf1d8b	-0.10113057
134	0xbe13d0c3	-0.14435105
135	0xbefe79ad	-0.49702206
136	0xbdcdc61e	-0.100475535
137	0xbdb2e8ab	-0.08735784
138	0x3c0f0fa3	0.008731755
139	0x3bda6672	0.0066650445
140	0xbe5f1c86	-0.21788225
141	0xbe28050a	-0.16408172
142	0x3d5f90ad	0.054581333
143	0x3e20b19f	0.15692757
144	0x3da6427c	0.0811815
145	0x3dba4dcc	0.0909687
146	0xbe06ee86	-0.13176927
147	0xbdd6f7e9	-0.10496504
148	0xbe458b2e	-0.19291374
149	0xbd8ba4c9	-0.0681854
150	0x3e087362	0.13325265
151	0xbd81fdd8	-0.06347245
152	0xbb39bc50	-0.0028341003
153	0x3d8ecb18	0.06972331
154	0xbc9e55c9	-0.019328015
155	0xbe084d11	-0.13310649
156	0xbce49e7f	-0.027907608
157	0x3dc3bce2	0.09557511
158	0x3e7966a8	0.24355567
159	0xbe265896	-0.1624473
160	0xbd12cb7b	-0.035838585
161	0xbe60072e	-0.21877739
162	0x3da8be4e	0.08239423
163	0x3d7007bc	0.058601126
164	0xbbe2b365	-0.006918358
165	0x3dd3efbf	0.10348462
166	0xbc853ec7	-0.016265286
167	0xbda87d35	-0.08227006
168	0xbd814db0	-0.06313646
169	0xbea8e296	-0.3298537
170	0xbbcffb53	-0.006347099
171	0xbe0d4552	-0.13795975
172	0xbd5968b0	-0.053078353
173	0xbe33f4de	-0.17573878
174	0x3cf8a5fa	0.030352581
175	0x3e4ece0e	0.20195791
176	0x3e1761dc	0.14783424
177	0xbd28e705	-0.041235942
178	0xbb45b164	-0.0030165548
179	0x3dc4253e	0.09577416
180	0xbd0105f2	-0.03149981
181	0x3ea7d43f	0.32779118
182	0x3e44acd6	0.19206557
183	0x3e585c11	0.2112887
184	0x3e4a184d	0.19735833
185	0x3d39e48d	0.04538398
186	0x3eeb8f76	0.4600789
187	0xbe020434	-0.12696916
188	0x3d89a7fc	0.067214936
189	0xbdb4b90b	-0.08824357
190	0x3e781789	0.24227728
191	0x3c13fd92	0.009032624
192	0x3eb48263	0.35255727
193	0x3ea14417	0.3149726
194	0x3ca079df	0.019589363
195	0x3e6033aa	0.21894708
196	0xbd372332	-0.0447113
197	0xbd3b31ba	-0.04570172
198	0x3dd7fceb	0.10546287
199	0x3e0390c0	0.12848186
200	0xbcbf6110	-0.023361713
201	0x3e3d2c2e	0.18473884
202	0x3d04e504	0.03244497
203	0x3eee7845	0.46576133
204	0xbdc63211	-0.09677518
205	0xbed33280	-0.41249466
206	0xbefcd1c7	-0.49378797
207	0xbc4f5285	-0.0126539515
208	0xbe3e8699	-0.18606032
209	0xbea41514	-0.3204733
210	0xbef8c371	-0.4858661
211	0x3d0ffa45	0.035150785
212	0x3d246a0c	0.040140197
213	0x3d771e40	0.060331583
214	0xbcf91cac	-0.03040918
215	0xbd53f83c	-0.051750407
216	0x3c987746	0.018611562
217	0xbdb634f8	-0.08896822
218	0xbe3aecb8	-0.18254364
219	0xbe853d6d	-0.26023427
220	0x3e4f9702	0.20272449
221	0x3e46481a	0.19363442
222	0x3dd01514	0.1016027
223	0xbce25de9	-0.02763267
224	0xbd71568c	-0.05892043
225	0x3ebca936	0.36847848
226	0xbda5e0be	-0.08099507
227	0xbd32dc9e	-0.04366743
228	0x3e18d9f2	0.1492689
229	0xbe2fe326	-0.17176494
230	0x3d426165	0.047456164
231	0xbd5e0859	-0.05420718
232	0x3ea601dc	0.32423294
233	0x3ce437a8	0.02785857
234	0xbc0c5ad4	-0.008566577
235	0xbe897487	-0.26846716
236	0xbc880fd6	-0.016609114
237	0xbe95d892	-0.29266793
238	0xbe8d2255	-0.27565256
239	0xbf06629d	-0.5249422
240	0xbde4c62e	-0.11170612
241	0x3d2d9626	0.04237952
242	0x3e255e24	0.16149193
243	0x3d22957e	0.039693348
244	0x3e25848a	0.16163841
245	0x3e2b6012	0.16735867
246	0x3e9e8616	0.30961674
247	0x3d83410d	0.06408892
248	0xbd86130a	-0.065466
249	0xbdea0cba	-0.11428209
250	0x3e2b3449	0.16719164
251	0x3ee5a230	0.44850302
252	0x3d5eafb0	0.054366767
253	0xbd99c1e2	-0.07507683
254	0xbed0882f	-0.407289
255	0x3ef17033	0.47155914

lstm.weight_hh_l0 f4 [256, 64]
0	0x3cdfc554	0.027315773
1	0xbd695ae2	-0.05697144
2	0x3e5ba237	0.21448599
3	0x3e4009e6	0.18753776
4	0xbd24fe0f	-0.04028135
5	0xbdde3b6e	-0.10851179
6	0x3e9e29d2	0.3089128
7	0x3d8ce473	0.06879511
8	0xbdbd4c80	-0.09243107
9	0xbd0e21c7	-0.03470018
10	0x3dc77763	0.09739568
11	0x3da9ca8c	0.08290586
12	0x3e581503	0.21101765
13	0xbe3267e5	-0.17422445
14	0x3e07795f	0.13229893
15	0x3d99a614	0.0750238
16	0xbe093369	-0.13398518
17	0xbea40ede	-0.32042593
18	0xbe06a86e	-0.13150188
19	0xbd4aec2e	-0.049541645
20	0xbdf6435f	-0.12024569
21	0x3e578afe	0.21049115
22	0xbcf4335e	-0.02980965
23	0x3db22d6f	0.08700072
24	0xbd5e6fd2	-0.05430586
25	0xbd9c0be6	-0.07619457
26	0x3d0568c4	0.032570615
27	0xbd994026	-0.074829385
28	0xbe4efbb7	-0.20213209
29	0xb9ee9f0a	-0.0004551339
30	0x3e02bea7	0.1276804
31	0x3d7ee101	0.0622263
32	0x3e3dabd0	0.18522573
33	0x3df16f0a	0.11788757
34	0x3d691f1a	0.056914426
35	0x3d30723a	0.043077685
36	0x3e8dfd69	0.277324
37	0xbe949493	-0.29019603
38	0xbc832999	-0.016011046
39	0xbdc6beea	-0.09704383
40	0xbde94f7e	-0.11392115
41	0x3e226ace	0.15861055
42	0xbd939eea	-0.07208045
43	0x3e8e2faa	0.2777074
44	0xbd77ba6d	-0.060480524
45	0xbd680a2e	-0.056650333
46	0xbe18c668	-0.14919436
47	0x3e175bb7	0.1478108
48	0x3d742c14	0.05961235
49	0x3e46526e	0.19367382
50	0x3e7b284f	0.24527095
51	0xbe617cda	-0.22020283
52	0xbd5d8e17	-0.054090586
53	0xbdd0bc24	-0.10192135
54	0x3d9648cc	0.07338104
55	0xbd21495a	-0.039376594
56	0xbe9d04e6	-0.306678
57	0x3d8fdb4c	0.070242494
58	0xbdca8da2	-0.098902956
59	0x3df1fef2	0.11816205
60	0xbde6c1a6	-0.11267404
61	0x3e38aabe	0.18033883
62	0xbe5a5f06	-0.21325311
63	0x3e057744	0.13033777
64	0x3d8c5ba8	0.068534195
65	0xbddae4d5	-0.106881775
66	0x3d439b16	0.047755323
67	0x3daeb2d6	0.08530204
68	0xbdb69d3e	-0.0891671
69	0x3e108ebe	0.14116952
70	0x3eb89cb5	0.36057058
71	0xbdfe348c	-0.12412366
72	0xbd511354	-0.051043823
73	0xba42e7b9	-0.0007435042
74	0x3cee78b5	0.029110292
75	0x3d496660	0.049169898
76	0x3e244fa0	0.16046
77	0x3eab3309	0.33437374
78	0x3cc57c37	0.024107082
79	0x3c053cdc	0.008132186
80	0x3c75c4d4	0.015000541
81	0xbda04be3	-0.07826974
82	0xbd43aee7	-0.04777422
83	0x3cd2b1c4	0.02571953
84	0x3d642ac9	0.055704866
85	0x3de0e5e9	0.10981352
86	0xbe2f7c10	-0.1713717
87	0x3e107942	0.14108756
88	0xbd27b0c4	-0.04094006
89	0xbe355ca6	-0.17711124
90	0xbe1323b5	-0.1436909
91	0xbdb9c1fa	-0.09070201
92	0x3d049a72	0.032373853
93	0x3d90e322	0.07074572
94	0xbd4b170c	-0.049582526
95	0xbe27883e	-0.16360566
96	0x3cd92de9	0.02651115
97	0x3de65c4a	0.112480715
98	0xbe39831a	-0.18116418
99	0x3c0d04ec	0.0086071305
100	0x3ba72e40	0.005101949
101	0xbe0ae7ae	-0.13564941
102	0xbc6c74ab	-0.014432113
103	0x3d63a4ac	0.055576965
104	0x3e02b482	0.12764171
105	0xbe5f2828	-0.21792662
106	0x3cb96618	0.02263169
107	0xbdb3ad3a	-0.08773275
108	0x3e4fda97	0.20298229
109	0xbe05774a	-0.13033786
110	0x3d827632	0.063702
111	0x3e5c3ebb	0.21508305
112	0xbcb613fc	-0.022226326
113	0xbe19ae43	-0.15007882
114	0x3e158034	0.14599687
115	0x3dc0ae5c	0.094082564
116	0xbe199228	-0.1499716
117	0xbc8275f7	-0.01592539
118	0xbcb76644	-0.022387631
119	0xbd68bef6	-0.05682274
120	0x3c2ac32e	0.010422511
121	0x3e2177a2	0.15768293
122	0xbd0b7f06	-0.034056686
123	0x3ca42d97	0.02004127
124	0x3dc2ebb9	0.09517617
125	0xbdd1eed1	-0.10250629
126	0xbdf223df	-0.11823248
127	0xbd8f1e94	-0.06988254
128	0x3e2ab5a0	0.16670847
129	0xbc769df0	-0.015052304
130	0xbc54d8ec	-0.012991171
131	0xbcebc053	-0.02877823
132	0x3d3d1212	0.04615981
133	0x3e86e471	0.26346162
134	0x3db754df	0.08951735
135	0x3c39c55a	0.011338556
136	0xbe1d26c9	-0.15346827
137	0xbe3d9eb9	-0.18517579
138	0xbd036cca	-0.03208617
139	0xbc9b7920	-0.018978655
140	0x3de236ff	0.11045646
141	0x3d423490	0.04741341
142	0xbdd33989	-0.10313708
143	0x3da39a35	0.07988397
144	0x3e705fe9	0.23474087
145	0x3d00ecb4	0.031475738
146	0xbe52b913	-0.20578413
147	0xbe3fa8c4	-0.18716723
148	0x3c5884a7	0.0132152205
149	0x3da65233	0.08121147
150	0xbdf63b3e	-0.12023018
151	0xbd3b4487	-0.04571965
152	0x3d507dcb	0.050901216
153	0x3df6b961	0.12047077
154	0x3df87558	0.121317565
155	0xbdc7ec50	-0.0976187
156	0x3e431026	0.19049129
157	0x3de4553f	0.11149072
158	0x3e27e3f0	0.16395545
159	0xbd2be198	-0.04196319
160	0xbe9ae738	-0.3025453
161	0x3db9bf86	0.09069733
162	0x3caeaaf9	0.02132176
163	0xbe1ca35d	-0.15296693
164	0x3d780991	0.060556
165	0xbda10a1e	-0.07863258
166	0xbd82df99	-0.06390304
167	0xbd251d6a	-0.040311255
168	0x3df15bd0	0.1178509
169	0x3c845216	0.016152423
170	0x3d171856	0.036888443
171	0x3d3daf85	0.046309967
172	0xbe2faac4	-0.17154986
173	0xbd8e8076	-0.06958096
174	0xbe646c0c	-0.22306842
175	0x3d5613ae	0.05226486
176	0xbb5eaf39	-0.0033978953
177	0xbd761099	-0.060074423
178	0xbd3c1543	-0.045918714
179	0x3db89daa	0.09014447
180	0xbdc98118	-0.09839076
181	0xbe12718d	-0.14301129
182	0x3e2dfce5	0.16991003
183	0xbd93fe9d	-0.07226298
184	0xba54042f	-0.00080877816
185	0x3ad65f4e	0.0016355307
186	0xbbb36f31	-0.0054759015
187	0xbda8e0ee	-0.08246027
188	0x3d5727eb	0.052528303
189	0xbe91d7e9	-0.2848504
190	0xbd9c7de5	-0.076412
191	0xbc319fdc	-0.010841336
192	0xbb603ed2	-0.0034217131
193	0x3da04d65	0.07827262
194	0x3e633c14	0.22190887
195	0x3e155154	0.14581805
196	0x3e1ca709	0.15298094
197	0x3e0ce7cf	0.13760303
198	0x3db5f910	0.088853955
199	0xbe74dd56	-0.23912558
200	0xbc906855	-0.017627874
201	0x3de94160	0.113894224
202	0xbe911ded	-0.28343144
203	0xbe6cbd09	-0.23118986
204	0xbe42e59a	-0.19032899
205	0xbc674670	-0.014115915
206	0xbde27c60	-0.11058879
207	0x3dba2a84	0.090901405
208	0x3ddee4d2	0.10883488
209	0xbdd12553	-0.10212197
210	0xbe8cc6be	-0.27495378
211	0xbe4fdbcb	-0.20298688
212	0xbd33d974	-0.04390855
213	0x3e29586f	0.16537641
214	0x3e751559	0.23933925
215	0xbcced04e	-0.025245812
216	0xbddf5cc8	-0.109063685
217	0xbd83bfa6	-0.064330384
218	0xbe4a2d92	-0.19743946
219	0xbd25aa65	-0.040445704
220	0x3d39a768	0.045325667
221	0x3e3d2c29	0.18473877
222	0x3d363684	0.044485584
223	0xbcfe54c6	-0.031046283
224	0x3db1bcdc	0.086786
225	0xbc8ea82e	-0.017414179
226	0x3e16d1b7	0.14728437
227	0x3e241cc9	0.16026606
228	0x3e66443c	0.22486967
229	0xbe423bee	-0.18968174
230	0x3e997ac9	0.2997649
231	0xbe7a79d2	-0.24460533
232	0xbbf93024	-0.0076046158
233	0x3e6a5971	0.22885682
234	0xbdd04db2	-0.10171069
235	0xbd9b139f	-0.07572102
236	0x3d6fbaa8	0.05852762
237	0xbe39198d	-0.18076153
238	0xbcf896a8	-0.030345276
239	0xbc970f7b	-0.018439999
240	0x3df7122a	0.120640114
241	0xbdde6dd2	-0.1086079
242	0xbdc1da8e	-0.09465514
243	0xbcd9a60f	-0.02656844
244	0x3adea141	0.0016985313
245	0xbdc20102	-0.094728485
246	0x3e0af861	0.13571312
247	0xbcfbf739	-0.030757533
248	0xbed3e0e0	-0.41382504
249	0xbd4d9c5b	-0.05019794
250	0x3d8655a4	0.065593034
251	0x3e8973bf	0.2684612
252	0xbc9f34af	-0.019434301
253	0xbdb7ac53	-0.08968415
254	0xbd81cfd7	-0.063384704
255	0xbd9cdcb7	-0.076592855

lstm.bias_ih_l0 f4 [256]
0	0x3dd04629	0.10169632
1	0xbcff2393	-0.031144893
2	0x3d765629	0.060140762
3	0xbe11bee0	-0.1423297
4	0x3c29965c	0.01035079
5	0xbd04e99e	-0.032449357
6	0x3e9f8b04	0.31160748
7	0x3de5772f	0.11204373
8	0x3d1ecc7b	0.038769227
9	0xbd047cd4	-0.032345608
10	0x3c771a7c	0.015081998
11	0xbd00203e	-0.03128075
12	0x3e0eec1a	0.13957253
13	0xbd9f8863	-0.077896856
14	0xbe260eed	-0.16216631
15	0x3c562dc0	0.013072431
16	0x3e076663	0.13222651
17	0xbcf5b716	-0.029994529
18	0xbbfb95ac	-0.0076777544
19	0xbd0bda96	-0.034144007
20	0xbcfc98ac	-0.030834518
21	0xbde991a1	-0.1140473
22	0xbd8e5f70	-0.06951797
23	0x3cc0886c	0.023502551
24	0xbe1ae9fe	-0.15128323
25	0xbdddaa2e	-0.10823475
26	0x3c2e08b2	0.01062219
27	0x3c641dbd	0.013923106
28	0x3e1d40d5	0.15356763
29	0xbe200fa2	-0.15630963
30	0x3e32ce59	0.17461528
31	0x3deb5d2f	0.11492383
32	0x3d4f443f	0.050602194
33	0x3c308daf	0.0107759675
34	0x3e1fbd3c	0.15599531
35	0xbc6990e9	-0.014255741
36	0x3e571811	0.21005274
37	0xbd32595f	-0.043542262
38	0x3e089caf	0.1334102
39	0xbd18a324	-0.037264958
40	0xbcf06776	-0.029346209
41	0x3c09d6bb	0.008413012
42	0xbdb975c6	-0.090556666
43	0x3de2ef5a	0.11080809
44	0x3dc499ae	0.095996246
45	0xbd127e6c	-0.035765097
46	0xbc460ddc	-0.012088265
47	0xbd01f21c	-0.031725034
48	0x3d03cff9	0.03218076
49	0xbd9795a4	-0.074015886
50	0x3d25ace6	0.040448092
51	0x3dfffdff	0.12499618
52	0x3d073e12	0.03301818
53	0xbd55055c	-0.052007064
54	0x3e8c2a19	0.27375868
55	0xbda19b61	-0.07890964
56	0xbe1d57a3	-0.15365462
57	0x3b3bbef6	0.0028647757
58	0x3d5286e8	0.051398188
59	0xbdc94857	-0.09828251
60	0x3e52331b	0.20527308
61	0x3ba9472d	0.0051659555
62	0x3e2c42df	0.16822384
63	0x3de8a701	0.113599785
64	0x3dbc0f5b	0.09182616
65	0xbda7eda0	-0.0819962
66	0x3d817d7a	0.06322761
67	0xbde57310	-0.11203587
68	0xbdd07d2c	-0.10180125
69	0xbd56db1c	-0.052455053
70	0xbddcca21	-0.107807405
71	0xbdb42928	-0.087969124
72	0xbd309bf6	-0.043117486
73	0x3dca7397	0.09885328
74	0xbe36043a	-0.1777505
75	0x3d113e1b	0.03545962
76	0xbc2e6d40	-0.010646164
77	0xbdefda7a	-0.11711593
78	0x3cd4d33f	0.025979636
79	0xbd86f6b0	-0.06590021
80	0xbd6c6e57	-0.057722416
81	0xbe42d36e	-0.19025967
82	0x3e5bb1b4	0.21454507
83	0x3e090f9a	0.13384858
84	0xbd43a442	-0.04776407
85	0x3ceaf92f	0.028683273
86	0x3da8c2cb	0.08240279
87	0xbd91492e	-0.07094036
88	0xbdc9c77a	-0.098525
89	0xbdff55c8	-0.12467533
90	0x3c40f625	0.011777435
91	0xbd933695	-0.07188145
92	0xbe25273c	-0.16128248
93	0x3c875200	0.016518593
94	0xbe255f5a	-0.16149655
95	0x3d870d44	0.06594327
96	0x3d1baf57	0.038009014
97	0xbe0a2ea9	-0.13494362
98	0xbe86ab83	-0.26302728
99	0xbd8b9d4f	-0.068171136
100	0x3e15b1ac	0.14618558
101	0xbe0d26d9	-0.1378435
102	0xbe028310	-0.12745309
103	0xbd92a307	-0.07160001
104	0xbd98e0b0	-0.07464731
105	0x3d70859d	0.058721174
106	0xbc6eee21	-0.014583142
107	0xbe46b382	-0.19404414
108	0xbd74d1df	-0.05977046
109	0xbd4bdfc0	-0.04977393
110	0xbd947964	-0.07249716
111	0x3dbe025e	0.09277795
112	0xbe843468	-0.25821233
113	0xbd448073	-0.04797406
114	0x3ce5130a	0.02796318
115	0xbcb12114	-0.021622218
116	0xbe22036c	-0.15821618
117	0xbde1e4e7	-0.11029988
118	0xbe65a51d	-0.22426267
119	0xbd8f96f3	-0.07011213
120	0xbcd1b136	-0.025597196
121	0x3dce01e2	0.10058953
122	0x3cdeacc2	0.027181987
123	0xbcf74030	-0.030181974
124	0xbe858334	-0.26076663
125	0xbd9db851	-0.07701171
126	0xbdc398fb	-0.09550663
127	0xbd3a6978	-0.04551074
128	0xbd4f7ec0	-0.050657988
129	0xbd31ad92	-0.04337842
130	0x3d09f101	0.033677105
131	0xbd134a09	-0.035959277
132	0xbdb6641b	-0.08905812
133	0xbdc7a8f0	-0.09749019
134	0x3db2f1eb	0.087375484
135	0x3c3abdb8	0.011397772
136	0xbcf2923f	-0.029610751
137	0x3bbecb63	0.0058225854
138	0xbcd1dcf6	-0.025618058
139	0xbdb40f13	-0.08791938
140	0xbd252c3b	-0.040325385
141	0xbd28f638	-0.041250437
142	0x3d36ecb7	0.044659343
143	0x3d1a258d	0.037633467
144	0x3e0937e9	0.13400234
145	0x3c841594	0.01612357
146	0x3da5a208	0.08087546
147	0x3db534d0	0.08847964
148	0xbc1c9da1	-0.009559066
149	0xbd712ddd	-0.05888163
150	0xbb009a5a	-0.001962325
151	0xbd1fd110	-0.039017737
152	0x3bbfa130	0.0058480725
153	0x3dda309c	0.10653803
154	0xbdff7aa7	-0.12474566
155	0xbd25e020	-0.040496945
156	0xbe1908d2	-0.14944771
157	0x3d19ff0e	0.037596755
158	0xbcb52f12	-0.022117171
159	0xbcee5a90	-0.029095918
160	0xbba3291a	-0.004979265
161	0xbd538c05	-0.051647205
162	0xbde5ec9e	-0.11226772
163	0x3d934768	0.07191354
164	0xbd4575f9	-0.04820821
165	0xbdf2f0e6	-0.11862354
166	0x3d55eeaf	0.05222958
167	0x3b56854e	0.0032733264
168	0x3de268bf	0.11055135
169	0x3b931673	0.00448876
170	0xbdd26ca1	-0.102746256
171	0xbc3e9325	-0.011631762
172	0xbdb0c037	-0.08630412
173	0x3d799ac0	0.060938597
174	0x3db003e3	0.08594491
175	0x3d20801a	0.039184667
176	0xbd8b0396	-0.06787793
177	0xbcd7db8a	-0.026349802
178	0xbdc8b227	-0.09799605
179	0x3dd5bad7	0.104360275
180	0x3c5e7e7b	0.01357996
181	0xbd0ce760	-0.034400344
182	0x3def1460	0.11673808
183	0x3da48a80	0.08034229
184	0xbdc3969e	-0.09550212
185	0xbd96d4fe	-0.07364844
186	0x3ce59fb2	0.02803025
187	0xbdb9362a	-0.09043534
188	0x3cb22775	0.02174733
189	0xbdb8e26d	-0.09027562
190	0xbc53c973	-0.012926447
191	0x3d57e3bf	0.05270743
192	0xbd9426ee	-0.07233988
193	0xbe214f61	-0.15752937
194	0xbe06aacd	-0.13151093
195	0x3d87cb3f	0.06630563
196	0x3e0d6ac2	0.13810256
197	0xbda181ee	-0.0788611
198	0x3e6b179c	0.22958225
199	0xbc09fcb3	-0.008422065
200	0x3dc961e8	0.09833127
201	0xbc337399	-0.010952854
202	0x3d6f00b8	0.058350295
203	0x3d3f9a3e	0.046777956
204	0x3e23a734	0.15981752
205	0xbe2ae8b4	-0.16690332
206	0x390b265e	0.00013270366
207	0xbcc033dc	-0.023462228
208	0x3d12575d	0.035727847
209	0xbcbefa55	-0.023312727
210	0xbb74c5ca	-0.0037349337
211	0xbd6f1cfb	-0.058377247
212	0x3d25021e	0.040285222
213	0xbcb13801	-0.02163315
214	0x3d26b1c6	0.04069688
215	0xbd9d8525	-0.07691411
216	0xbde70c43	-0.112816356
217	0x3dcb50f3	0.09927549
218	0xbc2c4826	-0.010515248
219	0x3de9b85b	0.11412116
220	0x39958cee	0.00028524495
221	0x3d19bce9	0.037533674
222	0x3e5ecb4b	0.21757238
223	0x3d6ebd76	0.058286153
224	0x3c9298a8	0.017895058
225	0x3da7177b	0.081587754
226	0x3e05f556	0.1308187
227	0x3d85c9c6	0.06532626
228	0x3dec7f25	0.115476884
229	0x3d4b7085	0.049667854
230	0x3e1226d8	0.1427263
231	0xbe353184	-0.1769467
232	0xbd6d35d4	-0.057912663
233	0x3d3667fe	0.04453277
234	0x3d4619c6	0.048364423
235	0x3c8a9591	0.016917022
236	0xbe1a5eb2	-0.15075186
237	0x3e0254c4	0.12727648
238	0x3cccfafa	0.025022019
239	0xbe14ad0f	-0.14519142
240	0x3e153c4c	0.14573783
241	0xbde7783a	-0.11302228
242	0xbd912508	-0.07087141
243	0x3d9d0ed2	0.076688424
244	0x3e230207	0.15918742
245	0x3ce5a818	0.028034255
246	0x3e4f7d4d	0.20262642
247	0x3d8b7a46	0.06810431
248	0xbbf38c36	-0.007432486
249	0x3d564c67	0.052318957
250	0x3d479479	0.04872558
251	0x3bd2140d	0.0064110816
252	0x3e3d6978	0.18497264
253	0x3d7e6964	0.062112227
254	0xbcead4d4	-0.028665937
255	0xbd091df5	-0.033475835

lstm.bias_hh_l0 f4 [256]
0	0xbc5a75f6	-0.013333788
1	0x3d58cf2b	0.052931946
2	0xbccb1ad2	-0.024793062
3	0x3d57f81a	0.052726842
4	0x3e5d540a	0.2161409
5	0xbcc640de	-0.024200853
6	0x3e7bb0ad	0.24579115
7	0xbd6b384f	-0.057426747
8	0x3cc3a12e	0.023880567
9	0x3da9861c	0.082775325
10	0xbdb45d5f	-0.088068716
11	0xbe134208	-0.14380658
12	0x3e248581	0.16066553
13	0xbd8b4285	-0.06799797
14	0xbd5c37af	-0.05376404
15	0xbd713e77	-0.05889746
16	0x3e230449	0.15919603
17	0x3daec29e	0.08533214
18	0xbdca02ce	-0.09863816
19	0x3ca8def5	0.020614127
20	0xbe4e2246	-0.20130262
21	0xbdd286ed	-0.10279641
22	0x3d8ecf30	0.06973112
23	0x3d52b7ef	0.051444944
24	0xbdf2e831	-0.11860693
25	0xbceb2f2e	-0.02870902
26	0x3d7e4450	0.062076867
27	0x3e4b4e5c	0.1985411
28	0x3de56b08	0.11202055
29	0xbd67df6b	-0.056609552
30	0x3e899206	0.2686922
31	0x3d26c37b	0.04071377
32	0x3c6894fe	0.014195679
33	0x3ca91e42	0.02064431
34	0x3ba4f098	0.005033564
35	0x3e1204de	0.14259669
36	0x3e835993	0.25654277
37	0xbc931c0a	-0.017957706
38	0x3dc23f23	0.094846986
39	0xbd5858b8	-0.052818984
40	0x3ddf7f96	0.10913007
41	0xbc883712	-0.016627822
42	0x3d6b92bb	0.05751298
43	0xbd836292	-0.06415285
44	0x3dad0ce1	0.08449722
45	0x3c91973c	0.01777231
46	0x3db4d8c2	0.08830406
47	0x3dc7e3ef	0.09760272
48	0xbc1d8558	-0.009614311
49	0xbd6393b5	-0.055560786
50	0xbda71662	-0.08158566
51	0x3d25d0f7	0.040482488
52	0x3d8aec71	0.06783379
53	0x3cdf2487	0.027239097
54	0x3e1acb92	0.15116718
55	0xbdf4ff48	-0.119627535
56	0xbe329cf5	-0.17442687
57	0xbd28afef	-0.04118341
58	0xbdf57566	-0.119852826
59	0x3c89cb1f	0.016820488
60	0x3e1c23a4	0.15247971
61	0xbc1d25e8	-0.009591557
62	0x3e49f46d	0.19722147
63	0xbdb3e4ec	-0.08783898
64	0xbe0a56fb	-0.13509743
65	0xbda363f0	-0.07978046
66	0xbabe27f2	-0.0014507754
67	0x3da3366e	0.07969366
68	0xbd986210	-0.07440579
69	0xbdc073ab	-0.09397062
70	0xbe0c114f	-0.13678478
71	0xbce74312	-0.028230224
72	0xbc061274	-0.0081831105
73	0x3de97eee	0.11401163
74	0xbd0b79d8	-0.034051746
75	0x3dce0f1c	0.10061476
76	0xbe1bb91d	-0.15207334
77	0xbb94562a	-0.004526873
78	0xbbf46476	-0.007458265
79	0xbd511788	-0.05104783
80	0xbdd414dd	-0.10355542
81	0xbd8c02ca	-0.068364695
82	0x3e229429	0.15876831
83	0x3b2d4d06	0.0026443615
84	0x3dac2064	0.084046155
85	0xbd92707c	-0.07150361
86	0x3d057344	0.03258063
87	0xbc59d1f4	-0.013294686
88	0xbe0f5421	-0.13996936
89	0x3d432789	0.047645126
90	0x3e003cdf	0.1252322
91	0xbda689e0	-0.08131766
92	0xbe2e3fcd	-0.17016526
93	0xbd9980dc	-0.07495281
94	0xbe94708e	-0.28992122
95	0x3d100d1e	0.03516876
96	0xbd4cc5ed	-0.049993444
97	0xbd516809	-0.051124606
98	0xbe3163b5	-0.17323191
99	0xbcda1fde	-0.026626524
100	0xbda5af2f	-0.08090054
101	0x3b346dd2	0.0027531278
102	0x3dc40481	0.095711716
103	0xbd728051	-0.059204403
104	0xbd851efc	-0.065000504
105	0xbdbfba58	-0.09361714
106	0xbdecc8be	-0.11561726
107	0xbe7ab25a	-0.24482098
108	0xbd4e59d7	-0.050378647
109	0xbd34d44b	-0.04414777
110	0xbdec959c	-0.11551973
111	0xbbd5f226	-0.0065291105
112	0xbd19580a	-0.037437476
113	0xbc39e2f2	-0.011345612
114	0xbdbfd716	-0.09367196
115	0x3d571a98	0.052515596
116	0xbe64d119	-0.2234539
117	0x3cc1f241	0.023675086
118	0xbe28c893	-0.16482763
119	0xbc41ca3d	-0.0118280025
120	0x3bb4f9c9	0.005522941
121	0xbd8ae5e7	-0.06782132
122	0x3e145b53	0.14487962
123	0x3d9b83cc	0.07593498
124	0xbe46940e	-0.19392416
125	0xbce7ea2d	-0.028309906
126	0xbd54d728	-0.051963
127	0x3d24c6a6	0.04022851
128	0xbd8e2740	-0.0694108
129	0x3cde4094	0.027130403
130	0x3c5b5e99	0.013389253
131	0xbdca730f	-0.09885227
132	0xbba834e8	-0.00513326
133	0xbd68ae9b	-0.05680714
134	0xbca23620	-0.0198012
135	0xbd8a1dc2	-0.06743957
136	0xbbabfa04	-0.00524831
137	0xbd9e4bf1	-0.077293284
138	0x3cf7dfe4	0.030258127
139	0x3cf6d3f2	0.03013036
140	0x3e0738eb	0.13205306
141	0x3d21a9c7	0.039468553
142	0x3c86b2f8	0.01644276
143	0x3d6b1e3e	0.057401888
144	0xbd926f64	-0.07150152
145	0x3d173112	0.03691203
146	0xbdac279f	-0.084059946
147	0xbddd1137	-0.10794299
148	0x3c264bce	0.010149909
149	0x3d8f7fdf	0.07006811
150	0x3cd7d68c	0.026347421
151	0xbca8cb64	-0.020604797
152	0x3dd64466	0.10462265
153	0x3e1240f8	0.14282596
154	0x3dacde43	0.084408306
155	0xbcdff2a0	-0.027337372
156	0x3d4ade39	0.049528334
157	0xbd95642b	-0.07294496
158	0xbcb0ea06	-0.021595966
159	0xbdbc51b0	-0.09195268
160	0xbdc44bfd	-0.09584806
161	0xbd967fd0	-0.07348597
162	0xbd0f8df2	-0.03504748
163	0xbd311919	-0.043236826
164	0x3d42953c	0.047505602
165	0x3d5834ea	0.052784838
166	0xbd855246	-0.06509833
167	0x3dca6b02	0.09883691
168	0x3da54891	0.080704816
169	0xbd923102	-0.07138254
170	0xbd3a50f8	-0.045487374
171	0xbdb89a47	-0.09013801
172	0xbdfd2f51	-0.123625405
173	0x3c99c1a4	0.018769093
174	0xbd35128e	-0.04420715
175	0x3d8e0fe2	0.06936623
176	0x3d6a3d38	0.05718729
177	0x3bc1c388	0.0059132017
178	0x3d513f00	0.051085472
179	0x3d3680c6	0.0445564
180	0xbd7e941f	-0.062152978
181	0x3e01cb07	0.12675105
182	0xbd83c8e5	-0.06434802
183	0x3d12d4c2	0.035847433
184	0x3b8f812d	0.0043794126
185	0xbda1ef83	-0.07907011
186	0xbda97ed6	-0.08276145
187	0xbd2df504	-0.042469993
188	0x3d66451c	0.05621825
189	0x3ded200d	0.11578379
190	0x3caa8273	0.020814156
191	0x3d482189	0.048860107
192	0xbe06c528	-0.13161147
193	0xbe1a487f	-0.15066718
194	0x3cadb1b7	0.021202905
195	0xbd5d7e10	-0.0540753
196	0x3e3b05d6	0.18263945
197	0xbc24ac36	-0.010050824
198	0x3e48720f	0.1957476
199	0x3df5fe45	0.12011389
200	0x3e0f5618	0.13997686
201	0xbd596b49	-0.05308083
202	0x3dac6233	0.084171675
203	0xbd4579bd	-0.0482118
204	0x3db40271	0.08789528
205	0x3d208149	0.039185796
206	0xbd724184	-0.05914451
207	0xbd909c8b	-0.07061108
208	0x3dea693b	0.11445852
209	0xbdb64465	-0.08899764
210	0x3d21a553	0.039464306
211	0xbe0ede68	-0.13952029
212	0xbe429d34	-0.1900528
213	0x3d511cf6	0.05105301
214	0xbd40f4a4	-0.047108307
215	0xbe1c2d0a	-0.15251556
216	0x3bffbc7a	0.0078044506
217	0x3d9ef436	0.07761423
218	0xbda7fe84	-0.08202842
219	0x3deeba65	0.11656646
220	0xbd94e86e	-0.07270895
221	0x3d9e3f97	0.077269726
222	0x3bb91554	0.0056482945
223	0xbd00e01d	-0.03146373
224	0xbbdccdbd	-0.006738393
225	0x3d28a846	0.041176103
226	0x3dc0b856	0.09410159
227	0xbd8ff2ba	-0.07028718
228	0x3cae6674	0.021289088
229	0x3e2865ae	0.16445038
230	0xbd63e3f8	-0.05563733
231	0xbdc33976	-0.09532444
232	0xbc995df8	-0.018721566
233	0xbdba670b	-0.09101685
234	0xbda044ae	-0.078255996
235	0xbb509ce4	-0.0031831795
236	0xbdedc4f8	-0.116098344
237	0x3e048559	0.12941493
238	0xbdbd700a	-0.092498854
239	0xbdabe63e	-0.083935246
240	0x3dee957e	0.11649607
241	0x3b9eab06	0.004842165
242	0x3d91433f	0.07092904
243	0xbdd05c50	-0.10173857
244	0x3d4b1dce	0.04958897
245	0x3c5e5bda	0.013571704
246	0x3e9c76be	0.30559343
247	0x3b206452	0.0024473858
248	0x3d6e0098	0.058106035
249	0xbd0753d4	-0.03303893
250	0xbddccc66	-0.107811734
251	0xbe43f884	-0.1913777
252	0x3e8a1f4d	0.26977006
253	0xbe2964ae	-0.16542313
254	0x3c9a8a16	0.018864673
255	0xbd0c6b47	-0.034281995

lstm.weight_ih_l1 f4 [256, 64]
0	0x3da61a1a	0.08110447
1	0xbdb5e2a7	-0.08881121
2	0x3c951152	0.018196736
3	0xbdb48ae4	-0.08815554
4	0xbd95b610	-0.07310116
5	0x3e12bf68	0.14330828
6	0xbde4d1ff	-0.11172866
7	0xbd361c28	-0.044460446
8	0x3caa0b24	0.020757265
9	0x3d8f294c	0.06990299
10	0x39269d20	0.00015889527
11	0x3d60904c	0.054825112
12	0xbd131878	-0.035912007
13	0xbca1c260	-0.019746006
14	0xbe11c05b	-0.14233534
15	0xbbf9ed60	-0.0076271743
16	0x3e2c69ed	0.16837282
17	0xbde29694	-0.11063877
18	0xbe2941ac	-0.16528958
19	0xbd4c74ba	-0.049916007
20	0x3d8bbd38	0.068232
21	0xbd1de23b	-0.03854583
22	0x3d9e1cbb	0.07720324
23	0x3e142ebd	0.14470954
24	0x3d5a826a	0.05334703
25	0xbdc07438	-0.09397167
26	0xbd9aa86a	-0.07551654
27	0xbda6a256	-0.08136432
28	0xbd163761	-0.036673907
29	0xbc866614	-0.016406097
30	0xbd3675f6	-0.04454609
31	0x3dbfc8af	0.09364449
32	0xbdcc7cf3	-0.0998477
33	0xbcec1336	-0.028817754
34	0x3d7483a2	0.059695847
35	0xbd80ddb0	-0.062922835
36	0xbd8fa317	-0.07013529
37	0x3e0554cc	0.13020629
38	0x3d9b3110	0.07577717
39	0xbd88df09	-0.066831656
40	0xbc437016	-0.011928579
41	0x3e33303c	0.17498869
42	0xbd987add	-0.07445309
43	0xbc520c5a	-0.012820328
44	0xbe3b4719	-0.1828884
45	0xbb62b1f0	-0.0034590922
46	0x3b926393	0.0044674366
47	0x3e019f54	0.12658435
48	0x3bf35f07	0.0074270996
49	0xbe8f1d5d	-0.2795209
50	0xbdea47f0	-0.11439502
51	0xbcd3ea6e	-0.02586862
52	0x3c90ce96	0.017676633
53	0x3e2df9dd	0.16989847
54	0x3da930c8	0.082612574
55	0xbd385888	-0.045006305
56	0xbcad1522	-0.021128241
57	0x3d84b1f6	0.06479256
58	0x3c1a5d12	0.009421604
59	0x3d69dc4d	0.05709486
60	0xbddc229b	-0.10748788
61	0xbdeb6a8a	-0.1149493
62	0xbdb5edfa	-0.08883281
63	0xbdf16850	-0.11787474
64	0xbe3afdea	-0.18260923
65	0x3daa4999	0.08314819
66	0x3d59b1e5	0.05314817
67	0x3d03300a	0.032028235
68	0x3c5872b7	0.013210944
69	0x3dc1ba77	0.094593935
70	0xbe336a71	-0.17521073
71	0xbdcf118c	-0.10110769
72	0xbdb2dee8	-0.08733922
73	0x3e21e313	0.15809278
74	0xbc957f16	-0.018249076
75	0xbd4f20e0	-0.05056846
76	0xbd5a2ad2	-0.053263493
77	0x3ca9db8c	0.02073457
78	0xbe654647	-0.2239009
79	0xbe01a99b	-0.12662356
80	0x3ccec89a	0.025242139
81	0xbd0e2f2b	-0.03471295
82	0x3c5a35d2	0.013318496
83	0x3e01d03c	0.12677091
84	0xbc97d84c	-0.018535756
85	0xbc2bec22	-0.01049331
86	0xbe0dea72	-0.13858965
87	0x3c376979	0.01119458
88	0xbce704e0	-0.028200567
89	0xbe194231	-0.14966656
90	0xbce9ed85	-0.028555641
91	0x3b4b828c	0.0031053154
92	0xbe78b16f	-0.24286436
93	0xbdc0f818	-0.0942232
94	0x3d60b321	0.05485833
95	0xbd441974	-0.047875836
96	0x3bb93040	0.005651504
97	0xbc2de70e	-0.01061417
98	0x3ce6b79b	0.028163722
99	0x3dbb6881	0.09150792
100	0x3d083bde	0.03326022
101	0xbd2b9ba1	-0.041896466
102	0xbdbcbb36	-0.09215395
103	0xbe236b37	-0.15958868
104	0xbd21f5bd	-0.039540995
105	0x3d4b1a9e	0.04958593
106	0xbe102e65	-0.14080198
107	0xbc93039a	-0.017946053
108	0xbc0c13ac	-0.008549612
109	0xbdad0d8a	-0.08449848
110	0xbdd42637	-0.103588514
111	0x3e0f8c7a	0.14018431
112	0xbe2ce3c1	-0.16883756
113	0xbe7d42a4	-0.24732453
114	0xbbbe315f	-0.0058042253
115	0x3ddc7706	0.107648894
116	0x3daf0582	0.085459724
117	0xbc8fdaf6	-0.017560463
118	0xbdc793aa	-0.097449616
119	0xbc68e7ce	-0.014215423
120	0xbca0e5d6	-0.019640844
121	0xbdb3fbad	-0.08788238
122	0x3db4f5fe	0.08835982
123	0xbb4ff685	-0.003173263
124	0xbde9ffd6	-0.1142575
125	0xbe2ea7e4	-0.17056233
126	0x3e10f963	0.14157633
127	0xbd8c258f	-0.06843101
128	0xbe63b447	-0.22236739
129	0xbd635f1b	-0.05551062
130	0x3d70cab3	0.05878706
131	0xbd7ecb0e	-0.062205367
132	0x3e1cd718	0.15316427
133	0x3dbe54a3	0.09293487
134	0xbe93d5e4	-0.28874123
135	0x3db51ee3	0.08843782
136	0x3de096ac	0.109662384
137	0xbdacbe6a	-0.08434756
138	0xbe2cf9fc	-0.16892236
139	0xbccbee46	-0.024893891
140	0xbeaa47d8	-0.33257937
141	0xbe55fb64	-0.20896679
142	0xbe1e14da	-0.15437642
143	0x3d99b5e8	0.07505399
144	0xbe0ab93e	-0.13547227
145	0xbe5b399f	-0.214087
146	0x3c0cc36b	0.008591513
147	0x3ddbdfe3	0.107360624
148	0xbdd358b7	-0.103196554
149	0x3e3108f8	0.17288578
150	0xbc1e551d	-0.009663847
151	0x3e3c3dd4	0.1838296
152	0x3d9d663a	0.07685514
153	0x3dd0a79c	0.10188219
154	0xbe46ecaa	-0.19426218
155	0x3d0eff92	0.0349117
156	0xbdd701c2	-0.10498382
157	0xbb642050	-0.0034809299
158	0x3da958cf	0.08268892
159	0x3dad5e2b	0.08465227
160	0x3e903952	0.28168732
161	0x3e18075c	0.14846557
162	0x3e7ce525	0.24696787
163	0xbdc2db68	-0.09514505
164	0x3e97173f	0.29509923
165	0x3e228f45	0.15874965
166	0x3ebe2032	0.37133938
167	0xbde60f32	-0.11233367
168	0xbcc889ae	-0.024479713
169	0x3dfa8b09	0.1223355
170	0xbe0d5f05	-0.13805778
171	0x3d0d580e	0.034507804
172	0xbc6676ae	-0.014066381
173	0x3db3a52e	0.0877174
174	0x3e077d48	0.13231385
175	0x3da5a330	0.08087766
176	0x3e839fb8	0.25707793
177	0x3eb8121d	0.3595132
178	0xbd7f2acf	-0.062296685
179	0xbe2e18d8	-0.17001665
180	0x3ec25d74	0.37961924
181	0x3d1098d5	0.035302002
182	0xbe23f0b8	-0.16009796
183	0xbe1283bb	-0.14308064
184	0xbe1b9e33	-0.15197067
185	0x3d75c0c9	0.059998307
186	0xbd9c5520	-0.07633424
187	0x3d0e3370	0.034717023
188	0xbd975544	-0.0738931
189	0x3e19c3b5	0.15016063
190	0xbd7659c1	-0.06014419
191	0x3e038d3b	0.12846844
192	0x3d21ed56	0.03953298
193	0xbe1cb634	-0.1530388
194	0x3cfd162e	0.030894365
195	0x3e254420	0.16139269
196	0xbdcaa488	-0.09894663
197	0x3d955bf3	0.072929285
198	0xbd1ba26d	-0.0379967
199	0xbc6fd8c0	-0.01463908
200	0xbd92ec1a	-0.07173939
201	0xbd07836a	-0.03308431
202	0x3d5adf7d	0.05343579
203	0x3cdea228	0.027176932
204	0x3d62a33f	0.055331465
205	0xbe54e3bd	-0.2079
206	0xbe104579	-0.14089002
207	0xbbfa7979	-0.007643875
208	0x3dee2528	0.11628181
209	0xbca88009	-0.020568864
210	0xbd9abc0d	-0.07555399
211	0xbd49337c	-0.049121365
212	0x3ba7d641	0.0051219766
213	0x3dc21fe6	0.094787404
214	0xbb0a779e	-0.0021128426
215	0xbc97f3be	-0.018548843
216	0xbd6e9676	-0.05824896
217	0xbde0f9a7	-0.109851174
218	0xbd24413e	-0.040101282
219	0xbd68b7f2	-0.05681605
220	0x3cfc7fb3	0.03082261
221	0xbc670276	-0.014099708
222	0x3d236cb6	0.039898597
223	0x3e5e6646	0.21718702
224	0xbcd384c4	-0.025820144
225	0xbdbd2418	-0.092354
226	0xbdd3f02d	-0.10348544
227	0x3e17f52f	0.14839624
228	0xbd26a815	-0.04068764
229	0xbde9c5ec	-0.11414704
230	0xbd91516b	-0.07095607
231	0xbda0203a	-0.07818647
232	0x3e652bb5	0.22379954
233	0x3c21e68e	0.009881629
234	0x3a16a978	0.0005747299
235	0xbdccdb6f	-0.10002791
236	0xbdab2904	-0.083574325
237	0xbe1829c1	-0.14859678
238	0xbdf21506	-0.11820416
239	0xbd75a087	-0.059967544
240	0xbd90067c	-0.07032487
241	0xbdbfbdf8	-0.093624055
242	0x3bffd03a	0.007806805
243	0x3d752f3c	0.0598595
244	0xb945cd00	-0.00018863752
245	0x3c9188ca	0.017765421
246	0x3e359d62	0.17735818
247	0x3b5c8056	0.003364583
248	0xbdb1b256	-0.08676593
249	0xbdd7eede	-0.10543607
250	0x3cb80330	0.022462457
251	0xbd9fd01c	-0.078033656
252	0x3ddec549	0.10877473
253	0xbd3c7462	-0.04600943
254	0x3d8dfcda	0.06932993
255	0x3d392a75	0.045206506

lstm.weight_hh_l1 f4 [256, 64]
0	0x3e1058f3	0.14096431
1	0x3d12ddb6	0.03585597
2	0x3e08cb32	0.13358763
3	0x3c4df550	0.012570694
4	0x3e2b387f	0.1672077
5	0xbe0eb3c3	-0.13935761
6	0xbdc39e7a	-0.095517114
7	0xbde2180c	-0.11039743
8	0xbdd5dd0f	-0.10442554
9	0xbe38cbb1	-0.18046452
10	0x3da4273a	0.080152944
11	0x3ad44f0a	0.0016197872
12	0x3d9eb9c3	0.07750275
13	0xbcf954e7	-0.030435992
14	0xbdd724bf	-0.10505056
15	0xbdf81d51	-0.12114967
16	0x3d4eea3d	0.050516356
17	0x3db6121d	0.088901736
18	0xbdca9aea	-0.09892829
19	0xbe03c284	-0.1286717
20	0xbd688afe	-0.05677318
21	0x3ddea320	0.108709574
22	0xbd85ca9e	-0.06532787
23	0x3e1abd96	0.15111384
24	0x3d7ca5d6	0.06168159
25	0x3dd9e698	0.106396854
26	0xbd8baa36	-0.068195745
27	0xbbcb3841	-0.0062017743
28	0x3c2527b3	0.010080266
29	0xbdd3af74	-0.103361994
30	0x3c5cbd75	0.013472904
31	0x3d840056	0.064453766
32	0x3dd84370	0.10559738
33	0x3b84af3c	0.00404921
34	0xbd18ddf2	-0.03732104
35	0x3d91439d	0.07092974
36	0xbdd8f46e	-0.10593496
37	0x3d5abcd9	0.053402755
38	0x3d59a02d	0.05313127
39	0xbd915f86	-0.07098298
40	0xbd6c92e2	-0.057757266
41	0xbe14e9ae	-0.14542267
42	0x3dae7914	0.085191876
43	0x3d3965d4	0.045263126
44	0xbd885538	-0.06656879
45	0xbdeb59c4	-0.11491731
46	0x3d6be621	0.057592515
47	0x3e042429	0.12904419
48	0x3df7663a	0.12080045
49	0x3e27415b	0.16333525
50	0xbe2a8089	-0.16650595
51	0xbdcd25f5	-0.10017005
52	0x3d8a318e	0.06747733
53	0x3d050336	0.032473765
54	0xbc61ec1c	-0.013789203
55	0x3dba9c4a	0.09111841
56	0x3ebe671e	0.37188047
57	0x3dc23a72	0.09483804
58	0x3d0695e3	0.032857787
59	0x3d12cc5c	0.035839424
60	0xbc912252	-0.01771656
61	0xbd6b1da2	-0.057401307
62	0x3c8def1c	0.01732593
63	0x3e059528	0.1304518
64	0x3daf5a97	0.085622005
65	0x3e112a1c	0.1417622
66	0x3e00b4a8	0.12568915
67	0xbe0170e8	-0.12640727
68	0x3d964528	0.07337409
69	0xbdcc8420	-0.09986138
70	0xbdb27bdf	-0.08715033
71	0x3c10952c	0.008824628
72	0xbd630364	-0.055423155
73	0xbe00c846	-0.12576398
74	0x3d1c641d	0.038181413
75	0xbdfbda42	-0.12297489
76	0x3da1fbfe	0.07909392
77	0x3d1152c6	0.03547933
78	0xbd8e09ca	-0.06935461
79	0x3d13044d	0.035892773
80	0xbe0c1ca8	-0.13682806
81	0x3cfee50e	0.031115081
82	0xbe8c4f8a	-0.27404433
83	0x3dd4257e	0.103587136
84	0x3e038977	0.12845407
85	0xbce968ae	-0.028492298
86	0xbdb9a235	-0.09064142
87	0x3c87282e	0.016498651
88	0x3c66a3a2	0.014077099
89	0x3dac0d17	0.08400934
90	0x3df8e5c0	0.12153196
91	0xbc736e28	-0.014857806
92	0xbdab0bc5	-0.08351854
93	0xbdd7b95e	-0.10533403
94	0x3d16d450	0.03682357
95	0xbd2e3520	-0.042531133
96	0xbd151993	-0.036401343
97	0x3df8a352	0.12140526
98	0xbd457e86	-0.048216365
99	0xbd8fcdca	-0.07021673
100	0xbdc1ef06	-0.09469418
101	0xbdb4f22a	-0.08835252
102	0xbd73ab0a	-0.059489287
103	0x3c0332f8	0.008007757
104	0xbc830526	-0.015993666
105	0x3d790162	0.060792334
106	0xbe3b1b90	-0.18272233
107	0xbcd4ef81	-0.02599311
108	0x3e155e1a	0.14586678
109	0xbd38b1a8	-0.0450913
110	0x3c776988	0.015100844
111	0x3e37e572	0.1795862
112	0xbd4a0b2c	-0.04932706
113	0x3d9fed9c	0.07808992
114	0x3d9b69f5	0.07588569
115	0xbde7eb5a	-0.113241866
116	0xbda22e0f	-0.07918941
117	0x3cc0feff	0.023559092
118	0xbdf83763	-0.12119939
119	0xbced92ba	-0.029000629
120	0x3de12545	0.10993437
121	0x3d8e8a7f	0.0696001
122	0x3c878acb	0.016545674
123	0xbd76f9c8	-0.060296804
124	0xbcc56d5e	-0.024100002
125	0x3d044330	0.032290637
126	0x3d896164	0.06708029
127	0xbc5905d4	-0.013246018
128	0xbdaa46bd	-0.083142735
129	0x3d882672	0.06647958
130	0xbcd8e5a2	-0.026476685
131	0x3ca4f53b	0.020136466
132	0xbe0b27bd	-0.13589378
133	0xbe0767c1	-0.13223173
134	0xbe09087a	-0.1338214
135	0xbd978fcc	-0.07400474
136	0x3ee27e4d	0.44236985
137	0x3e8e67c0	0.2781353
138	0xbdb76f56	-0.089567825
139	0x3d528504	0.051396385
140	0xbe6cfd74	-0.2314356
141	0xbdff5c34	-0.12468758
142	0x3de1c94d	0.11024723
143	0xbd139973	-0.036035012
144	0xbe80a13a	-0.25123006
145	0x3d14f1e1	0.036363486
146	0x3e3d9ae2	0.18516114
147	0x3d5547b2	0.052070327
148	0x3e099624	0.1343618
149	0xbd9e081a	-0.07716389
150	0x3e56041d	0.20900007
151	0x3d511cac	0.051052734
152	0x3e23de2b	0.16002719
153	0xbda9162c	-0.08256182
154	0x3dbe7b02	0.09300806
155	0xbc78116d	-0.015140873
156	0xbc97b5d3	-0.018519318
157	0x3e07ac13	0.13249235
158	0x3e9275df	0.28605554
159	0xbdfa6538	-0.12226337
160	0xbe06d8f8	-0.13168705
161	0x3e339d4d	0.17540474
162	0x3e02733c	0.12739271
163	0xbd169cec	-0.036770746
164	0x3cc668d8	0.024219915
165	0xbe0de5b8	-0.13857162
166	0x3e0dc10f	0.13843177
167	0x3b0b97bc	0.0021300158
168	0xbe13d860	-0.1443801
169	0x3e5aa3c1	0.2135153
170	0x3e932769	0.28741005
171	0x3deebca4	0.11657074
172	0xbd8f0d0f	-0.069849126
173	0xbd35aae6	-0.044352435
174	0xbdacfdc8	-0.084468424
175	0xbdbfffa0	-0.093749285
176	0x3c8f40cf	0.017486958
177	0xbd77a606	-0.060461067
178	0x3da9aea9	0.08285267
179	0x3cdab7b3	0.026698923
180	0x3c0c09f3	0.008547294
181	0x3c53a71d	0.012918261
182	0xbd2e6b28	-0.04258266
183	0xbe167e86	-0.14696702
184	0xbdb2ef62	-0.08737065
185	0x3b94fde0	0.004546866
186	0xbe1473e4	-0.14497334
187	0x3e02143b	0.1270303
188	0xbd38e2e4	-0.045138255
189	0xbd1b148e	-0.0378614
190	0xbdc27843	-0.09495594
191	0x3d183272	0.037157483
192	0xbd18279a	-0.037147142
193	0x3db30f7e	0.08743189
194	0x3c96e5d5	0.01842014
195	0x3d905b6a	0.07048686
196	0xbc2dd7cf	-0.010610535
197	0xbc9db81e	-0.019252833
198	0xbd19cab4	-0.03754683
199	0xbd34b076	-0.0441136
200	0x3e2ff5a8	0.17183554
201	0x3dd4192e	0.10356365
202	0xbd5ce34c	-0.053927705
203	0x3d80f646	0.06296973
204	0x3c9e7828	0.019344404
205	0xbda89d40	-0.08233118
206	0xbd0f0e8c	-0.034925982
207	0xbd8c0a57	-0.0683791
208	0xbc155bc7	-0.00911612
209	0x3d5e404f	0.05426055
210	0xbd018383	-0.03161956
211	0xbc4228ca	-0.011850545
212	0x3db058b3	0.08610668
213	0x3e14b077	0.14520441
214	0x3dae3bd1	0.08507503
215	0xbce11611	-0.027476342
216	0x3d9dff20	0.07714677
217	0xbbbaf462	-0.005705402
218	0xbd42eec3	-0.047590982
219	0xbc40786f	-0.011747464
220	0xbe0d00e1	-0.13769867
221	0xbce6f1fa	-0.028191555
222	0x3d8cd496	0.06876485
223	0x3da9d602	0.08292772
224	0xbc57c073	-0.013168442
225	0x3e3bdb2e	0.18345329
226	0x3c33205f	0.010933011
227	0xbccbf646	-0.024897706
228	0xbe0bc17f	-0.13648032
229	0x3e09d725	0.13460977
230	0xbd03ce0b	-0.03217892
231	0xbadc3a94	-0.0016802126
232	0x3cd27ad6	0.025693338
233	0xbe11aeeb	-0.14226882
234	0x3dcd77cf	0.10032617
235	0xbcb341be	-0.021881934
236	0x3a96a4d1	0.0011493211
237	0xbdc9a495	-0.09845845
238	0x3e465bdb	0.19370978
239	0xbb699bb2	-0.003564578
240	0xbe058f52	-0.13042954
241	0x3db5f87a	0.08885284
242	0x3d1ad4ff	0.037800785
243	0xbdf2f286	-0.11862664
244	0x3e0e3398	0.13886869
245	0xbd12b3f1	-0.035816137
246	0xbc87785b	-0.016536882
247	0x3d32bca4	0.043636933
248	0x3ddd27fa	0.107986405
249	0x3e1674fc	0.14693063
250	0x3de3eb84	0.111289054
251	0x3cbf1d5b	0.023329427
252	0xbe023f50	-0.12719464
253	0x3df2c3e9	0.11853773
254	0x3e08e32c	0.13367909
255	0x3dc62dcc	0.09676704

lstm.bias_ih_l1 f4 [256]
0	0x3da965bd	0.08271358
1	0x3da3c6ed	0.079969265
2	0x3c8646eb	0.016391238
3	0xbd3d4e52	-0.04621727
4	0xbdd6477a	-0.10462852
5	0x3d9bcdbf	0.07607602
6	0xbdec1427	-0.11527281
7	0xbde18d3a	-0.11013265
8	0x3e814827	0.2525036
9	0x3e39ae4c	0.18132895
10	0x3c99f8de	0.018795427
11	0xbd8f58f9	-0.06999392
12	0xbda4549e	-0.08023952
13	0xbd7d7268	-0.061876684
14	0xbdc6d1c8	-0.09707981
15	0xbd75a27f	-0.05996942
16	0xbd85dbab	-0.06536039
17	0x3ccfb76e	0.02535602
18	0xbccf59ed	-0.025311435
19	0xbdc90f40	-0.09817362
20	0xbde6dd94	-0.112727314
21	0xbe4e8816	-0.201691
22	0xbda00063	-0.07812574
23	0xbdb98c5b	-0.09059974
24	0x3cb9237c	0.022599928
25	0xbdecf585	-0.11570267
26	0xbe1b6652	-0.15175751
27	0xbd86c656	-0.06580798
28	0x3d3eafb9	0.0465543
29	0x3dbda08b	0.09259137
30	0x3cdba0ed	0.026810134
31	0xbdbd3eae	-0.09240471
32	0x3e82cdf0	0.25547743
33	0xbb812944	-0.003941687
34	0xbbd3b00c	-0.0064601954
35	0xbac12fea	-0.0014739011
36	0xbc04a401	-0.008095742
37	0xbcece7e0	-0.02891916
38	0xbe7d4e92	-0.24737003
39	0xbdde2b50	-0.10848105
40	0xbe1355cf	-0.14388202
41	0x3d61ae3a	0.055097796
42	0x3d8c152b	0.06839975
43	0xbe2b313d	-0.16718002
44	0xbd9eb5d0	-0.07749522
45	0xbd0a71f2	-0.033800073
46	0x3c9142e4	0.017732091
47	0x3bb00e4f	0.0053727995
48	0xbe1017df	-0.14071606
49	0x3ba87edc	0.005142076
50	0xbe260522	-0.16212896
51	0xbd727bae	-0.05919998
52	0x3db7289a	0.08943291
53	0xbd8faf2b	-0.070158325
54	0xbdf91b62	-0.12163426
55	0xbd15e70d	-0.0365973
56	0xbe477c00	-0.19480896
57	0xbe0b6025	-0.13610895
58	0x3d89501e	0.06704734
59	0xbe1610ec	-0.14654893
60	0xbdb008ec	-0.08595452
61	0xbd9788a2	-0.073991075
62	0xbd6e5e4b	-0.058195394
63	0x3b001e1d	0.00195492
64	0x3cc898d0	0.02448693
65	0x3d0768d3	0.033058953
66	0xbda375e1	-0.07981468
67	0x3e098d8a	0.13432899
68	0x3ddb3ad0	0.10704577
69	0xbdaaff65	-0.08349494
70	0xbcc482a9	-0.023988085
71	0xbd66b5c7	-0.0563257
72	0x3d5dd556	0.05415853
73	0x3e75b246	0.23993787
74	0xbdb1bb12	-0.08678259
75	0xbe121270	-0.14264846
76	0xbc9a1be0	-0.01881212
77	0xbe01792e	-0.12643883
78	0x3d578ae9	0.05262271
79	0x3c8fb6e4	0.017543264
80	0x3dc15bbc	0.09441325
81	0xbcf910eb	-0.030403575
82	0x3dfef212	0.12448515
83	0xbcd92a6b	-0.026509484
84	0xbc7ea2a2	-0.015541704
85	0xbea0d85c	-0.3141507
86	0xbe028538	-0.12746131
87	0xbd6d31f3	-0.057908963
88	0xbda88582	-0.082285896
89	0xbe0e0022	-0.13867238
90	0x3d968df9	0.07351298
91	0xbd809ef1	-0.06280316
92	0x3c6b2be6	0.014353728
93	0xbd40986a	-0.047020353
94	0xbdb13e2b	-0.08654436
95	0xbd68b956	-0.056817375
96	0x3c50684c	0.012720179
97	0xbe04390a	-0.12912384
98	0xbe19e634	-0.15029222
99	0xbe298d1a	-0.16557732
100	0x38a93752	8.068852e-05
101	0xbe32c63e	-0.17458436
102	0xbe86747e	-0.2626075
103	0x3d593446	0.053028367
104	0x3db0d712	0.086347714
105	0xbde96843	-0.113968395
106	0x3daf29a4	0.08552864
107	0xbe390b11	-0.18070628
108	0xbd868ecc	-0.06570205
109	0xbcabf98e	-0.02099302
110	0xbdd25817	-0.10270708
111	0xbcb50118	-0.022095248
112	0xbcd14492	-0.025545392
113	0xbd1a0886	-0.037605785
114	0xbe2de522	-0.16981938
115	0xbd821958	-0.0635249
116	0x3e0b1d30	0.13585353
117	0x3e01651c	0.12636226
118	0xbdf20e7d	-0.1181917
119	0x3d64905a	0.055801727
120	0xbc957d29	-0.018248158
121	0xbdb090f7	-0.086214
122	0x3e1bf081	0.15228464
123	0x3d37e276	0.044893704
124	0x3d09a0e0	0.033600688
125	0x3e328dd2	0.17436913
126	0x3d0750e6	0.033036135
127	0xbda311db	-0.0796239
128	0xbd748f00	-0.059706688
129	0xbc1461e6	-0.009056544
130	0xbd812d8d	-0.06307516
131	0x3dba09a1	0.09083868
132	0xbd199de4	-0.03750409
133	0x3dd4c98e	0.10390006
134	0x3db7af23	0.089689516
135	0x3d7c93d1	0.061664406
136	0xbdcf0bbd	-0.10109661
137	0xbd95ea09	-0.07320029
138	0x3c82da98	0.015973374
139	0x3dc75b70	0.09734237
140	0xbded8c26	-0.11598997
141	0x3d607cd5	0.05480655
142	0x3d3833cb	0.04497127
143	0xbcd4b9d0	-0.025967509
144	0x3dc54aae	0.09633385
145	0xbde77cb2	-0.113030806
146	0xbcdfac68	-0.02730389
147	0xbbf2f976	-0.007414992
148	0x3d836b0e	0.064169034
149	0xbd6a10c4	-0.057144895
150	0xbc374cfd	-0.011187789
151	0x3d8093a1	0.06278158
152	0xbd838292	-0.06421389
153	0xbd2fdb37	-0.04293367
154	0xbd895aa5	-0.06706742
155	0xbd479482	-0.048725612
156	0x3dd7fb6f	0.10546004
157	0x3ca0c737	0.019626243
158	0x3d3d1554	0.04616292
159	0x3d575b81	0.0525775
160	0xbd25065a	-0.04028926
161	0xbc787870	-0.015165433
162	0xbd2856c9	-0.04109839
163	0x3db690f2	0.08914365
164	0x3d19e84b	0.037575047
165	0xbd801f74	-0.06255999
166	0x3d291ca6	0.041287087
167	0xbd1c3a62	-0.038141616
168	0x3dd51430	0.10404241
169	0xbca40810	-0.020023376
170	0xbda42b1c	-0.08016035
171	0x3bba2b75	0.00568145
172	0x3d9509dd	0.07277272
173	0xbd6ab87c	-0.057304844
174	0xbda03a0e	-0.07823573
175	0x3d3dba56	0.046320282
176	0xbd8bc36d	-0.06824384
177	0xbd83a101	-0.064271934
178	0x3cf8c2b4	0.03036628
179	0xbdbc09f3	-0.09181585
180	0x3d91e45e	0.07123636
181	0xbd63385a	-0.055473663
182	0xbbb4cddc	-0.0055177044
183	0xbd8dc8f4	-0.069230944
184	0xbd9e7568	-0.07737237
185	0xbc26cb9e	-0.010180382
186	0x3df8238c	0.12116155
187	0x3d8785ef	0.06617343
188	0x3d4ea903	0.05045415
189	0x3e00f14b	0.12592046
190	0xbd620733	-0.055182647
191	0xbd56d654	-0.052450493
192	0x3db21d8b	0.08697041
193	0xbded4f6a	-0.11587413
194	0xbdbe2cba	-0.09285875
195	0xbdf512aa	-0.119664505
196	0xbcd1341f	-0.025537549
197	0x3d50c136	0.05096551
198	0xbdbf202b	-0.093323074
199	0xbe30ee4a	-0.172784
200	0x3d47d691	0.04878861
201	0xbd0550de	-0.032547824
202	0x3cc649cc	0.024205111
203	0xbddfcdf6	-0.10927956
204	0x3dabd5c3	0.08390381
205	0xbe165499	-0.14680709
206	0xbc5d537c	-0.013508674
207	0xbe556f19	-0.20843162
208	0xbd8e439b	-0.069464885
209	0x3cc0416a	0.023468692
210	0x3e07420b	0.13208787
211	0x3d2714db	0.040791374
212	0xbba786f3	-0.0051125227
213	0xbe29ed93	-0.16594534
214	0x3b91d791	0.0044507463
215	0xbcefe82e	-0.029285517
216	0xbe0bc268	-0.13648379
217	0xbe1e22ec	-0.15443009
218	0x3d8efe82	0.06982137
219	0xbd1bece4	-0.038067713
220	0xbde480dd	-0.11157391
221	0xbd8cc71e	-0.06873916
222	0xbde8a572	-0.11359681
223	0xbe21aa07	-0.15787517
224	0x3e0619fb	0.13095848
225	0x3d701229	0.05861107
226	0xbdacaf43	-0.08431866
227	0x3ce47f1d	0.027892644
228	0xbcecffd8	-0.02893059
229	0xbd2150e3	-0.03938378
230	0xbdb7a59e	-0.08967136
231	0xbd98331c	-0.07431623
232	0xbde256e7	-0.110517316
233	0xbc75ffc2	-0.015014591
234	0xbe36f62d	-0.17867346
235	0xbdc886d9	-0.09791345
236	0xbda563ed	-0.080757
237	0xbe206f5f	-0.15667485
238	0xbdc508c0	-0.096208096
239	0x3dbe8d54	0.093043
240	0xbd2cad67	-0.042157557
241	0x3ccb05ab	0.024782976
242	0xbdccaeae	-0.09994255
243	0xbdd57954	-0.10423532
244	0xbe034606	-0.1281968
245	0x3d8314a4	0.06400421
246	0xbd5ae44c	-0.053440377
247	0xbce0d1f0	-0.027443856
248	0xbdf22278	-0.11822981
249	0xbcb86ded	-0.022513354
250	0x3d484a60	0.048899055
251	0xbe1f9bbd	-0.15586753
252	0xbdc412b2	-0.09573878
253	0x3da1933b	0.0788941
254	0xbe0c8338	-0.13721931
255	0xbdfd0797	-0.12354963
