model/final_model_3_param_avg.pt (torch, 219719 bytes, 9 tensors)

lstm.weight_ih_l0 f4 [256, 15]
0	0x3d03d6fb	0.032187443
1	0x3ddf716c	0.109103054
2	0xbc1f5be8	-0.009726502
3	0x3d427d64	0.047482863
4	0xbdf78237	-0.120853834
5	0xbe30aa4f	-0.17252468
6	0x3d7f6fd8	0.062362522
7	0xbe268eee	-0.16265461
8	0x3d1bb2be	0.03801226
9	0xbcd67aa2	-0.026181523
10	0x3ec459f4	0.3834988
11	0x3e1b7acf	0.15183567
12	0x3cfc1a05	0.030774126
13	0xbcb9c5b6	-0.022677284
14	0x3c9e8035	0.019348243
15	0x3e2673be	0.1625509
16	0x3e1c150e	0.15242407
17	0x3df4c871	0.11952294
18	0xbdf11ea6	-0.11773424
19	0x3db80e67	0.08987122
20	0x3d6fc10b	0.05853371
21	0xbdc79830	-0.09745824
22	0xbcbda577	-0.023150189
23	0x3d4d0968	0.0500578
24	0x3c86ae2c	0.016440473
25	0x3d16110c	0.03663735
26	0x3d6006f2	0.054694124
27	0x3df6aea3	0.12045028
28	0x3e79ec1c	0.24406475
29	0x3e1a922a	0.1509482
30	0xbed8c77f	-0.42339703
31	0x3da19f16	0.07891671
32	0x3e1108e2	0.14163545
33	0x3e1bcf9c	0.15215915
34	0x3e07f0f9	0.13275518
35	0x3c920939	0.017826663
36	0xbe4a3078	-0.19745052
37	0xbe4eb97b	-0.20187943
38	0x3e91d273	0.28480873
39	0xbe9df996	-0.3085448
40	0x3e75cf92	0.24004963
41	0x3e175321	0.14777805
42	0xbea108af	-0.31451938
43	0xbddfd574	-0.10929385
44	0xbd31e00e	-0.043426566
45	0xbf02c5a2	-0.51082814
46	0xbca0711c	-0.019585185
47	0x3ce5effa	0.028068531
48	0x3e47d7c1	0.19515897
49	0x3e612c93	0.2198966
50	0x3e613065	0.21991117
51	0x3ead1b11	0.33809713
52	0x3e2ea887	0.17056476
53	0x3e97eba4	0.29671967
54	0x3e57d336	0.21076664
55	0xbd733594	-0.059377268
56	0x3f12d132	0.57350457
57	0x3e82de88	0.25560403
58	0x3e6dbe02	0.23217013
59	0xbe10a400	-0.14125061
60	0x3d74f36d	0.05980246
61	0x3d840b55	0.06447474
62	0x3d130f20	0.035903096
63	0xbe16f6f1	-0.14742638
64	0xbe57c9a6	-0.21073017
65	0xbc70fca9	-0.014708676
66	0xbd0880cd	-0.03332596
67	0xbce39b25	-0.02778394
68	0xbab4ae87	-0.0013784923
69	0xbeafba4f	-0.3432183
70	0x3dd68a4a	0.10475595
71	0x3e8825ce	0.26591343
72	0xbd0cfb40	-0.0344193
73	0x3dc1fd89	0.09472186
74	0x3db3a385	0.08771423
75	0x3dd17e3c	0.102291554
76	0x3d7ba20b	0.061433833
77	0xbd8f2512	-0.069894925
78	0xbd843b9b	-0.06456681
79	0xbc66dd9c	-0.014090922
80	0x3e3bcf12	0.1834071
81	0xbcf1299e	-0.02943879
82	0x3e34e428	0.1766516
83	0x3e452c6f	0.19255231
84	0xbe3f636b	-0.18690269
85	0x3dc189ca	0.09450109
86	0xbc9d15fa	-0.019175518
87	0xbc9430ce	-0.018089678
88	0xbc17b336	-0.009259036
89	0xbc7be525	-0.0153744565
90	0xbe1b0910	-0.15140176
91	0x3b935653	0.0044963746
92	0xbd4da4ae	-0.05020588
93	0x3ded684b	0.11592158
94	0xbd0fb92d	-0.035088707
95	0x3d181683	0.037130844
96	0x3d7e378a	0.062064685
97	0x3cab80f0	0.020935506
98	0x3e22e270	0.15906692
99	0xbdb6a87a	-0.08918853
100	0x3e8cf33b	0.2752932
101	0x3e14e4d3	0.14540415
102	0xbe5471d2	-0.20746544
103	0xbd049075	-0.032364327
104	0xbdce657c	-0.1007795
105	0x3f0013e0	0.50030327
106	0xbe611a28	-0.21982634
107	0xbe869ea6	-0.26292914
108	0xbe6d26e3	-0.23159365
109	0xbc93005a	-0.017944504
110	0xbe3b7d43	-0.18309502
111	0xbccb1dc3	-0.024794465
112	0xbf027284	-0.50955987
113	0xbda9ab66	-0.08284645
114	0x3e015ffd	0.12634273
115	0x3ec1a6d4	0.37822592
116	0x3ebead05	0.37241378
117	0x3f6f00f4	0.9336083
118	0x3f0e5388	0.5559621
119	0x3e7e68f7	0.24844728
120	0x3e3f5c4b	0.1868755
121	0x3c389702	0.011266472
122	0x3e07595d	0.13217683
123	0xbd737571	-0.059438173
124	0xbe32d5e0	-0.174644
125	0x3c555957	0.013021789
126	0x3d7e9321	0.06215203
127	0x3e9b6e1f	0.30357453
128	0x3d34ed06	0.044171356
129	0x3e04d47f	0.12971686
130	0x3e425182	0.18976405
131	0x3e17c3af	0.14820741
132	0x3caf114b	0.02137055
133	0x3d447812	0.04796607
134	0xbb4523c6	-0.0030081137
135	0xbe41b954	-0.18918353
136	0x3cca60e0	0.024704397
137	0x3d649658	0.05580744
138	0xbdb37d2e	-0.087641105
139	0xbd0187d5	-0.03162368
140	0xbd4c8b2f	-0.049937423
141	0x3e0c3656	0.13692603
142	0xbd9f7d1a	-0.07787533
143	0x3dc32f07	0.09530454
144	0x3dcf2926	0.1011527
145	0x3e8773af	0.26455447
146	0xbbe720b8	-0.007053461
147	0xbd888259	-0.06665487
148	0xbe0f89ba	-0.14017382
149	0xbe1b468d	-0.15163632
150	0x3e3e2626	0.1856924
151	0x3e4ffddb	0.20311682
152	0x3daaf7ca	0.08348043
153	0x3ccae932	0.0247694
154	0x3dab0555	0.083506264
155	0xbd35b720	-0.044364095
156	0x3cf3c075	0.029754857
157	0x3b9a4155	0.004707495
158	0x3e88c940	0.26716042
159	0x3e475d77	0.19469248
160	0x3e4cadc6	0.19988164
161	0xbd0f48dd	-0.034981597
162	0x3e13c0b1	0.14428975
163	0x3e146791	0.14492632
164	0x3d7e82f2	0.062136598
165	0x3e879e84	0.26488125
166	0xbdb9fdde	-0.090816244
167	0xbe3a68b8	-0.1820401
168	0xbd6c817e	-0.05774068
169	0xbe1e716b	-0.15472953
170	0xbd67e0d2	-0.05661089
171	0xbd156d06	-0.036480926
172	0xbd9981fa	-0.07495494
173	0xbca573f4	-0.020196892
174	0xbb4497de	-0.0029997746
175	0x3ea34590	0.3188901
176	0x3dc0e452	0.09418549
177	0x3e70ad6c	0.23503655
178	0x3e217859	0.15768565
179	0x3ea37327	0.31923792
180	0x3dd28ccc	0.10280761
181	0xbda04e6b	-0.07827457
182	0xbe323eb3	-0.1740673
183	0xbe054cd9	-0.13017596
184	0x3bf5bc70	0.00749927
185	0x3dd561df	0.10419058
186	0xbd8e7122	-0.06955172
187	0xbdb4bced	-0.08825097
188	0x3e0c3b4d	0.13694496
189	0xbe71391d	-0.23556943
190	0x3e6595dc	0.22420448
191	0x3d8db531	0.06919325
192	0xbdf7102f	-0.12063634
193	0x3d9e2df5	0.07723609
194	0x3e6e69a0	0.2328248
195	0x3ed9b74b	0.42522654
196	0xbd329d0d	-0.043606807
197	0xb98598cc	-0.0002548158
198	0x3d172526	0.036900662
199	0x3d6f2916	0.058388792
200	0x3d3d1005	0.046157856
201	0xbdadd7b2	-0.08488406
202	0xbc4d72a9	-0.012539544
203	0xbd2177c5	-0.03942086
204	0x3d0072fc	0.031359658
205	0x3e27a864	0.1637283
206	0x3e186fb5	0.14886363
207	0x3e03bbe5	0.12864645
208	0xbd7fd08b	-0.06245474
209	0xbcf94a90	-0.030431062
210	0x3ec7b645	0.39006248
211	0x3f2923f5	0.6607049
212	0x3eec0e11	0.46104482
213	0x3f1c3d27	0.6103081
214	0xbce43e84	-0.027861841
215	0xbf1faf38	-0.6237674
216	0x3f179313	0.5920879
217	0xbe6bd096	-0.23028788
218	0xbd3be495	-0.04587229
219	0xbc9ea06a	-0.0193636
220	0xbdba8d5c	-0.091089934
221	0x3e2df843	0.16989236
222	0xbcc8b7be	-0.024501678
223	0x3f0d878f	0.5528497
224	0x3c449888	0.011999257
225	0x3e9cf88b	0.30658373
226	0x3e3a9345	0.18220241
227	0x3d9a8dc2	0.075465694
228	0x3e83472b	0.25640234
229	0xbd8f8456	-0.07007663
230	0x3d92ac38	0.07161754
231	0x3d6dcfa5	0.058059353
232	0x3ed70c78	0.420017
233	0x3d86f97c	0.06590554
234	0xbdf5666b	-0.11982425
235	0x3e237eb4	0.15966302
236	0x3e743d8e	0.23851606
237	0xbce13618	-0.027491614
238	0x3e08147e	0.13289067
239	0x3e9345da	0.2876423
240	0x3f0cafdb	0.54955834
241	0x3d10592b	0.035241287
242	0xbcd704f4	-0.026247479
243	0x3e0eff63	0.1396461
244	0x3e265e71	0.16246964
245	0xbda6cc96	-0.081444904
246	0x3e934797	0.28765556
247	0x3e82c8c7	0.25543806
248	0xbc824562	-0.015902225
249	0x3e73599f	0.23764656
250	0xbcf4a1c2	-0.029862288
251	0xbca2c40d	-0.019868875
252	0x3e9d58a8	0.30731702
253	0x3d701ced	0.058621336
254	0x3e700ede	0.23443171
255	0x3f573a2b	0.8407313

lstm.weight_hh_l0 f4 [256, 64]
0	0x3e271159	0.16315211
1	0x3df29616	0.11845033
2	0x3d7cfc75	0.0617642
3	0xbd34c4b0	-0.04413289
4	0x3dd9998c	0.1062499
5	0x3db25ba3	0.087088846
6	0x3e66cf90	0.22540116
7	0x3e233e2c	0.15941685
8	0x3b9d2d52	0.0047966624
9	0x3e0f53af	0.13996767
10	0x3e63c3f6	0.22242722
11	0xbde73237	-0.112888746
12	0x3dc6660b	0.09687432
13	0xbd1f459f	-0.038884755
14	0x3d1e8467	0.038700487
15	0xbdefc49a	-0.11707421
16	0xbd20f4ec	-0.039296076
17	0x3efafff2	0.49023396
18	0xbe6bb5f4	-0.23018628
19	0xbdd422a3	-0.10358169
20	0x3e8b43e2	0.27200228
21	0x3dce10b4	0.100617796
22	0x3c1aa934	0.009439755
23	0x3e08d8dc	0.13363975
24	0xbcaebe70	-0.021331042
25	0xbd97c851	-0.07411254
26	0xbdfb2433	-0.12262764
27	0xbe36e0e6	-0.1785923
28	0xbcc61314	-0.024179019
29	0x3bf944a9	0.007607062
30	0xbd46c9c4	-0.048532262
31	0xbd966699	-0.07343788
32	0x3e35a2b9	0.17737855
33	0xbc48b21b	-0.012249495
34	0xbdafba78	-0.08580488
35	0x3ba2ecb3	0.0049720644
36	0xbe37f532	-0.17964628
37	0xbde20688	-0.11036402
38	0x3daed32d	0.08536372
39	0x3e2cf4b2	0.16890219
40	0xbdea1933	-0.114305876
41	0xbadf63c2	-0.001704328
42	0xbe412a8a	-0.18863884
43	0x3d1b1ef6	0.037871324
44	0xbe5367a9	-0.20645012
45	0x3cf02951	0.029316576
46	0xbe214443	-0.15748696
47	0xbe8c8170	-0.27442503
48	0xbe0a7344	-0.13520533
49	0x3d2c129a	0.042009927
50	0xbdb6b187	-0.089205794
51	0x3e3e544c	0.18586844
52	0xbe67ee5b	-0.22649519
53	0x3dae0d67	0.0849865
54	0x3e2c1441	0.16804601
55	0xbcbad2b3	-0.022805547
56	0x3dcb473d	0.09925697
57	0xbcdb6a4b	-0.026784083
58	0xbe901b80	-0.2814598
59	0x3e37f9ad	0.17966338
60	0x3da42966	0.080157086
61	0x3e2c1afd	0.1680717
62	0xbdc0d286	-0.09415154
63	0xbd7ddfcd	-0.06198101
64	0xbd85c5fc	-0.06531903
65	0x3e3b778f	0.18307327
66	0xbdf89434	-0.121376425
67	0xbdc88378	-0.09790701
68	0xbd889130	-0.06668317
69	0x3dd60457	0.104500465
70	0xbcf4edb8	-0.02989851
71	0x3d58b436	0.052906238
72	0x3e271368	0.16315997
73	0xbd899901	-0.06718636
74	0x3e1ef6ee	0.15523884
75	0xbc44044a	-0.011963913
76	0x3d590f18	0.05299291
77	0xbe075d18	-0.13219106
78	0x3d4ccba0	0.04999888
79	0x3e2214ab	0.15828197
80	0x3b87e83e	0.0041475585
81	0xbd1f442f	-0.038883384
82	0x3e9e8c12	0.3096624
83	0x3d8b72e5	0.06809024
84	0x3d09ae4f	0.0336135
85	0xbe117775	-0.14205725
86	0xbe6928fb	-0.22769539
87	0xbde61660	-0.112347364
88	0xbe6a0803	-0.22854619
89	0x3dd292b8	0.10281891
90	0xbdcf21b5	-0.10113851
91	0xbdaa4b69	-0.083151646
92	0xbe02da6c	-0.12778634
93	0xbe637ceb	-0.22215621
94	0x3e5d99a1	0.21640636
95	0xbe20d5a1	-0.15706493
96	0x3b849fac	0.0040473547
97	0xbe2deea4	-0.16985565
98	0xbdc6974a	-0.09696825
99	0x3dc21a04	0.09477618
100	0x3dde997a	0.10869117
101	0x3e2beed3	0.16790323
102	0x3dc8809e	0.09790157
103	0x3dd4d417	0.103920154
104	0xbdb35452	-0.08756317
105	0x3e190377	0.14942728
106	0x3d9bf1b1	0.07614458
107	0xbd85d216	-0.06534211
108	0xbe60c269	-0.21949162
109	0x3d834202	0.06409074
110	0x3dc886aa	0.0979131
111	0x3de2091e	0.11036895
112	0x3e7dda61	0.24790336
113	0xbdf3fc4c	-0.11913356
114	0xbe1de2d4	-0.1541856
115	0x3e168c3e	0.14701936
116	0xbdff4ce4	-0.124658376
117	0x3d32f25b	0.04368816
118	0xbe1edc9b	-0.15513842
119	0xbde013a3	-0.109412454
120	0xbd7a5e0d	-0.06112485
121	0xbcb47221	-0.022027077
122	0xbe07d615	-0.1326526
123	0xbdc28fc4	-0.09500077
124	0xbd782f78	-0.060592145
125	0xbdadd800	-0.08488464
126	0xbdee7b94	-0.116446644
127	0x3b967fc6	0.0045928685
128	0xbde545d2	-0.11194958
129	0x3eb094a5	0.34488407
130	0xbdb84b01	-0.08998681
131	0xbe376b56	-0.17912039
132	0xbe81786b	-0.25287184
133	0xbe97aeb3	-0.29625472
134	0xbdea9fff	-0.11456298
135	0xbb6006bb	-0.00341837
136	0xbde4c052	-0.11169495
137	0x3dc5e159	0.09662122
138	0x3dad7b37	0.08470767
139	0xbcb94cac	-0.022619568
140	0xbddf2363	-0.10895421
141	0x3d7da5af	0.061925586
142	0x3f2af3c4	0.66778207
143	0x3d2ca819	0.042152498
144	0x3e117dfc	0.14208215
145	0x3e22d018	0.15899694
146	0x3e1518fd	0.14560314
147	0x3d8b4207	0.06799703
148	0x3f00280f	0.50061125
149	0xbeaf240d	-0.34207192
150	0xbe54d148	-0.2078296
151	0xbd9b3673	-0.07578745
152	0x3d520a49	0.05127934
153	0x3c896447	0.016771449
154	0x3e6f432e	0.23365471
155	0xbd3d7ec0	-0.046263456
156	0xbdea1c82	-0.11431219
157	0x3c2df98c	0.010618579
158	0x3dd8fe17	0.10595339
159	0xbe062065	-0.13098295
160	0xbcc4189c	-0.023937516
161	0x3ed0433a	0.4067629
162	0x3e0799b0	0.13242221
163	0x3e26106e	0.16217205
164	0x3e5eb882	0.21750072
165	0xbda40116	-0.080080196
166	0xbeaaae5c	-0.3333615
167	0xbde9020d	-0.11377344
168	0x3da71879	0.08158965
169	0x3e59ffbd	0.21288963
170	0xbdc3b642	-0.09556247
171	0xbda3cc05	-0.07997898
172	0xbcdd379b	-0.027004054
173	0x3df47c69	0.11937792
174	0xbc59282c	-0.013254207
175	0x3d0f8bca	0.035045423
176	0xbcc0fec8	-0.02355899
177	0x3e611bc3	0.21983247
178	0x3ea5048e	0.32230037
179	0x3debd7fc	0.11515805
180	0xbce68659	-0.028140234
181	0x3e957797	0.29192802
182	0x3e6fb79f	0.2340989
183	0xbd39dc86	-0.045376323
184	0xbda88e67	-0.08230286
185	0x3cd26f51	0.025687845
186	0x3e4dce2f	0.20098184
187	0x3d40f09f	0.047104474
188	0x3d93d0c5	0.07217554
189	0xbe9daa7a	-0.30794126
190	0xbc44fd38	-0.012023263
191	0x3e4d5b28	0.20054305
192	0xbe34322c	-0.17597264
193	0x3e92ebe6	0.286956
194	0x3e0e11a3	0.13873915
195	0xbd6f8061	-0.05847204
196	0xbe13d814	-0.14437896
197	0xbdce07f8	-0.10060114
198	0x3dd3112b	0.10306009
199	0xbdba0723	-0.090833925
200	0x3d9329d5	0.07185713
201	0xbecb0fea	-0.3966058
202	0x3cee9ac8	0.02912654
203	0x3d8e0726	0.06934957
204	0xbea46cfa	-0.32114393
205	0xbd46bf64	-0.048522368
206	0x3e815340	0.25258827
207	0x3f1f0dd4	0.62130475
208	0xbe6d14bb	-0.2315244
209	0xbea5e7ce	-0.32403415
210	0x3ea4f4aa	0.32217914
211	0x3db222a6	0.08698015
212	0x3e7b223d	0.2452478
213	0xbe555f2e	-0.2083709
214	0x3dd646f6	0.104627535
215	0xbd9c4c05	-0.07631687
216	0xbd261b51	-0.040553395
217	0xbd47558d	-0.048665572
218	0x3d8ee3d3	0.06977048
219	0xbd3e98d7	-0.04653248
220	0x3ce48d51	0.027899416
221	0xbea8d844	-0.32977498
222	0x3f110bab	0.5665843
223	0x3e0632cf	0.1310532
224	0xbdaf3963	-0.085558675
225	0x3ea648c4	0.3247739
226	0x3ca44c4c	0.020055912
227	0x3cacc4d7	0.021089954
228	0x3e78428f	0.2424414
229	0x3e1aea94	0.15128547
230	0xbe542f14	-0.20721084
231	0xbe610d1b	-0.21977656
232	0x3c5829f5	0.013193597
233	0xbec81d2e	-0.39084762
234	0xbdb0d3d6	-0.086341545
235	0xbe068699	-0.13137282
236	0x3d301f50	0.042998612
237	0x3e3072f3	0.1723135
238	0x3ea312e2	0.31850344
239	0xbd92f723	-0.07176044
240	0x3e6edbfa	0.23326102
241	0x3dccad2d	0.09993968
242	0xbe89aa3f	-0.268877
243	0x3e448abc	0.19193548
244	0x3e8d6798	0.27618098
245	0x3e5e7759	0.21725215
246	0x3d0a86d4	0.03381999
247	0x3eaffbb0	0.3437171
248	0x3eb02b72	0.34408146
249	0x3d01ab00	0.03165722
250	0x3e5adb19	0.21372642
251	0xbec16c64	-0.37778008
252	0x3d8826ee	0.0664805
253	0xbd543191	-0.051805083
254	0x3e1d4e11	0.15361811
255	0xbdfb661a	-0.12275334

lstm.bias_ih_l0 f4 [256]
0	0xbd7d7128	-0.061875492
1	0xbcacdedf	-0.021102367
2	0x3d136798	0.035987467
3	0x3ddb5196	0.10708921
4	0xbdfcaac9	-0.12337262
5	0x3d81988e	0.063279256
6	0x3e1f5253	0.15558748
7	0xbe042557	-0.12904869
8	0x3c8b8cba	0.017034877
9	0xbd48959c	-0.048970804
10	0xbcb4810d	-0.022034192
11	0x3d74b4ee	0.05974286
12	0xbbfdfd6c	-0.0077511575
13	0x3dec8f68	0.1155079
14	0x3e43fea8	0.19140112
15	0x3d34cb75	0.044139344
16	0x3c88cf46	0.016700398
17	0xbdc41410	-0.09574139
18	0xbd2f9ba8	-0.042873055
19	0x3e1da027	0.15393125
20	0x3deed204	0.11661151
21	0x3dc351e6	0.09537105
22	0x3e138298	0.14405286
23	0x3d20e38a	0.0392795
24	0xbd0f3db2	-0.034970947
25	0x3bb279c8	0.0054466464
26	0x3de352fe	0.11099814
27	0xbd23a517	-0.039952364
28	0x3cf40632	0.02978811
29	0x3de146ac	0.10999808
30	0x3cb2ac0b	0.021810552
31	0xbe26feeb	-0.16308181
32	0x3d22cef1	0.039748136
33	0x3e4fd764	0.20297009
34	0x3dce4e1c	0.10073492
35	0xbdc343dc	-0.095344275
36	0x3cceadc9	0.025229352
37	0x3d2e6b5f	0.042582866
38	0xbe37514a	-0.17902103
39	0xbdd959ab	-0.10612806
40	0xbc09c942	-0.0084098
41	0xbce7e733	-0.028308487
42	0x3e09a2dc	0.13441032
43	0x3d4e01ab	0.05029456
44	0xbe5ac044	-0.21362406
45	0x3e361d41	0.17784597
46	0xbd88951e	-0.06669067
47	0x3de6539a	0.112464145
48	0x3de6161b	0.11234685
49	0x3dbdfdbf	0.09276914
50	0x3e17323a	0.14765254
51	0x3d54bc20	0.051937222
52	0xbdb9de7a	-0.09075637
53	0x3d5c5db3	0.053800296
54	0x3e716eb9	0.23577394
55	0xbe37ec00	-0.1796112
56	0x3d9f82d8	0.07788628
57	0x3e4849e7	0.19559442
58	0xbdd2d6ba	-0.10294862
59	0xbe011567	-0.1260582
60	0x3e72990c	0.23691195
61	0xbdf6cab7	-0.120503835
62	0x3dcde533	0.10053482
63	0x3e50226a	0.20325628
64	0x3d170aa3	0.03687538
65	0xbd279d5f	-0.040921565
66	0xbe4f4317	-0.20240436
67	0xbd79934e	-0.060931496
68	0xbc3e61fe	-0.011620043
69	0xbdc3579f	-0.09538197
70	0xbe319b3c	-0.17344373
71	0xbcb49e68	-0.02204819
72	0x3d06bd9b	0.032895666
73	0xbdb3c335	-0.08777467
74	0x3b79986c	0.0038085235
75	0xbe87c0cd	-0.26514283
76	0x3dbfbe2f	0.093624465
77	0xbe2b205e	-0.16711566
78	0xbd2578ae	-0.040398292
79	0xbab05dc2	-0.0013455676
80	0xbd12da4c	-0.035852715
81	0x3dc1e8bb	0.09468218
82	0x3cee604f	0.029098658
83	0xbe23c284	-0.1599217
84	0x3cbfbe4e	0.023406174
85	0x3e0be153	0.13660173
86	0xbcda31ae	-0.026635017
87	0x3d8e143a	0.06937452
88	0x3ce6ca35	0.028172592
89	0xbe3a28c6	-0.18179616
90	0xbe468705	-0.19387443
91	0x3ded35ba	0.11582513
92	0xbce98d6a	-0.028509814
93	0xbe46cad8	-0.19413316
94	0x3cebefde	0.028800901
95	0xbc0b636c	-0.008507591
96	0xbd813be0	-0.063102484
97	0x3d4878d4	0.048943356
98	0xbdd1676a	-0.10224803
99	0xbe39269b	-0.18081133
100	0x3dabf72c	0.08396754
101	0x3c3287b5	0.010896613
102	0x3c6d4122	0.014480861
103	0xbd839170	-0.064242244
104	0xbd5c8e54	-0.053846672
105	0xbdd9cbf9	-0.10634608
106	0x3bf3c40c	0.007439142
107	0xbe799191	-0.24371935
108	0x3ca2f289	0.01989104
109	0xbc9ffbcb	-0.019529244
110	0xbdf22f1e	-0.11825393
111	0xbe0c63bd	-0.13709922
112	0xbc94a836	-0.018146615
113	0x3abc7e78	0.0014380952
114	0xbdd8b796	-0.10581891
115	0x3d36b062	0.044601806
116	0xbd261314	-0.040545538
117	0x3db0ac5a	0.086266235
118	0xbd79127a	-0.060808636
119	0xbe2b47ae	-0.16726562
120	0xbdb3325c	-0.0874984
121	0xbe52ce5b	-0.20586531
122	0xbd92a633	-0.07160606
123	0xbe0bf6d9	-0.13668384
124	0xbe4629a7	-0.19351827
125	0x3da9eb16	0.08296792
126	0xbc2b43ed	-0.0104532065
127	0xbdb81b6c	-0.08989605
128	0xbcb4fb4b	-0.022092482
129	0x3d7c4ded	0.061597753
130	0x3dd04996	0.101702854
131	0xbd44aeec	-0.04801838
132	0x3daf7a95	0.085683025
133	0xbd308aba	-0.04310105
134	0xbdfff8ea	-0.124986485
135	0x3e019df4	0.1265791
136	0x3d991ec6	0.07476573
137	0xbdd407ce	-0.10353051
138	0xbd92c1fe	-0.07165907
139	0xbd424c22	-0.047435887
140	0xbd3e3123	-0.04643358
141	0xbcbac014	-0.022796668
142	0xbd8624b9	-0.06549973
143	0xbd9af36d	-0.07565961
144	0x3c4839c6	0.0122208055
145	0x3ddbb4e9	0.10727865
146	0xbdf90714	-0.12159553
147	0xbc2e7643	-0.010648313
148	0x3dd9cdff	0.10634994
149	0xbd994ee6	-0.07485752
150	0xbdc8c58c	-0.09803304
151	0x3d8410b2	0.06448497
152	0xbdccc912	-0.099992886
153	0xbd805907	-0.062669806
154	0x3d59f413	0.053211283
155	0xbcd807b4	-0.02637086
156	0xbdc0fd9e	-0.09423374
157	0xbc9bf284	-0.019036539
158	0xbd856512	-0.06513418
159	0x3d69196b	0.056909006
160	0xbbabc52c	-0.0052420106
161	0x3e040755	0.12893422
162	0xbd33506d	-0.043777872
163	0x3dc6e1c5	0.09711031
164	0x3d05416f	0.032533105
165	0xbda4a25d	-0.08038781
166	0x3bc9f67f	0.006163418
167	0xbbe488a5	-0.006974297
168	0xbd522936	-0.051308833
169	0xbcb4aaac	-0.022054039
170	0x3d3f44f4	0.04669662
171	0xbd38fa58	-0.04516062
172	0xbdb0e499	-0.086373515
173	0xbca92ac4	-0.020650275
174	0x3d52893e	0.051400416
175	0x3d89b25a	0.06723471
176	0xbd4cff44	-0.050048128
177	0xbd1b109b	-0.037857633
178	0xbd22edf8	-0.039777726
179	0x3d09f1c8	0.033677846
180	0x3b7b1fbc	0.0038318476
181	0x3d2729e1	0.040811423
182	0x3cf84791	0.030307563
183	0xbe0aa583	-0.135397
184	0x3daa8adc	0.083272666
185	0x3c2c7343	0.010525527
186	0x3d45bf30	0.048278034
187	0x3d5b3c25	0.053524155
188	0x3e013239	0.12616815
189	0xbd0579fb	-0.032587033
190	0x3d07a6d7	0.033118095
191	0xbb95ba82	-0.0045693526
192	0xbc7fc844	-0.015611712
193	0x3cf398a0	0.029735863
194	0x3d4aefc4	0.049545065
195	0x3de73e6d	0.11291204
196	0x3be61522	0.007021562
197	0x3d4f208a	0.05056814
198	0xbd08ef78	-0.0334315
199	0xbe3825cf	-0.17983173
200	0x3cd6ca72	0.02621958
201	0xbcdc539e	-0.02689534
202	0xba82b677	-0.0009972592
203	0xbd88847f	-0.066658966
204	0x3d28096f	0.04102462
205	0x3d8aa6a8	0.067700684
206	0xbda06b4e	-0.07832967
207	0x3da43ba1	0.08019186
208	0xbd5a49f0	-0.05329317
209	0xbda15399	-0.07877273
210	0x3ccee432	0.025255296
211	0x3d92c841	0.07167102
212	0xbd636843	-0.055519354
213	0x3d2a6a6e	0.041605406
214	0xbca75b85	-0.020429382
215	0x3d092c76	0.033489667
216	0x3db7a56b	0.08967098
217	0xbd955226	-0.07291059
218	0x3cfd9f25	0.030959675
219	0xbe20ef66	-0.15716323
220	0x3d409f62	0.047027
221	0xbc3772f2	-0.011196839
222	0x3d3ee612	0.04660613
223	0xbd290cbd	-0.041271914
224	0xbd37b310	-0.0448485
225	0xbc63f63e	-0.013913689
226	0xbe0a5790	-0.13509965
227	0x3d169b74	0.036769345
228	0x3cf69822	0.03010184
229	0x3e75c270	0.23999953
230	0xbd008920	-0.031380773
231	0x3bafb8f0	0.0053626224
232	0x3c8699a6	0.016430687
233	0x3d7d24b9	0.0618026
234	0xbd2e9af7	-0.042628255
235	0x3bad393e	0.005286365
236	0xbe0f0275	-0.13965781
237	0x3b6e1703	0.0036329634
238	0xbdafdf22	-0.08587481
239	0x3d5d36da	0.05400739
240	0x3c6cdb35	0.01445656
241	0xbd8ed79c	-0.06974718
242	0x3e23b1a0	0.15985727
243	0x3d0c2291	0.034212653
244	0xbda81810	-0.082077146
245	0x3d150d04	0.036389366
246	0x3e982dcb	0.29722437
247	0xbd55733a	-0.05211184
248	0x3e2a253a	0.16615763
249	0x3d7bcd48	0.06147507
250	0xbd6b2476	-0.05740782
251	0xbda88b64	-0.08229712
252	0x3d00fd50	0.031491578
253	0xbd810798	-0.063002765
254	0x3e23d3c6	0.15998754
255	0x3d173202	0.036912926

lstm.bias_hh_l0 f4 [256]
0	0x3da15c47	0.07878929
1	0x3d40c082	0.04705859
2	0x3df5960d	0.119915105
3	0x3e354328	0.177014
4	0x3d9edb5b	0.077566825
5	0x3dac94db	0.084268294
6	0x3d2f441f	0.042789575
7	0xbcd64046	-0.026153695
8	0x3ddcdfe3	0.107848905
9	0xbdacba17	-0.08433931
10	0x3e02fa36	0.1279076
11	0x3bcc1491	0.0062280376
12	0x3d952716	0.07282846
13	0x3e1e3742	0.15450767
14	0x3e33a585	0.1754361
15	0x3e5fa228	0.21839201
16	0xbbd1fc07	-0.006408218
17	0xbdc88f9d	-0.09793017
18	0x3d554f9d	0.05207788
19	0x3e465d4e	0.1937153
20	0x3e392e00	0.18083954
21	0xbcd69138	-0.026192293
22	0x3d05fc9a	0.032711603
23	0x3db52eb2	0.08846797
24	0x3e1a7416	0.15083346
25	0x3d9097e9	0.070602246
26	0xbce2eda4	-0.027701207
27	0x3d296879	0.0413594
28	0x3db25a2f	0.087086074
29	0x3df814fe	0.12113379
30	0xbd4b8c96	-0.04969462
31	0xbc98c8de	-0.018650468
32	0x3e0bca39	0.1365136
33	0x3e223e16	0.15843996
34	0xbcb37063	-0.021904176
35	0xbdc9810a	-0.098390654
36	0xbd73a958	-0.05948767
37	0x3dd95d80	0.10613537
38	0xbe20c20e	-0.15699026
39	0xbe0860b8	-0.13318145
40	0xbd535a15	-0.05159958
41	0x3cb51bad	0.022107923
42	0xbc8ed7e1	-0.017436923
43	0x3e493d40	0.19652271
44	0xbcb1bcf0	-0.021696538
45	0x3e40ea32	0.18839338
46	0x3df39027	0.11892729
47	0x3d92ba71	0.07164467
48	0xbc2b28d5	-0.010446747
49	0xbce8eae7	-0.028432323
50	0x3e270daa	0.16313806
51	0x3db3ae57	0.08773487
52	0xbd3e0167	-0.046388056
53	0x3e25d032	0.16192701
54	0x3e423757	0.18966423
55	0xbd965f78	-0.07342428
56	0x3e061d72	0.1309717
57	0x3e5f69ee	0.21817753
58	0xbe0151a0	-0.12628794
59	0x3c06ce75	0.008227934
60	0x3e2ecddb	0.17070715
61	0xbdf48b1e	-0.11940597
62	0x3d536b58	0.051616043
63	0x3e1ddc3b	0.15416043
64	0xbd9fcd95	-0.078028835
65	0x3d8edbe6	0.06975536
66	0xbdd5c36f	-0.104376666
67	0xbd28aa4b	-0.04117803
68	0xbe48b12c	-0.19598836
69	0x3dc41d66	0.0957592
70	0xbd621542	-0.055196054
71	0x3d49c27f	0.04925775
72	0x3e3d0dec	0.18462342
73	0x3dd4e3a6	0.10394983
74	0x3cafa06c	0.0214388
75	0xbd5756d4	-0.05257304
76	0x3bc000cb	0.0058594695
77	0xbe83907b	-0.25696167
78	0xbd7bf17a	-0.061509587
79	0x3dfdc826	0.12391691
80	0xbe3b2842	-0.18277076
81	0x3dd2d8c6	0.102952525
82	0x3aa32257	0.0012446147
83	0xbe537f02	-0.20653918
84	0xbdbf27a1	-0.093337305
85	0x3db6a44e	0.089180574
86	0x3de6a9b7	0.11262839
87	0xbd21eabc	-0.0395305
88	0x3d9b1ba0	0.075736284
89	0xbe41c550	-0.18922925
90	0xbdd823c0	-0.10553694
91	0x3c3ae9f5	0.011408319
92	0x3dc7e6e5	0.097608365
93	0x3c2dc014	0.010604877
94	0x3e06c809	0.13162245
95	0xbd7907f0	-0.060798585
96	0x3c938b68	0.01801081
97	0x3c3da3c6	0.011574691
98	0xbda50526	-0.080576226
99	0xbe413ad2	-0.18870094
100	0x3da67c86	0.0812922
101	0xbe1544ea	-0.1457707
102	0xbc1fda76	-0.009756675
103	0x3de70389	0.11279971
104	0x3d315f2b	0.04330365
105	0xbdb8e6c7	-0.09028392
106	0xbd673e6c	-0.056456015
107	0xbe74b974	-0.2389887
108	0xbdf55ebd	-0.119809605
109	0xbe574b4a	-0.21024814
110	0x3c9e752c	0.019342981
111	0xbe17731c	-0.14790004
112	0xbd585ac8	-0.05282095
113	0x3e0aa61c	0.13539928
114	0xbc91acfa	-0.017782677
115	0xbdeb3320	-0.11484361
116	0xbe436a6c	-0.19083565
117	0x3d75681e	0.059913747
118	0xbdde00c2	-0.10839988
119	0xbda71b2e	-0.08159481
120	0x3d41d943	0.047326338
121	0xbd7e3439	-0.062061522
122	0x3da546a0	0.08070111
123	0x3af1c7e8	0.0018446418
124	0xbe3a146f	-0.18171857
125	0x3d96f502	0.0737095
126	0x3db894c4	0.0901275
127	0xbd8e7d9d	-0.069575526
128	0x3c45c1ae	0.012070103
129	0x3d30e4e7	0.04318705
130	0xbdd4378e	-0.10362159
131	0xbdab38fe	-0.0836048
132	0xbe0279ae	-0.1274173
133	0x3d8d3431	0.0689472
134	0x3dccdfc6	0.10003619
135	0x3e0ac902	0.13553241
136	0x3d2e5503	0.042561542
137	0xbbeabf50	-0.0071639195
138	0xbd9ee341	-0.07758189
139	0xbca4e88a	-0.020130415
140	0x3d64c8f4	0.055855706
141	0xbbdfa88e	-0.006825513
142	0x3da950eb	0.08267387
143	0x3d4c10da	0.04982076
144	0xbcf2058b	-0.029543659
145	0xbd2bec8c	-0.041973636
146	0x3dcbcdd5	0.09951369
147	0x3dce2950	0.100664735
148	0xba6710a1	-0.00088144286
149	0xbd4dcb45	-0.05024268
150	0xbdc97540	-0.09836817
151	0xbb5a6795	-0.00333259
152	0xbdc7d2fc	-0.09757039
153	0x3d5acc60	0.053417563
154	0xbd4644b0	-0.04840535
155	0x3c6e3ab0	0.014540359
156	0x3da4fe8b	0.08056363
157	0x3e4c0e9b	0.19927447
158	0x3db12b7d	0.08650873
159	0xbc84d10a	-0.016212959
160	0xbda46012	-0.080261365
161	0x3afbadbe	0.001920156
162	0xbd36aae2	-0.04459656
163	0xbdca9470	-0.098915935
164	0xbc10d260	-0.00883922
165	0xba49a0da	-0.000769151
166	0x3db56c13	0.08858504
167	0x3cd34932	0.025791738
168	0x3c81982e	0.015819635
169	0x3d50960c	0.050924346
170	0xbd8d0d05	-0.06887249
171	0x3d6f686c	0.058449194
172	0x3d985a76	0.07439129
173	0xbd0993b6	-0.033588134
174	0xbdaf2f6e	-0.08553968
175	0xbd8c0f23	-0.068388246
176	0xbd01d83f	-0.03170037
177	0x3df352a8	0.11881
178	0x3db802b2	0.08984889
179	0x3b4d3131	0.0031309838
180	0xbc815c9c	-0.01579123
181	0xbdd0628f	-0.101750486
182	0x3dd3145d	0.10306618
183	0x3d8d5612	0.06901182
184	0x3ddb276b	0.10700878
185	0xbd18c1d1	-0.037294213
186	0x3b930b70	0.0044874474
187	0x3d771c98	0.060330003
188	0xbd8f0054	-0.069824845
189	0xbde75ecf	-0.1129738
190	0x3da07ff0	0.07836902
191	0x3daf65bc	0.08564326
192	0x3d1dd2d4	0.03853114
193	0xbdb8107c	-0.08987519
194	0x3ddd2fd0	0.10800135
195	0xbc39afb9	-0.011333399
196	0xbd3c09f2	-0.045907922
197	0x3d824d4f	0.06362402
198	0x3cc966d8	0.024585173
199	0xbe3fa560	-0.1871543
200	0x3d368c93	0.044567656
201	0x3e089bb5	0.13340648
202	0x3ded467b	0.11585709
203	0x3d8fd98a	0.07023914
204	0x3aaf5808	0.0013377676
205	0x3d089323	0.033343446
206	0x3cd03e99	0.025420474
207	0x3e089ab8	0.1334027
208	0x3d2f4228	0.0427877
209	0xbe2cd9b6	-0.16879925
210	0xbe04634d	-0.12928505
211	0x3e4a63b4	0.19764596
212	0x3c92b5fc	0.017909043
213	0xbce9c53d	-0.028536433
214	0x3e1cbc9f	0.15306328
215	0x3ded415b	0.11584731
216	0x3d89f2ef	0.06735789
217	0xbc49952b	-0.012303631
218	0xbc839b67	-0.016065313
219	0xbca060f6	-0.019577485
220	0xbce6d5db	-0.028178146
221	0x3d983011	0.07431043
222	0xbdf2b7ac	-0.11851439
223	0xbc238235	-0.009979774
224	0x3d3e3f21	0.046446923
225	0xbd1abf8a	-0.037780322
226	0x3de79c36	0.11309092
227	0x3d560046	0.052246355
228	0x3d1ae80c	0.037818953
229	0x3e001a87	0.1251012
230	0xbd07ae0d	-0.033124972
231	0x3c870491	0.01648167
232	0xbd8a3137	-0.06747668
233	0x3b3e5c6a	0.0029046782
234	0xbd7d1cb0	-0.061794937
235	0x3d4be313	0.0497771
236	0xbe3bc73d	-0.18337722
237	0x3d8ca7b5	0.06867925
238	0x3d39faba	0.045405127
239	0xbd8c1fa6	-0.06841974
240	0xba9b1f68	-0.0011834921
241	0xbc7fbdde	-0.015609233
242	0xbd61c358	-0.055117935
243	0xbd53b191	-0.051683012
244	0xbd84f833	-0.06492653
245	0xbd8ef90c	-0.06981096
246	0x3e812d1c	0.25229728
247	0x3d3b969f	0.04579794
248	0x3e4aab2b	0.19791858
249	0x3e77c9ab	0.24198024
250	0xbd572cf8	-0.05253312
251	0xbbb13a80	-0.005408585
252	0x3dee74ec	0.11643395
253	0xbe031cb4	-0.12803918
254	0x3e4c6012	0.19958523
255	0x3e2b26f1	0.16714074

lstm.weight_ih_l1 f4 [256, 64]
0	0xbdb77049	-0.089569636
1	0x3e313fc2	0.17309478
2	0xbd3e39d5	-0.04644187
3	0x3d320e09	0.043470416
4	0xbdb8075c	-0.08985779
5	0xbe910818	-0.28326488
6	0xbd29136e	-0.041278295
7	0x3e369782	0.17831233
8	0xbe7709b9	-0.24124803
9	0xbe4f0e5e	-0.20220324
10	0xbe924adb	-0.28572735
11	0xbd9eec62	-0.0775993
12	0xbce031a6	-0.027367424
13	0xbe721606	-0.23641214
14	0x3f4eba5f	0.8075313
15	0x3e8f9180	0.28040695
16	0x3e4094f8	0.18806827
17	0xbd11d38c	-0.035602137
18	0xbda3c59a	-0.07996674
19	0x3f4ed4d4	0.807935
20	0x3cf9c30e	0.030488517
21	0xbeb16040	-0.34643745
22	0x3d1dee81	0.038557533
23	0xbcadc0cc	-0.021210097
24	0x3d7ae51a	0.061253645
25	0x3e6f8894	0.23391944
26	0xbe37b508	-0.17940152
27	0x3eb17cca	0.3466552
28	0x3d847c34	0.06469002
29	0x3eb2e7ab	0.34942374
30	0x3d2df5c1	0.042470697
31	0xbc85bcdc	-0.016325407
32	0xbd87bef9	-0.06628222
33	0xbe3a4983	-0.18192105
34	0x3e54316c	0.20721978
35	0x3ed92b5d	0.42415896
36	0x3d99dc30	0.075127006
37	0x3f048f7d	0.51781446
38	0xbed1c1ec	-0.40968263
39	0xbe942a71	-0.2893863
40	0x3e42f14e	0.19037363
41	0x3eb3a3a7	0.35085794
42	0xbf2439e4	-0.64150834
43	0xbebb27a0	-0.3655367
44	0x3e6a5430	0.22883677
45	0x3d8cf2f0	0.06882274
46	0x3e327936	0.17429051
47	0x3e8eaf4a	0.2786811
48	0x3e80a6c0	0.2512722
49	0x3ec69e0c	0.38792455
50	0x3e538d0a	0.20659271
51	0xbd4a7fe9	-0.04943839
52	0x3e3f3548	0.18672669
53	0xbda88152	-0.08227791
54	0x3dcb9a61	0.09941555
55	0xbe65bc5c	-0.22435135
56	0xbe07f610	-0.13277459
57	0x3f2383a7	0.6387276
58	0xbd782c2f	-0.06058901
59	0x3e15cbf6	0.14628586
60	0xbe866fa7	-0.2625706
61	0xbe1870df	-0.14886807
62	0x3e576329	0.2103392
63	0x3f476925	0.7789481
64	0xbe8cc70c	-0.2749561
65	0xbd186b29	-0.03721157
66	0x3e00d86a	0.12582555
67	0xbebad528	-0.3649075
68	0x3be2c0ea	0.00691997
69	0xbe7767f8	-0.24160755
70	0xbc8cf413	-0.017206227
71	0xbe95b168	-0.29236913
72	0x3d48e7d7	0.049049225
73	0xbd8ce860	-0.068802595
74	0xbd105b11	-0.035243098
75	0x3f16fe4e	0.5898179
76	0xbdec137c	-0.11527154
77	0xbdbe97b0	-0.09306276
78	0xbf183394	-0.594537
79	0x3e1d63aa	0.1537005
80	0x3f221675	0.63315517
81	0xbe01a89b	-0.12661974
82	0x3e7fd648	0.24984086
83	0x3d9bcdf0	0.07607639
84	0xbe4b4f62	-0.19854501
85	0xbd69b50a	-0.057057418
86	0x3e94da77	0.29072925
87	0x3d7d402a	0.06182877
88	0x3f3da149	0.74074227
89	0x3e83421c	0.25636375
90	0x3c4ade74	0.0123821385
91	0xbe7a348e	-0.2443411
92	0x3db42b5f	0.08797335
93	0xbeda3486	-0.42618197
94	0x3d08aea9	0.033369694
95	0x3e9cc683	0.30620202
96	0xbe953851	-0.29144529
97	0xbeb1e566	-0.3474533
98	0xbdfe20da	-0.1240861
99	0x3c5598b4	0.013036896
100	0xba6354c6	-0.0008671995
101	0x3e30d1b6	0.17267498
102	0xbddbcf11	-0.10732854
103	0x3cdaae2a	0.026694376
104	0xbd148ae6	-0.036265276
105	0x3df71e0c	0.12066278
106	0x3b43a06f	0.0029850265
107	0x3e193ace	0.14963838
108	0xbe8edca5	-0.27902713
109	0x3db04306	0.08606534
110	0xbbd57efc	-0.006515382
111	0x3ece8dca	0.4034255
112	0xbde71f6a	-0.11285289
113	0x3d712feb	0.05888359
114	0xbdb94142	-0.0904565
115	0xbeec130d	-0.46108285
116	0xbe4473e9	-0.19184841
117	0x3e0f1e6e	0.13976452
118	0xbf44497a	-0.76674616
119	0x3e2033a0	0.15644693
120	0xbe4ce0bb	-0.20007603
121	0xbddde5e9	-0.108348675
122	0x3def7c5b	0.11693641
123	0x3c6074ad	0.013699693
124	0xbf291610	-0.6604929
125	0x393343a0	0.00017095963
126	0x3c03e63f	0.0080505
127	0xbe72ec28	-0.23722899
128	0x3da2c209	0.079471655
129	0x3daf440c	0.08557901
130	0xbe1c5f6f	-0.1527078
131	0xbe2a4026	-0.16626033
132	0xbce33b3c	-0.027738206
133	0xbe55bc30	-0.20872569
134	0xbbc63f64	-0.006050037
135	0xbe052b6b	-0.13004844
136	0xbe302fae	-0.17205688
137	0x3e04c7cb	0.1296684
138	0x3cecf10d	0.028923536
139	0xbe58dce9	-0.2117802
140	0xbe0df654	-0.13863498
141	0xbdcfa306	-0.10138516
142	0xbf1599d3	-0.5843784
143	0xbe8daf0e	-0.2767262
144	0xbe58537b	-0.21125595
145	0xbe45966d	-0.19295664
146	0xbe62a9bc	-0.22135061
147	0x3dc32887	0.09529214
148	0x3e6854b1	0.22688557
149	0xbb24ea3a	-0.0025164024
150	0xbe15e25c	-0.1463713
151	0xbee9d01a	-0.4566658
152	0x3d99efb5	0.075164236
153	0xbad8c213	-0.0016537331
154	0xbeb2bd04	-0.34909832
155	0xbe01c2dc	-0.12671989
156	0x3e374283	0.17896466
157	0xbdd72367	-0.10504799
158	0xbe362db1	-0.17790867
159	0x3d38e901	0.045144085
160	0xbea06e75	-0.31334272
161	0x3cd3a50e	0.02583554
162	0x3cedf2cc	0.029046439
163	0x3c36c00a	0.011154184
164	0x3e50e90e	0.20401403
165	0x3e870be1	0.2637625
166	0xbec6b4ad	-0.3880972
167	0xbab8c686	-0.001409725
168	0x3e615fa1	0.22009136
169	0xbcc917fd	-0.024547571
170	0xbe082688	-0.13295949
171	0x3d561ee0	0.05227554
172	0x3d8af31e	0.06784652
173	0xbd9d0bf6	-0.07668297
174	0xbd7398b6	-0.05947181
175	0x3ef527f4	0.47882044
176	0xbde1cc68	-0.110253155
177	0x3e2f953b	0.1714677
178	0xbd606ec4	-0.054793134
179	0xbda71ec8	-0.08160168
180	0xbd9ff0e9	-0.07809622
181	0xbe358b1d	-0.17728849
182	0x3e1fbaf5	0.15598662
183	0xbccc292a	-0.024921972
184	0xbde186f2	-0.11012067
185	0xbe01f274	-0.12690145
186	0x3d451bd9	0.04812226
187	0x3e02fa47	0.12790786
188	0x3d75e958	0.060036987
189	0x3d0541a4	0.032533303
190	0x3c92a949	0.017902987
191	0xbaaecb28	-0.0013335692
192	0x3cc5f04b	0.024162432
193	0x3d78aeb8	0.0607135
194	0xbe57f56c	-0.21089715
195	0xbea7c490	-0.32767153
196	0xbc77f6a5	-0.015134488
197	0x3dc00c11	0.093773015
198	0x3e24ff0a	0.16112915
199	0x3e74ebb4	0.23918039
200	0x3a211fe2	0.00061464135
201	0x3dd18706	0.10230832
202	0xbcf53979	-0.029934632
203	0xbe60f9e8	-0.21970332
204	0x3e9853a7	0.29751322
205	0xbe769e38	-0.24083793
206	0x3d7bfdbe	0.061521284
207	0xbcf1f02a	-0.029533464
208	0x3e4e0895	0.20120461
209	0xbee29518	-0.44254375
210	0xbda1699c	-0.078814715
211	0xbe57a86b	-0.2106034
212	0xbd81ff72	-0.063475505
213	0xbdec63a6	-0.11542444
214	0xbda3f470	-0.08005607
215	0x3e6120d4	0.21985179
216	0x3e10162c	0.14070958
217	0x3df49da8	0.11944133
218	0xbe70bffe	-0.23510739
219	0xbd89d3f1	-0.06729878
220	0xbce7ce33	-0.028296566
221	0x3d2184f1	0.039433423
222	0xbe36bd6b	-0.17845695
223	0xbe5049ab	-0.20340602
224	0xbc3e490b	-0.0116140945
225	0x3c933fc9	0.017974751
226	0xbe639440	-0.22224522
227	0xbe63a344	-0.2223025
228	0x3d47d658	0.0487884
229	0xbd844089	-0.064576216
230	0x3e12d3a0	0.14338541
231	0x3e5f1ae8	0.21787608
232	0xbe564150	-0.20923352
233	0x3e0dfd1a	0.13866082
234	0x3e102ede	0.14080378
235	0x3ddf9501	0.10917092
236	0x3eb8dc7d	0.3610572
237	0xbe06e737	-0.13174139
238	0xbe5faf0a	-0.21844116
239	0xbdc4158b	-0.095744215
240	0x3e4f9ca3	0.20274596
241	0xbc4d917b	-0.012546892
242	0x3db79b9f	0.08965229
243	0xbe080e68	-0.13286746
244	0x3c875f55	0.01652495
245	0xbd91bbc0	-0.071158886
246	0xbc47046c	-0.01214705
247	0xbd321816	-0.04348
248	0x3e4738f8	0.19455326
249	0xbe0417ce	-0.12899706
250	0xbe6bee06	-0.23040017
251	0x3dc60c41	0.09670306
252	0xbe3175f8	-0.17330158
253	0x3e5f1ba4	0.21787888
254	0xbde025cc	-0.10944709
255	0xbe45bffa	-0.19311514

lstm.weight_hh_l1 f4 [256, 64]
0	0x3dbcaf3c	0.09213111
1	0xbcc97078	-0.024589762
2	0x3d9f7ca1	0.07787443
3	0x3e2863cc	0.1644432
4	0x3dc8e0b3	0.09808483
5	0x3ed5adb6	0.41734093
6	0x3e70f749	0.23531832
7	0xbdbde442	-0.09272052
8	0x3d3f63fa	0.046726204
9	0xbe0a0148	-0.13477051
10	0x3dc7aaab	0.09749349
11	0x3dbcb888	0.09214884
12	0xbdf796a6	-0.12089281
13	0x3db99406	0.09061436
14	0x3e307412	0.17231777
15	0xbe07d19e	-0.13263556
16	0x3d00b6ff	0.03142452
17	0xbc13ed7c	-0.009028789
18	0x3e7dcc3a	0.24784938
19	0x3cf05a6d	0.029339993
20	0x3b030c3f	0.0019996313
21	0x3e478598	0.19484556
22	0xbe143e1d	-0.1447682
23	0x3e6a4432	0.22877577
24	0x3d1dced7	0.038527336
25	0x3cf5f80d	0.030025506
26	0x3e89b50e	0.26895946
27	0xbd98db23	-0.07463672
28	0x3d374102	0.04473973
29	0xbcc447d7	-0.023960037
30	0x3d2d05a6	0.042241715
31	0x3dcf8c60	0.10134196
32	0x3c9bf149	0.019035952
33	0x3ea52f77	0.32262775
34	0x3de79c3e	0.11309098
35	0x3e30c616	0.17263064
36	0xbeaca3aa	-0.33718616
37	0xbe93248b	-0.28738818
38	0xbd56c3d0	-0.052432835
39	0x3e2b2215	0.1671222
40	0xbec7993d	-0.389841
41	0xbe780382	-0.24220088
42	0xbdb17c9c	-0.086663455
43	0xbe9eebcc	-0.31039274
44	0x3d91e89a	0.07124443
45	0xbda2b315	-0.079443134
46	0xbd6c4a51	-0.05768806
47	0xbe735ed4	-0.23766643
48	0xbda3595a	-0.07976027
49	0xbedfb04a	-0.43689185
50	0x3ea3868d	0.31938592
51	0xbe6c9f3a	-0.23107615
52	0x3e25f898	0.16208112
53	0xbe1f6934	-0.15567476
54	0x3e1574b5	0.14595301
55	0xbc1b9175	-0.009495129
56	0xbc3c696f	-0.011499747
57	0x3d86cea6	0.06582384
58	0x3c44b502	0.012006046
59	0xbdbd3ff7	-0.09240716
60	0xbe4580a2	-0.19287351
61	0x3c727cb2	0.0148002375
62	0xbe23cd6a	-0.15996328
63	0xbf0cbfc7	-0.5498013
64	0x3f36c7f5	0.7139886
65	0xbe3ad97c	-0.18247026
66	0xbee6df5f	-0.45092294
67	0x3d8ea742	0.06965496
68	0x3dde2d2f	0.10848462
69	0xbca5ce0a	-0.020239849
70	0x3dfefa46	0.124500796
71	0x3e9a0958	0.30085254
72	0x3ca55f48	0.020187035
73	0xbe1a78d2	-0.15085152
74	0x3e8958d4	0.26825583
75	0x3da6fa7a	0.08153243
76	0xbe05849d	-0.13038869
77	0xbe97d41d	-0.29654017
78	0xbe715e30	-0.23571086
79	0x3cf05a5c	0.029339962
80	0xbcfc4c1c	-0.03079801
81	0xbe9bfd8f	-0.30466887
82	0xbc1e463d	-0.009660301
83	0xbe0f0a68	-0.13968813
84	0xbe8f5575	-0.27994886
85	0xbe059196	-0.13043818
86	0xbdd575d1	-0.10422862
87	0x3d90b310	0.070654035
88	0x3df77d46	0.12084441
89	0x3e150fb7	0.14556776
90	0xbd5fcd8e	-0.05463939
91	0xbda303bd	-0.079596974
92	0x3d445bee	0.047939233
93	0x3a20c0a4	0.00061322213
94	0x3de61040	0.11233568
95	0xbe0bad22	-0.13640264
96	0xbe0f419b	-0.1398987
97	0xbdfc4813	-0.123184346
98	0x3ceee5d1	0.02916232
99	0xbc05bf35	-0.008163263
100	0x3dd10fcc	0.10208091
101	0xbd050b00	-0.032481194
102	0xbbee564e	-0.007273472
103	0xbee03ff1	-0.43798783
104	0x3e80de53	0.2516962
105	0xbce62581	-0.028094055
106	0xbdbf5590	-0.093424916
107	0xbe0bf6e2	-0.13668397
108	0x3d9cffa7	0.07665949
109	0xbdeb337f	-0.114844315
110	0xbe0a1c22	-0.13487294
111	0x3e1a909d	0.15094228
112	0x3d558361	0.052127246
113	0xbe19acb9	-0.15007295
114	0x3d7fb635	0.062429626
115	0xbced60e1	-0.02897686
116	0xbe0bc8fd	-0.1365089
117	0xbe5aaa7a	-0.21354094
118	0xbdcbacab	-0.09945043
119	0xbe256c09	-0.16154493
120	0xbe861647	-0.2618887
121	0xbcad6038	-0.021164045
122	0xbe8bfa3c	-0.2733935
123	0xbec2fcfe	-0.38083643
124	0xbdabf179	-0.08395667
125	0x3d956fb3	0.072966956
126	0xbe2b0e50	-0.16704679
127	0xbe8a02d6	-0.2695529
128	0x3e83bbda	0.25729257
129	0xbee2d318	-0.44301677
130	0x3e1c82c1	0.15284254
131	0x3ead676a	0.3386796
132	0xbe424c37	-0.18974386
133	0x3e023841	0.12716772
134	0x3c2ac20a	0.010422239
135	0x3e7c7c8e	0.24656889
136	0x3e490d14	0.19633895
137	0xbe018ebb	-0.12652104
138	0xbec366b5	-0.38164297
139	0xbd371685	-0.04469921
140	0xbe63a12d	-0.22229452
141	0xbd951d5f	-0.07280993
142	0x3d6778ab	0.056511562
143	0xbd50b2b6	-0.050951682
144	0x3dfc80d0	0.123292565
145	0xbc3e7364	-0.011624191
146	0xbdf0ce5a	-0.117581084
147	0x3dc7a9bd	0.09749172
148	0x3bd48034	0.0064850096
149	0x3d9e0810	0.077163815
150	0x3e060ca4	0.1309076
151	0x3de609df	0.112323515
152	0xbe3f016e	-0.18652889
153	0x3dba3b1c	0.090933055
154	0x3e6e2c8b	0.2325918
155	0x3ca6e904	0.020374782
156	0xbdb21f66	-0.08697395
157	0xbe09070b	-0.13381593
158	0x3c7461e5	0.014915918
159	0x3e0428ae	0.12906143
160	0xbd2341f4	-0.03985782
161	0x3d81d9ee	0.06340395
162	0x3dc777f3	0.097396754
163	0xbe79ea4a	-0.2440578
164	0xbe300992	-0.17191151
165	0x3dfcffde	0.1235349
166	0xbd183601	-0.037160877
167	0x3d68db8f	0.056850012
168	0xbe0ac7f6	-0.13552842
169	0xbe181f59	-0.14855708
170	0x3d61da7d	0.055140007
171	0xbe87cc5a	-0.26523095
172	0x3d938b37	0.072042875
173	0x3e51a5d2	0.20473412
174	0xbe933f5c	-0.28759277
175	0xbd171dff	-0.03689384
176	0xbe064cbb	-0.13115208
177	0x3d5ff3d1	0.05467588
178	0x3e004592	0.12526539
179	0xbdb019ed	-0.08598695
180	0x3dc907d0	0.09815943
181	0xbe2bbb0b	-0.1677057
182	0x3e143860	0.1447463
183	0x3e2b5b86	0.16734132
184	0xbd34e2d5	-0.044161636
185	0xbd5c5515	-0.053792078
186	0x3df75286	0.12076287
187	0x3ccbe374	0.024888732
188	0xbe83648e	-0.25662655
189	0x3cd8d2a1	0.026467623
190	0x3e0ff199	0.14057006
191	0xbdb8aaef	-0.09016978
192	0x3e9d2929	0.30695465
193	0xbe0c50e4	-0.13702732
194	0x3d5ec192	0.05438382
195	0x3de03a06	0.10948567
196	0xbe3ab160	-0.18231726
197	0xbd5dc875	-0.05414625
198	0xbe27d19a	-0.1638855
199	0xbe167fb1	-0.14697148
200	0xbda6287b	-0.0811319
201	0x3d00bced	0.031430174
202	0x3d344b8d	0.044017363
203	0x3d264bab	0.040599506
204	0x3d13fc47	0.036129262
205	0x3e7feb54	0.24992114
206	0x3d91a75a	0.07111998
207	0xbd924c2f	-0.07143437
208	0xbe35442a	-0.17701784
209	0x3e5068bc	0.20352453
210	0xbe21a53f	-0.15785693
211	0x3e66c704	0.22536856
212	0x3ceb63f4	0.028734185
213	0x3d95c53b	0.07313009
214	0xbb28ce0a	-0.0025757574
215	0xbd3d607a	-0.046234585
216	0x3d1e8146	0.038697504
217	0x3cb32987	0.021870388
218	0xbdd2f592	-0.10300745
219	0x3eaa970d	0.33318368
220	0x3d5af1a2	0.053453095
221	0x3e1cee06	0.15325174
222	0x3d7e0bad	0.062022854
223	0xbc090598	-0.00836315
224	0xbd843847	-0.064560466
225	0xbd172889	-0.03690389
226	0x3c962b9f	0.018331347
227	0x3bab404f	0.005226172
228	0x3e40aeb4	0.18816644
229	0x3e55eed6	0.2089189
230	0xbca95520	-0.020670474
231	0x3d25a733	0.040442657
232	0xbe4d0e7e	-0.2002506
233	0x3de6043c	0.112312764
234	0x3c7f5af8	0.0155856535
235	0x3e11d5f3	0.14241771
236	0xbdb37703	-0.08762934
237	0xbdb8e1eb	-0.090274654
238	0x3e190c1a	0.14946023
239	0xbe24c392	-0.16090229
240	0xbe45f804	-0.19332892
241	0x3c69ed57	0.014277778
242	0xbe7095e4	-0.23494679
243	0x3e567d5c	0.20946258
244	0xbe203420	-0.15644884
245	0x3e436a27	0.19083463
246	0xbe07fc84	-0.13279921
247	0x3e0cf640	0.13765812
248	0xbe4e0f74	-0.20123082
249	0x3da21c3f	0.07915544
250	0xbd3b39ef	-0.045709547
251	0x3e805612	0.25065666
252	0x3e7e285c	0.24820083
253	0xbce35f86	-0.02775551
254	0x3d85e554	0.065378815
255	0xbe0e536e	-0.13899013

lstm.bias_ih_l1 f4 [256]
0	0x3e15b1d1	0.14618613
1	0x3d81764b	0.06321391
2	0xbd0696fa	-0.032858826
3	0xbe41df2a	-0.18932787
4	0xbdf37211	-0.11886991
5	0xbd1b943a	-0.037983157
6	0xbd2adfc9	-0.041717324
7	0xbd71e884	-0.059059635
8	0x3d0de918	0.034646124
9	0xbe07d3ce	-0.13264391
10	0xbda62f93	-0.08114543
11	0xbcd68ec2	-0.02619112
12	0xbce95d2c	-0.02848681
13	0x3c05327f	0.008129715
14	0xbdf6efa1	-0.12057424
15	0xbd92795e	-0.07152055
16	0xbe0d7c82	-0.13817027
17	0xbd4a4a3e	-0.04938721
18	0x3d4e64d4	0.050389126
19	0xbe4f4053	-0.20239381
20	0xbd3a260c	-0.04544644
21	0x3c90527f	0.017617462
22	0x3d8ca036	0.06866495
23	0xbe1d963d	-0.15389343
24	0xbd58d30c	-0.052935645
25	0xbd590ed8	-0.05299267
26	0xbded39aa	-0.11583264
27	0x3d830eb3	0.06399288
28	0xbd2163fb	-0.03940199
29	0xbe1b08b1	-0.15140034
30	0xbdcfd577	-0.10148137
31	0xbd9bbb6a	-0.07604106
32	0x3d562daa	0.052289642
33	0xbe264130	-0.16235805
34	0xbdd310e2	-0.103059545
35	0xbbe5d4d0	-0.0070138946
36	0xbda7b73f	-0.08189248
37	0xbe24b201	-0.16083528
38	0x3d17a64e	0.037023835
39	0x3d3a9a6c	0.045557424
40	0x3e50a560	0.20375586
41	0xbd9b279e	-0.07575916
42	0x3a2e890e	0.0006657996
43	0xbdd0625c	-0.101750106
44	0xbe0464be	-0.12929055
45	0xbce8ac4c	-0.02840247
46	0x3d044227	0.03228965
47	0xbb80af02	-0.0039271126
48	0xbdfe8a3f	-0.12428712
49	0xbcf73e42	-0.030181054
50	0xbd896afe	-0.0670986
51	0xbcce7b17	-0.025205178
52	0xbdd46e19	-0.10372562
53	0x3db2e3fe	0.08734892
54	0xbbff17bf	-0.007784813
55	0xbc67e728	-0.014154233
56	0xbe22a069	-0.15881504
57	0xbd0dd6d4	-0.034628704
58	0xbdb5e860	-0.08882213
59	0x3dea5d8e	0.114436254
60	0xbe13ce19	-0.14434089
61	0x3c785812	0.015157716
62	0xbd8bfd15	-0.06835381
63	0x3bf61976	0.0075103594
64	0x3c8138b6	0.015774112
65	0x3d5ecba4	0.054393426
66	0x3da4079a	0.080092624
67	0x3e2d6a58	0.16935098
68	0xbdc4c64b	-0.09608134
69	0xbdb52382	-0.08844663
70	0xbda1448d	-0.07874403
71	0x3d04d7a8	0.03243223
72	0xbd0f46bb	-0.034979563
73	0xbd090d48	-0.03345993
74	0xbe0f7dc1	-0.14012815
75	0xbe078811	-0.13235499
76	0x3cce5977	0.025189145
77	0xbdcd6cfa	-0.10030551
78	0xbe286ff2	-0.16448954
79	0xbe2d0c70	-0.16899276
80	0xbc00cc52	-0.007861214
81	0x3e143ef1	0.14477135
82	0x3d2b4496	0.041813456
83	0x3d4e16b1	0.05031461
84	0x3d8b2448	0.067940295
85	0x3c68fbb9	0.014220172
86	0xbc9b9cf0	-0.018995732
87	0xbde7e03e	-0.11322068
88	0xbba72d27	-0.005101818
89	0x3d556087	0.05209401
90	0xbcc4dd52	-0.024031315
91	0x3e03ec01	0.12882997
92	0xbe132532	-0.14369658
93	0x3d8810f4	0.066438586
94	0xbe378d1e	-0.17924926
95	0x3dde7b6e	0.10863386
96	0xbca13eb1	-0.019683214
97	0xbd5289aa	-0.051400818
98	0x3dd90e02	0.10598375
99	0xbd5a3819	-0.053276155
100	0x3da6f03c	0.0815129
101	0xbc873388	-0.016504064
102	0xbcb1f308	-0.021722332
103	0x3e0da321	0.1383176
104	0x3d8f1dfe	0.069881424
105	0xbd45ec5d	-0.048321117
106	0xbdbe6320	-0.0929625
107	0x3e3dbe7b	0.18529694
108	0x3d795866	0.06087532
109	0xbe0e03b1	-0.13868596
110	0x3cfeb7ce	0.031093504
111	0xbdd83409	-0.105568
112	0x3cced3c2	0.025247458
113	0x3bc2d27d	0.0059455023
114	0xbce9b430	-0.028528303
115	0xbe10ac42	-0.14128211
116	0x3dc032f9	0.09384722
117	0x3d81f696	0.06345861
118	0xbc462daf	-0.012095853
119	0xbd02363f	-0.031790014
120	0xbde36ce6	-0.11104755
121	0x3db91b65	0.09038428
122	0xbd8190f9	-0.063264795
123	0x3dcf98b8	0.10136551
124	0xbc910544	-0.017702706
125	0x3dc9e894	0.09858814
126	0xbd85156f	-0.06498229
127	0xbe1c6495	-0.15272744
128	0xbe25a498	-0.16176069
129	0xbd8ccf7f	-0.06875514
130	0x3bdec6d5	0.006798605
131	0xbd7f5b7a	-0.0623431
132	0x3d7b3075	0.06132551
133	0x3b93f494	0.00451524
134	0xbda7a90b	-0.08186539
135	0xbcdb4290	-0.026765138
136	0xbdf2c0df	-0.118531935
137	0xbd4da7ec	-0.05020897
138	0x3cd1e3b2	0.025621269
139	0xbd84d5d1	-0.06486095
140	0x3dc4eb9e	0.09615253
141	0xbe0501b1	-0.12988926
142	0x3d39391e	0.045220487
143	0x3d1c4356	0.038150154
144	0xbdd81a0c	-0.10551843
145	0x39efd06a	0.00045740913
146	0x3d70d59e	0.05879747
147	0x3d85362c	0.06504473
148	0x3daa5abd	0.08318088
149	0xbdad10c8	-0.084504664
150	0x3cb06f79	0.02153753
151	0xbdc1b8ad	-0.09459052
152	0x3d50e37e	0.050998203
153	0x3de89f32	0.11358489
154	0xbde80a25	-0.1133006
155	0xbdb1b041	-0.08676196
156	0x3da20dfe	0.07912825
157	0xbc9bf6cf	-0.019038586
158	0x3d0275c2	0.031850584
159	0xbe0aeae1	-0.13566162
160	0x3dd18bb6	0.10231726
161	0x3d823270	0.063572764
162	0xbda9b345	-0.08286146
163	0xbd5418a4	-0.05178131
164	0x3d03a291	0.032137457
165	0x3dae3ee2	0.08508088
166	0x3decfe2e	0.115719184
167	0xbba33bc3	-0.0049814894
168	0xbbf7a5a7	-0.007557589
169	0x3c8d70bb	0.017265668
170	0xbd61f30a	-0.05516342
171	0x3c91d1a9	0.017800169
172	0xbdea43ac	-0.11438689
173	0x3d82435a	0.063605025
174	0x3d07771f	0.033072587
175	0xbdce898e	-0.1008483
176	0x3da7fa6d	0.08202062
177	0xbd21efae	-0.039535217
178	0x3d2a48c8	0.041573316
179	0xbacc338a	-0.0015579325
180	0xbd92fc80	-0.07177067
181	0x3c86a7ac	0.016437374
182	0xbd2c28cd	-0.0420311
183	0xbd0948c8	-0.033516675
184	0x37886a60	1.6261998e-05
185	0x3dabe6d0	0.08393633
186	0xbd2fd325	-0.042925972
187	0xbe0fe0bb	-0.14050572
188	0xbbeeebc4	-0.007291289
189	0xbdd13680	-0.10215473
190	0x3dd18195	0.10229794
191	0x3decc198	0.115603626
192	0x3e12d417	0.14338718
193	0x3db869d1	0.09004558
194	0x3b1ef550	0.0024255104
195	0xbe116b65	-0.14201124
196	0x3cdc5714	0.02689699
197	0xbe2e9b37	-0.17051397
198	0x3d90c07b	0.07067963
199	0xbdae5fe2	-0.08514382
200	0xbd28cbf8	-0.041210145
201	0xbdd4f382	-0.10398008
202	0xbe54a394	-0.20765525
203	0x3c5295a2	0.012853058
204	0x3d3a7d5e	0.045529716
205	0xbc96b4da	-0.018396784
206	0xbe27617a	-0.16345778
207	0xbb45b406	-0.0030167117
208	0xbd79c9f0	-0.0609836
209	0xbdb72942	-0.08943416
210	0x3c9a1cfa	0.018812645
211	0xbe0f728a	-0.14008537
212	0xbd2aebae	-0.041728668
213	0xbdb512d0	-0.08841479
214	0xbe53c731	-0.20681454
215	0xbcdaca74	-0.026707865
216	0xbe00cd78	-0.1257838
217	0xbddfec52	-0.109337464
218	0x3d7cc781	0.0617137
219	0xbd3823d3	-0.04495604
220	0x3cf37398	0.029718205
221	0xbe4cf5aa	-0.20015588
222	0xbe53c420	-0.20680285
223	0x3c7ff22d	0.015621704
224	0xbdb0355f	-0.0860393
225	0x3d093889	0.03350118
226	0x3d7d59cf	0.061853226
227	0xbd6ae6a4	-0.057348862
228	0x3d90fa59	0.07079
229	0xbd7490b5	-0.059708316
230	0xbd9acee4	-0.075589925
231	0xbe0ce447	-0.13758956
232	0x3c1b2bec	0.009470921
233	0xbdc28b66	-0.094992444
234	0xbda51d21	-0.080621965
235	0xbd8b5b33	-0.06804504
236	0xbc4d1181	-0.01251638
237	0xbe2cf4f6	-0.1689032
238	0xbe291326	-0.16511211
239	0xbe116c02	-0.14201358
240	0xbd116d30	-0.03550452
241	0xbd2699b4	-0.040673926
242	0xbd925f77	-0.07147115
243	0xbe2ef4b4	-0.17085534
244	0xbce51d68	-0.027968124
245	0xbdfd2ea4	-0.123624116
246	0xbd7acae7	-0.06122866
247	0xbcb49cce	-0.022047427
248	0xbdbbb4a4	-0.09165314
249	0xbdfa5f77	-0.1222524
250	0xbe40972b	-0.18807666
251	0xbd67cfa3	-0.056594502
252	0x3d3b7fa8	0.04577604
253	0xbd3608b2	-0.044441886
254	0x3c31cee6	0.010852551
255	0x3d4a3eef	0.049376424
