model/final_model_2_param_avg.pt (torch, 219719 bytes, 9 tensors)

lstm.weight_ih_l0 f4 [256, 15]
0	0x3dde0629	0.10841019
1	0xbcd3a808	-0.02583696
2	0xbd5bbda2	-0.053647645
3	0xbde0f430	-0.10984075
4	0xbe3986c8	-0.18117821
5	0x3db92bb6	0.0904154
6	0x3d663e1a	0.05621157
7	0xbcfa6c4e	-0.030569222
8	0xbe462f7b	-0.1935405
9	0x3dc9569a	0.09830971
10	0x3ebf8958	0.37409472
11	0x3f177654	0.5916493
12	0x3f30ebee	0.6911
13	0x3ea769ef	0.32698008
14	0x3daae7db	0.08345004
15	0xbd71d41e	-0.05904018
16	0xbe7b098b	-0.24515359
17	0xbe3f0fa8	-0.18658316
18	0xbe80d1fc	-0.25160205
19	0xbe9e66da	-0.30937845
20	0x3d3d19e8	0.046167284
21	0xbd97b25a	-0.07407065
22	0x3e354b99	0.1770462
23	0x3d95af38	0.07308811
24	0xbd984313	-0.074346684
25	0x3e2744c6	0.16334829
26	0x3d36ed78	0.04466006
27	0xbd8e1fb6	-0.06939642
28	0xbe7a4c4b	-0.24443166
29	0xbeb2d756	-0.34929913
30	0xbe2ce524	-0.16884285
31	0x3dc60c69	0.09670336
32	0x3ca37498	0.019953057
33	0x3e2c2cb6	0.16813931
34	0xbd97147d	-0.07376955
35	0xbe880548	-0.2656653
36	0xba41d885	-0.00073946296
37	0xbe2a3f13	-0.16625623
38	0x3df12dd6	0.11776321
39	0xbc90cfa3	-0.017677134
40	0x3e3bcea4	0.18340546
41	0xbd851832	-0.064987555
42	0xbd8e7fcb	-0.06957968
43	0xbe07322a	-0.1320273
44	0xbe0bf9da	-0.1366953
45	0x3e15b9ec	0.14621705
46	0xbda4f5aa	-0.08054669
47	0x3dde476d	0.10853467
48	0x3dcfd139	0.10147328
49	0xbe0b38e8	-0.13595927
50	0x3db25247	0.087070994
51	0xbe3e6e41	-0.18596746
52	0x3ddd5f96	0.10809247
53	0xbe34f240	-0.17670536
54	0xbe165fa0	-0.14684916
55	0x3ccb5fc0	0.02482593
56	0x3e87502f	0.26428363
57	0xbd245f04	-0.040129676
58	0xbdbae389	-0.0912543
59	0xbec29c78	-0.3801
60	0x3e4c4b91	0.19950701
61	0xbdc6b2dd	-0.09702084
62	0x3da0ed61	0.078577764
63	0x3ccd6a98	0.025075242
64	0xbaeecca8	-0.0018218951
65	0xbd766a81	-0.060160164
66	0x3df3018f	0.11865532
67	0xbe32c90b	-0.17459504
68	0x3e6b19be	0.22959039
69	0x3d78f1b2	0.060777374
70	0x3d3fe27a	0.046846844
71	0xbebb044b	-0.36526713
72	0x3c8bfbd8	0.017087862
73	0xbdd17c24	-0.10228756
74	0xbe0df45a	-0.13862744
75	0xbd452946	-0.048135065
76	0x3d5cabb4	0.053874686
77	0x3d0a520c	0.033769652
78	0x3dfa8a73	0.12233438
79	0x3c1a4d6b	0.009417872
80	0xbd80ed4c	-0.06295261
81	0xbc4c3418	-0.012463592
82	0x3d88c0b0	0.06677377
83	0xbe148d66	-0.14507064
84	0x3dfa7d8b	0.12230977
85	0x3dd00592	0.101573125
86	0x3d7a67e4	0.061134234
87	0x3cadc095	0.021209994
88	0xbcfdd4cb	-0.030985257
89	0xbdbece44	-0.09316686
90	0x3e8570e1	0.26062682
91	0x3db5f5e9	0.08884794
92	0x3e281b7c	0.16416734
93	0x3de876b6	0.11350767
94	0xbd5751a3	-0.05256809
95	0xbd9525f5	-0.0728263
96	0xbe332576	-0.17494759
97	0xbe2a3442	-0.16621497
98	0x3e3e19de	0.18564555
99	0xbc284eed	-0.010272724
100	0xbe3c9788	-0.1841718
101	0xbeb2d448	-0.34927583
102	0xbea265dc	-0.31718338
103	0xbe9761cc	-0.295668
104	0xbec901f4	-0.39259303
105	0xbd4109cd	-0.047128487
106	0x3e9c449e	0.305211
107	0x3ea694c4	0.32535374
108	0x3e8cb89f	0.27484605
109	0xbe2e9513	-0.17049055
110	0xbda634fc	-0.08115575
111	0x3db9ab9e	0.090659365
112	0x3dd0b7f7	0.101913385
113	0x3e5cbd40	0.21556568
114	0xbded911c	-0.11599943
115	0xbe824b88	-0.2544825
116	0x3da76fc0	0.081756115
117	0xbded0348	-0.115728915
118	0xba344ed7	-0.0006878203
119	0xbdaa10ef	-0.08304011
120	0xbe1c4bac	-0.15263242
121	0x3e5d50fa	0.21612921
122	0x3df5a040	0.11993456
123	0x3e79d215	0.24396546
124	0x3d65fd1e	0.056149594
125	0x3db2e8b4	0.08735791
126	0x3e4982b1	0.19678761
127	0xbdf999aa	-0.12187512
128	0x3e80a43f	0.2512531
129	0x3e63cb1e	0.22245452
130	0x3e072e34	0.13201219
131	0x3ec59a3c	0.38594234
132	0x3e808068	0.25097966
133	0x3e459736	0.19295964
134	0x3d9b039a	0.07569046
135	0x3bc3f9c8	0.005980704
136	0xbdedcd0a	-0.11611374
137	0xbd467e48	-0.048460275
138	0x3cc03f93	0.023467815
139	0x3df90dd6	0.12160842
140	0x3d3ceb81	0.04612303
141	0xbda802df	-0.082036726
142	0xbd35365c	-0.044241294
143	0xbe5714d7	-0.21004044
144	0xbd78666e	-0.06064456
145	0xbe9a95e8	-0.30192494
146	0xbe7eae82	-0.24871257
147	0xbe1be38b	-0.1522352
148	0xbe8a1244	-0.2696706
149	0xbd91f424	-0.07126644
150	0x3e44b53e	0.19209763
151	0xbe715f89	-0.235716
152	0x3c97b051	0.018516691
153	0xbe668a0e	-0.22513601
154	0xbe49e2ab	-0.19715373
155	0xbdada5fe	-0.08478926
156	0xbe5d7cb2	-0.21629599
157	0x3e49846a	0.19679418
158	0xbe01c468	-0.1267258
159	0xbe7922dc	-0.24329704
160	0x3df7ff58	0.1210925
161	0x3d0a1466	0.03371086
162	0xbcd30747	-0.025760306
163	0x3e241458	0.16023386
164	0x3d0ff4db	0.03514562
165	0x3e803b84	0.25045407
166	0x3c856eb4	0.016288139
167	0xbd49853c	-0.049199328
168	0x3dcb880f	0.099380605
169	0xbe475886	-0.19467363
170	0xbe085a76	-0.13315758
171	0xbd3c3b18	-0.045954794
172	0xbdbbd5d0	-0.09171641
173	0x3c4a880b	0.012361537
174	0xbd9ae51d	-0.07563231
175	0x3e936fbc	0.28796184
176	0x3ec27a92	0.3798414
177	0x3d301da0	0.042997003
178	0xbd258eec	-0.040419504
179	0xbe2e9146	-0.17047605
180	0x3e06aadd	0.13151117
181	0x3ba0bf53	0.00490562
182	0xbd154520	-0.036442876
183	0x3d38fa4e	0.045160584
184	0x3e29c0e2	0.16577485
185	0x3e0ce4ca	0.13759151
186	0x3e26c499	0.16285934
187	0xbdccca1e	-0.09999488
188	0xbd49c5bf	-0.04926085
189	0xbd4675fd	-0.048452366
190	0x3eac69d3	0.33674487
191	0x3e7a1eec	0.24425858
192	0x3da3df77	0.08001607
193	0x3eace990	0.33771944
194	0x3d87bd48	0.066278994
195	0xbeca2c29	-0.39486817
196	0x3dfa8af8	0.122335374
197	0xbd4d98ab	-0.050194424
198	0x3d412287	0.04715207
199	0x3e6b804e	0.22998163
200	0x3e33779d	0.17526098
201	0x3ef6a63d	0.48173705
202	0x3dd1a9ee	0.1023749
203	0xbd70f332	-0.05882568
204	0x3e1b2310	0.15150094
205	0x3d6c9a44	0.057764307
206	0x3e32d896	0.17465433
207	0xbe75df5e	-0.24010989
208	0xbe844bf9	-0.25839213
209	0xbc872022	-0.016494814
210	0x3da45fda	0.08026095
211	0x3ca22527	0.019793106
212	0x3c11825b	0.008881177
213	0xbdeaef8c	-0.11471471
214	0xbe25463b	-0.16140072
215	0x3e1245a4	0.14284378
216	0xbd015ab8	-0.031580657
217	0xbd074f5a	-0.03303466
218	0xbd13fa0a	-0.036127128
219	0xbe25d0d8	-0.16192949
220	0x3e2db24c	0.16962546
221	0x3e4ce871	0.20010544
222	0x3db8028e	0.08984862
223	0x3d5ff63f	0.054678198
224	0x3b28b06e	0.0025739926
225	0xbe4e1943	-0.20126824
226	0x3e8ef5ee	0.27922004
227	0x3e89c0b0	0.2690482
228	0x3e14ba15	0.1452411
229	0x3e6b6ca2	0.22990659
230	0x3e82e4fa	0.2556532
231	0x3e3f33c7	0.18672095
232	0xbba65554	-0.00507609
233	0xbbf9ad48	-0.0076195337
234	0xbe2a295e	-0.16617343
235	0xbe27e870	-0.16397262
236	0xbb529379	-0.0032131358
237	0xbdc4bdf3	-0.096065424
238	0xbe695f2b	-0.2279021
239	0xbe44c512	-0.19215801
240	0x3da2528c	0.07925901
241	0x3e1723cc	0.14759749
242	0x3d92d254	0.07169023
243	0x3e6e2f1c	0.23260158
244	0x3d9de314	0.07709327
245	0x3e7ef056	0.24896368
246	0x3d81abb2	0.063315764
247	0x3d6dd079	0.058060143
248	0x3ec30a18	0.38093638
249	0x3e1132c2	0.14179519
250	0x3d2624d1	0.040562455
251	0x3e056299	0.13025893
252	0x3df8de65	0.121517934
253	0xbe15ed68	-0.14641345
254	0xbeab48fa	-0.33454114
255	0x3ec52fa5	0.38512912

lstm.weight_hh_l0 f4 [256, 64]
0	0xbd1ba69b	-0.038000684
1	0xbe8a2fad	-0.269895
2	0x3e99d32b	0.3004392
3	0xbdeb7981	-0.114977844
4	0x3e7a5770	0.24447417
5	0x3df7979e	0.120894656
6	0xbb9840bc	-0.004646389
7	0x3e6a4720	0.22878695
8	0x3e581558	0.21101892
9	0x3d4e4ec9	0.050368104
10	0xbe4305e7	-0.1904522
11	0xbe98be25	-0.2983257
12	0x3d43c359	0.04779372
13	0x3e5c9986	0.2154294
14	0xbe28a33b	-0.16468517
15	0xbe0f5122	-0.13995793
16	0x3c84111e	0.016121443
17	0x3d576343	0.052584898
18	0x3e24a829	0.16079773
19	0xbf0dabfb	-0.55340546
20	0xbedc2ceb	-0.4300302
21	0xbe708254	-0.23487216
22	0x3e94942c	0.29019296
23	0x3ea2c84a	0.31793433
24	0x3e11fe2f	0.1425712
25	0x3e2b15e9	0.16707577
26	0xbe987604	-0.2977754
27	0xbe67611e	-0.22595641
28	0x3e5564d6	0.20839247
29	0xbdf2da10	-0.11857998
30	0xbd951193	-0.07278743
31	0x3d9e9cbc	0.077447385
32	0x3dd49db8	0.10381645
33	0xbd09f27d	-0.03367852
34	0x3e381425	0.17976435
35	0xbe5999a1	-0.21250011
36	0x3dae24c9	0.0850311
37	0x3e3852e8	0.18000376
38	0xbe19c399	-0.15016021
39	0xbed56e89	-0.41685894
40	0x3e82a6e0	0.2551794
41	0x3e21c507	0.15797816
42	0xbea90a15	-0.33015504
43	0x3e82809c	0.25488746
44	0xbe02e365	-0.12782057
45	0xbe65c0e9	-0.2243687
46	0x3bf6df5d	0.007533951
47	0x3eb14f14	0.34630644
48	0x3e72e672	0.2372072
49	0x3e803ffe	0.25048822
50	0x3e6f017d	0.23340411
51	0x3e2bd2ce	0.16779634
52	0x3e77f6bf	0.2421522
53	0xbd8b7d20	-0.06810975
54	0xbe2c3008	-0.16815197
55	0x3ec0adca	0.3763259
56	0x3e892ce2	0.26792055
57	0x3e1dd844	0.1541453
58	0xbe23162e	-0.1592643
59	0xbeb97428	-0.36221433
60	0x3d959bf2	0.07305135
61	0x3d0e2101	0.034699444
62	0x3e9eb01b	0.30993733
63	0x3d2874ed	0.041127134
64	0xbe437f71	-0.19091584
65	0xbcfb1607	-0.030650152
66	0xbd50841b	-0.050907236
67	0x3cd6a652	0.026202355
68	0xbda1a6ec	-0.07893166
69	0xbdb08352	-0.08618797
70	0x3da111bd	0.078647114
71	0x3d91cfc5	0.07119707
72	0xbe325a0d	-0.17417164
73	0x3ccb29b4	0.024800159
74	0x3d81fe77	0.063473634
75	0xbe2750e6	-0.16339454
76	0xbe0c69d4	-0.13712245
77	0x3e08cd20	0.13359499
78	0xbe0dae6c	-0.13836068
79	0x3d4a1833	0.049339484
80	0xbe20b93c	-0.15695661
81	0x3e1b2991	0.15152575
82	0xbd03bd58	-0.032162994
83	0x3e7d65e6	0.24745902
84	0xbaadc7aa	-0.0013258357
85	0x3d151695	0.03639849
86	0x3d0fe8b4	0.035134032
87	0xbe09fd8a	-0.13475624
88	0x3e72c386	0.23707399
89	0xbd9c7b3f	-0.07640695
90	0xbd829a87	-0.0637713
91	0xbe6ddc9f	-0.23228692
92	0x3c6eb834	0.014570285
93	0xbddcc2f5	-0.107793726
94	0xbca6bde8	-0.020354226
95	0x3d6f1faa	0.058379807
96	0x3e6240b4	0.22094995
97	0xbdc4f99e	-0.09617923
98	0x3e677420	0.22602892
99	0xbe328527	-0.17433606
100	0x3c0783d2	0.0082711745
101	0x3d27fb09	0.04101089
102	0x3cb8ef87	0.022575153
103	0x3ce2aa0b	0.027668973
104	0x3dfb5ae8	0.12273198
105	0x3dc76a60	0.09737086
106	0xbd09f6ab	-0.033682507
107	0xbe091dc5	-0.13390262
108	0x3db4835a	0.08814116
109	0xbe01d5f6	-0.12679276
110	0xbccc6e73	-0.02495501
111	0x3dd6f209	0.10495383
112	0x3d4378c8	0.047722608
113	0xbc8a0dda	-0.016852308
114	0xbd804184	-0.06262496
115	0x3df4f245	0.11960272
116	0x3c8e4bce	0.01737013
117	0xbd8dcb5f	-0.069235556
118	0x3e15e825	0.14639337
119	0x3ce42747	0.02785076
120	0xbd3ad299	-0.045610998
121	0x39c66dce	0.00037847314
122	0x3df33f01	0.118772514
123	0x3ec77567	0.38956758
124	0x3e2bcc52	0.16777161
125	0x3e05b0dc	0.13055748
126	0x3d471c9f	0.04861128
127	0xbd6d301c	-0.05790721
128	0xbb43ca71	-0.0029875303
129	0xbdc52842	-0.09626819
130	0xbc4e87d4	-0.012605626
131	0xbd346b08	-0.044047385
132	0x3e14e1c3	0.14539246
133	0xbc69b376	-0.014263978
134	0x3d848338	0.064703405
135	0x3a8bdc8b	0.0010670585
136	0x3d9e9eb5	0.07745115
137	0x3e05bda8	0.1306063
138	0xbe414c6c	-0.18876809
139	0x3dc9b3b2	0.09848727
140	0x3d639087	0.055557754
141	0xbdf12ff5	-0.11776725
142	0x3d78b3d2	0.060718365
143	0xbb1ff925	-0.0024409976
144	0xba2cc528	-0.0006590658
145	0x3dc333a1	0.09531332
146	0xbd227deb	-0.039670866
147	0x3e4d1413	0.20027189
148	0x3e783a5b	0.24241011
149	0x3e0a88ac	0.13528699
150	0xbd86535b	-0.065588675
151	0x3e25ac5c	0.16179031
152	0x3d947046	0.07247977
153	0xbd603ca0	-0.054745317
154	0x3d9888ba	0.074479535
155	0xbe148f9f	-0.14507912
156	0xbd88825b	-0.06665488
157	0xbd8788f6	-0.0661792
158	0xbcb984b6	-0.02264629
159	0xbe021e2b	-0.1270682
160	0x3cc8f5aa	0.024531204
161	0x3d4a51f2	0.049394555
162	0xbe1fd3db	-0.1560816
163	0x3bbf2ad6	0.005833964
164	0x3e0b28ae	0.13589737
165	0xbcad8e4c	-0.021186016
166	0x3da1cda5	0.07900552
167	0x3d90f069	0.070771046
168	0x3db2b419	0.08725757
169	0x3dd462d2	0.10370411
170	0x3da2a13b	0.079409085
171	0x3e2449bc	0.16043752
172	0xbe4f89aa	-0.20267358
173	0x3dd19f77	0.10235494
174	0x3e088b64	0.13334423
175	0xbd74a022	-0.059723027
176	0xbd0afe6e	-0.03393405
177	0x3d8b9e0c	0.068172544
178	0xbd298589	-0.041387115
179	0xbbd9f89b	-0.0066519505
180	0x3dacd476	0.08438961
181	0xbd69113b	-0.056901198
182	0x3df77858	0.120835006
183	0x3cce8311	0.025208982
184	0xbd09fd5f	-0.0336889
185	0x3cfdb61c	0.030970626
186	0xbdc5df67	-0.09661751
187	0xbe3ad481	-0.18245126
188	0x3d8156e6	0.06315403
189	0xbdbd0503	-0.092294715
190	0xbdfb6c81	-0.12276555
191	0x3d177dae	0.036985092
192	0xbe3ea5d7	-0.1861795
193	0xbdff0b62	-0.12453343
194	0xbdbf5060	-0.09341502
195	0xbda787c9	-0.08180196
196	0x3d8e6917	0.06953638
197	0xbd96a4d5	-0.07355658
198	0xbdab7b0e	-0.0837308
199	0xbd28b6fd	-0.041190136
200	0x3dd191b1	0.102328666
201	0xbb97354f	-0.004614509
202	0xbd189a27	-0.037256386
203	0xbe2cd07b	-0.16876404
204	0xbe278044	-0.16357523
205	0xbdf8ebb8	-0.12154335
206	0xbe4f0947	-0.20218383
207	0x3df07e38	0.11742824
208	0x3ded2316	0.11578958
209	0x3ddeecc3	0.108850025
210	0x3d6c48f6	0.05768677
211	0xbdd970bb	-0.10617205
212	0xbc1da9b2	-0.009622978
213	0xbddd3dda	-0.10802813
214	0xbd353740	-0.044242144
215	0xbe58c06e	-0.21167156
216	0x3e109265	0.14118345
217	0xbd95aa96	-0.07307927
218	0x3d97ee4c	0.074184984
219	0xbd7fa1cd	-0.062410165
220	0xbd9aa418	-0.0755083
221	0x3d134d4d	0.03596239
222	0xbe2dc07a	-0.16967955
223	0xbce88e49	-0.02838816
224	0xbd6fcbbd	-0.05854391
225	0x3d9f3547	0.07773834
226	0x3e3e4214	0.18579894
227	0xbb738c93	-0.0037162646
228	0xbc4a9488	-0.012364514
229	0x3cc6c79e	0.024265107
230	0xbcc188f0	-0.023624867
231	0xbe059e41	-0.1304865
232	0xbc7103fc	-0.014710423
233	0x3bf8981f	0.0075864936
234	0x3e790114	0.24316818
235	0xbe3b9aa6	-0.18320712
236	0xbe655a6f	-0.22397779
237	0xbe08b4e5	-0.13350256
238	0x3e17efdc	0.14837593
239	0xbbcf3817	-0.006323825
240	0x3d20d772	0.039267965
241	0xbcb75413	-0.022378957
242	0xbe8d223f	-0.2756519
243	0x3bf003a8	0.0073246546
244	0xbdde9001	-0.1086731
245	0xbe511bfe	-0.20420834
246	0x3e04348b	0.12910669
247	0xbe0a4829	-0.1350409
248	0x3c0dd3c9	0.008656451
249	0x3e4f8476	0.20265374
250	0x3e890bc8	0.267668
251	0x3ead3ecb	0.3383697
252	0x3d4c2c50	0.049846947
253	0x3e558149	0.208501
254	0xbdad98d2	-0.08476414
255	0xbbd75e80	-0.0065725446

lstm.bias_ih_l0 f4 [256]
0	0xbd2b30a8	-0.04179445
1	0xbd74422a	-0.05963341
2	0x3d0c608b	0.034271758
3	0xbdc66548	-0.096872866
4	0xbcdd7335	-0.027032474
5	0xbde2374b	-0.110457025
6	0xbdcfd26c	-0.10147557
7	0x3ccb0223	0.024781292
8	0xbac86609	-0.0015289198
9	0x3d2aa137	0.041657653
10	0xbdcf3a5d	-0.10118554
11	0x3d8d0a5b	0.06886741
12	0xbd99ebe7	-0.07515698
13	0x3c94456e	0.018099513
14	0xbd984d68	-0.07436639
15	0x3ea461af	0.32105777
16	0x3e5f66b4	0.21816522
17	0xbc430d59	-0.011905038
18	0x3dda1410	0.10648358
19	0xbbfebde6	-0.0077741025
20	0x3dca3dc8	0.09875065
21	0xbe10354d	-0.14082833
22	0xbe02f520	-0.1278882
23	0x386dbd50	5.6681514e-05
24	0xbbb08cb4	-0.005387867
25	0xbc14ecc8	-0.009089656
26	0xbda97a5e	-0.08275293
27	0x3dad09e8	0.08449155
28	0x3dcc389b	0.09971734
29	0xbd29bdc4	-0.04144074
30	0x3dc58ce9	0.09646017
31	0x3cb00571	0.02148697
32	0xbd7002a2	-0.05859626
33	0x3c0ea43a	0.008706147
34	0xbc6ff855	-0.014646609
35	0x3db0906c	0.08621296
36	0x3df589b0	0.119891524
37	0xbc055a63	-0.008139226
38	0xbcffe226	-0.031235766
39	0x3dcbe0de	0.099549994
40	0xbc806d6c	-0.015677176
41	0x3d70a406	0.058750175
42	0x3e8e0724	0.27739823
43	0x3d1c0212	0.038087912
44	0x3db3296e	0.087481365
45	0xbdca5076	-0.09878628
46	0xbdef7712	-0.11692633
47	0x3db422da	0.0879571
48	0x3cf04cf2	0.029333565
49	0x3c980f16	0.018561881
50	0x3dc514c9	0.09623105
51	0xbdc867f3	-0.09785452
52	0x3db5efdd	0.08883641
53	0xbd9a4e5f	-0.07534479
54	0x3e185b83	0.14878659
55	0x3c096873	0.008386719
56	0x3e19ad1b	0.15007441
57	0x3e38013c	0.17969221
58	0xbe0397b9	-0.12850846
59	0x3df203a3	0.118171
60	0xbdcd373a	-0.10020299
61	0xbd586277	-0.05282828
62	0xbc17bbf2	-0.009261118
63	0x3d306bb9	0.043071482
64	0x3dfb0f13	0.122587346
65	0x3d951448	0.07279259
66	0xbd99884c	-0.074967
67	0x3da72829	0.08161957
68	0x3cf21e6e	0.029555526
69	0x3ce873b6	0.028375488
70	0x3d9bbc9c	0.07604334
71	0xbddde0f0	-0.10833919
72	0xbe18881d	-0.14895673
73	0x3d440985	0.04786064
74	0x3e0ac5c8	0.1355201
75	0xbdb5ef6e	-0.08883558
76	0xbd371628	-0.044698864
77	0x3d02598f	0.03182369
78	0x3dd5fbba	0.10448404
79	0xbc07b8bc	-0.00828379
80	0xbe187659	-0.14888896
81	0xbe033786	-0.1281415
82	0xbe3812ae	-0.17975876
83	0xbe98db37	-0.29854748
84	0xbdc83ada	-0.0977685
85	0xbe103a29	-0.14084686
86	0xbdc20f8a	-0.0947562
87	0xbd0324a6	-0.032017373
88	0xbd8b2424	-0.06794003
89	0x3a0a91c0	0.00052860007
90	0xbe22cdd7	-0.15898834
91	0x3d848267	0.06470185
92	0xbdb4e34c	-0.08832416
93	0xbd0dd835	-0.03463002
94	0xbd07c455	-0.03314622
95	0xbd842f14	-0.06454292
96	0xbdc57cb0	-0.09642923
97	0x3df6eae4	0.120565206
98	0xbe214075	-0.15747245
99	0x3d99741d	0.0749285
100	0xbae6d4c5	-0.0017611018
101	0xbd01d60a	-0.031698264
102	0xbd821f55	-0.06353632
103	0x3d38452a	0.044987835
104	0xbd1c2fd9	-0.03813157
105	0xbccde5aa	-0.025133926
106	0xbcfd6c03	-0.030935293
107	0xbb5cb9ff	-0.0033680198
108	0x3cd43ee2	0.025908891
109	0x3c4cb628	0.012494601
110	0xbdb2759c	-0.087138385
111	0x3d433c98	0.04766521
112	0x3a1d75e7	0.00060066435
113	0xbd517a67	-0.051142123
114	0xbe155fc9	-0.1458732
115	0xbd0c8a44	-0.034311548
116	0x3da9d24c	0.08292064
117	0xbc97ac5c	-0.018514805
118	0xbdcfa1fd	-0.10138319
119	0xbd814b44	-0.06313184
120	0xbe2bffa6	-0.16796741
121	0xbe032b8c	-0.1280958
122	0xbce90463	-0.028444475
123	0xbe250f32	-0.16119078
124	0x3e00a698	0.1256355
125	0x3dcc9c34	0.09990731
126	0xbcf87d2f	-0.03033313
127	0xbd90ba32	-0.07066764
128	0x3de6f16b	0.112765156
129	0x3d74f453	0.05980332
130	0xbc83c4dc	-0.01608508
131	0x3d933525	0.07187871
132	0xbd53baba	-0.05169175
133	0xbca6d708	-0.020366207
134	0x3ca6acd5	0.020346085
135	0xbda6e002	-0.08148195
136	0xbd19a8ac	-0.037514374
137	0xbdbbbde7	-0.091670804
138	0xbcfdd73c	-0.03098642
139	0xbd0eaf04	-0.034834877
140	0x3d3d9192	0.046281405
141	0x3ce63e77	0.028105957
142	0xbb5a0c9f	-0.0033271683
143	0xbb095867	-0.0020957233
144	0xbe07df67	-0.13268815
145	0xbdb95c6d	-0.09050832
146	0x3dd379a5	0.10325936
147	0x3df25dd8	0.118343055
148	0x3d47ec0c	0.048809096
149	0x3d517b92	0.051143236
150	0xbdbabc9e	-0.09118007
151	0xbdd80f6b	-0.10549816
152	0xbc5e241f	-0.013558417
153	0xbdc8dc0b	-0.09807595
154	0xbb8583e9	-0.004074563
155	0xbdd99b04	-0.1062527
156	0x3bc7fe64	0.006103324
157	0x3d130fcf	0.035903748
158	0x3c88156b	0.016611775
159	0xbddd744a	-0.10813196
160	0xbd4b3e84	-0.049620166
161	0x3d489bf0	0.04897684
162	0xbae9ed72	-0.0017847253
163	0x3dc67a95	0.096913494
164	0xbc898cfa	-0.016790856
165	0xbc6e66cc	-0.014550876
166	0x3ddf3b62	0.10899998
167	0xbc7319dc	-0.014837708
168	0x3dbd6ede	0.09249662
169	0xbd3a8f4c	-0.045546815
170	0x3d993a7b	0.074818574
171	0xbda9a6eb	-0.0828379
172	0x3b5dab47	0.0033824013
173	0x3ba8490a	0.00513566
174	0x3dbd5864	0.09245375
175	0xbcde09cb	-0.027104279
176	0x3d8a8fb8	0.067656934
177	0xbdcee073	-0.10101404
178	0x3de65594	0.112467915
179	0xbd9176f4	-0.07102767
180	0x3db18a42	0.08668949
181	0x3c1bca12	0.009508627
182	0x3db91b38	0.09038395
183	0xbde2b312	-0.11069311
184	0xbd7223e3	-0.059116255
185	0xbc7c9160	-0.0154155195
186	0x3d011f8e	0.031524234
187	0xbcfb33ec	-0.030664407
188	0x3dd5e810	0.10444653
189	0x3e00387e	0.1252155
190	0x3da24184	0.07922652
191	0x3d454127	0.048157837
192	0x3d8bfe5b	0.06835624
193	0xbe000b0a	-0.12504211
194	0x3d8e283c	0.06941268
195	0xbcc648a3	-0.024204558
196	0xbddfdd24	-0.10930851
197	0x3da2ccdf	0.07949232
198	0x3dc10bf4	0.09426108
199	0xbcf5b8ad	-0.029995287
200	0xbb55e7c8	-0.0032639373
201	0x3d9fd9c5	0.07805208
202	0x3d939eed	0.07208047
203	0x3dad9a56	0.08476703
204	0x3d8f6a66	0.07002716
205	0xbc1b3720	-0.009473592
206	0x3c9df72d	0.019282902
207	0x3e1947df	0.14968823
208	0x3e669d22	0.22520879
209	0xbda073f4	-0.07834616
210	0x3dc43140	0.09579706
211	0xbdd1801f	-0.10229515
212	0x3cbdf52d	0.023188198
213	0xbe1b5d15	-0.15172227
214	0x3ded8169	0.11596949
215	0xbcd09736	-0.025462728
216	0x3bbdc6d8	0.0057915263
217	0xbdb490e4	-0.08816698
218	0x3b866377	0.0041012126
219	0x3d2002e5	0.03906526
220	0x3de8bb4c	0.11363849
221	0xbd8df09a	-0.06930657
222	0xbda0f46e	-0.07859121
223	0x3e80d6f6	0.25164002
224	0x3dac9bc1	0.08428145
225	0xbdb0fd45	-0.08642057
226	0xbba7f9a4	-0.005126195
227	0x3da4dcd1	0.0804993
228	0x3df8d150	0.12149298
229	0xbdd98b75	-0.106223024
230	0xbd946858	-0.072464645
231	0x3c84ff02	0.016234878
232	0x3acf49b0	0.0015814807
233	0xbd95215f	-0.07281756
234	0x3e784300	0.24244308
235	0x3e4d8557	0.20070396
236	0x3dca0b62	0.09865452
237	0x3c664122	0.014053615
238	0xbd353442	-0.04423929
239	0x3d5c0d9a	0.05372391
240	0x3c4c26f2	0.012460457
241	0xbdc41d69	-0.09575922
242	0x3d7e56a0	0.06209433
243	0xbcc5dd46	-0.024153363
244	0x3cff15b4	0.031138279
245	0xbb7162e1	-0.0036832618
246	0x3cd44c72	0.025915358
247	0xba534387	-0.00080590736
248	0x3d427be8	0.047481447
249	0x3e13c86e	0.14431927
250	0xbd70a9c4	-0.05875565
251	0x3e5af1e3	0.21381335
252	0xbc3a29a3	-0.011362466
253	0x3d6109e7	0.054941084
254	0x3e209470	0.15681624
255	0xbda4bcee	-0.08043848

lstm.bias_hh_l0 f4 [256]
0	0x3d9cd358	0.07657498
1	0xbbe7ff97	-0.007080029
2	0xbe0a9ba2	-0.13535932
3	0xbd7ac12f	-0.06121939
4	0x3d5deec2	0.054182775
5	0x3d0c7cc5	0.034298677
6	0x3cb69640	0.022288442
7	0x3e110c31	0.14164807
8	0xbca8bb31	-0.020597072
9	0xb91fd597	-0.0001524299
10	0x3ccff630	0.025385946
11	0xbdfe29f9	-0.124103494
12	0x3dcfd114	0.101473
13	0x3c0df832	0.008665131
14	0x3d9e48df	0.07728743
15	0x3ea540c3	0.32275972
16	0x3dbb4c68	0.09145433
17	0xbd82abff	-0.06380462
18	0x3e34b360	0.17646551
19	0x3db12342	0.08649303
20	0x3d6c5197	0.057694998
21	0x3d82ab6a	0.06380351
22	0xbd1b5a6c	-0.03792803
23	0x3d61e629	0.05515114
24	0x3d1c6e0a	0.03819088
25	0x3d5a7d50	0.053342164
26	0x3e112c55	0.14177068
27	0x3db5910a	0.08865555
28	0x3da35144	0.079744846
29	0x3ce4ac8b	0.027914306
30	0x3de15216	0.11001985
31	0x3d5a01a6	0.05322423
32	0x3dc26068	0.09491044
33	0xbdcdf36c	-0.10056195
34	0x3d94bbae	0.072623596
35	0xbd25195b	-0.040307384
36	0x3dd6dcfa	0.10491367
37	0x3dd4e86c	0.103958935
38	0x3db1c608	0.086803496
39	0x3e2c8dc7	0.16850959
40	0xbd041d34	-0.032254413
41	0x3d2779d0	0.040887654
42	0x3ed96e84	0.4246713
43	0x3e006cab	0.12541454
44	0x3cb87c74	0.022520281
45	0xbd81a9f7	-0.06331246
46	0xbe0d4c69	-0.1379868
47	0xbdf52867	-0.11970597
48	0xbb2f092b	-0.0026708345
49	0xbe1e71a7	-0.15473042
50	0x3e8638ab	0.2621511
51	0xbdd4103d	-0.1035466
52	0xbdfeeb13	-0.124471806
53	0x3c5862a9	0.013207116
54	0x3de558ed	0.11198602
55	0xbe1bc3b0	-0.15211368
56	0xbcf90314	-0.030396976
57	0x3d54e9ce	0.051980786
58	0xbdafac59	-0.085777946
59	0x3e2ffd8c	0.17186564
60	0x3d5b3012	0.05351264
61	0x3c4f7b21	0.012663634
62	0x3e43caf5	0.1912039
63	0xbdd5e52d	-0.104441024
64	0xbd815746	-0.06315474
65	0x3c33f760	0.010984272
66	0xbcc6d6e2	-0.024272386
67	0xbdf6ace9	-0.12044699
68	0x3d6fe986	0.058572315
69	0xbd09bc68	-0.033626944
70	0x3d662da9	0.05619589
71	0xbe862492	-0.26199776
72	0xbe3e3532	-0.1857498
73	0xbcdcc2e6	-0.026948404
74	0x3de7c700	0.11317253
75	0xbd463df0	-0.048398912
76	0xbdc6501b	-0.09683248
77	0x3e0f80a5	0.14013918
78	0x3e1d9556	0.15388998
79	0x3c33a1e9	0.010963895
80	0xbe5ee757	-0.21767937
81	0xbbb54e06	-0.0055329828
82	0xbdfeee69	-0.12447817
83	0xbe30f5af	-0.17281221
84	0x3d7ac55a	0.061223365
85	0xbc3d88c8	-0.011568256
86	0x3d6ee44c	0.05832319
87	0xbdc53ff6	-0.0963134
88	0xbd303b24	-0.04302515
89	0xbdb718be	-0.08940266
90	0xbe211d6e	-0.15733883
91	0x3d9da713	0.076978825
92	0xbd9c50a7	-0.07632571
93	0x3d9b5960	0.07585406
94	0x3cbb1820	0.022838652
95	0xbe299b5a	-0.16563168
96	0xbd5bf8a1	-0.053703908
97	0xbd078e1b	-0.033094507
98	0xbc902ed6	-0.017600458
99	0x3d19d268	0.037554175
100	0x3e2d8e99	0.16948928
101	0xbe0bb43c	-0.13642973
102	0xbb3aed34	-0.0028522732
103	0xbc479dce	-0.01218362
104	0x3d8e6531	0.069528945
105	0x3d2cce56	0.042188965
106	0xbe02b143	-0.12762932
107	0xbe03df63	-0.12878184
108	0xbcf17958	-0.029476807
109	0xbe4320cc	-0.1905548
110	0x3dad8ae2	0.084737554
111	0xbc49118f	-0.012272253
112	0xbd441190	-0.04786831
113	0xbc512047	-0.012764043
114	0xbdcc074d	-0.0996233
115	0xbd99b262	-0.07504727
116	0xbda44487	-0.08020883
117	0xbca0f66a	-0.01964875
118	0x3cfed95c	0.031109504
119	0x3d461592	0.048360415
120	0xbddf8d05	-0.10915569
121	0xbe14c937	-0.14529882
122	0xbd84b750	-0.064802766
123	0xbe08fdf6	-0.13378128
124	0x3dccc289	0.09998042
125	0x38ab1b7c	8.159035e-05
126	0xbd50f062	-0.051010497
127	0xbe092400	-0.13392639
128	0x3db67d72	0.089106455
129	0x3cccee8e	0.025016095
130	0xbdc3e2f3	-0.095647715
131	0x3d76754f	0.060170468
132	0x3da7feb1	0.082028754
133	0xbc19fa6a	-0.009398082
134	0x3ca7b825	0.02047355
135	0xbda6298c	-0.08113393
136	0xbd8da136	-0.06915514
137	0xbdab239f	-0.083564036
138	0x3d9f08e2	0.07765366
139	0xbdb23f0c	-0.087034315
140	0xbd523f5b	-0.05132995
141	0x3ca0130e	0.019540336
142	0x3c7f1cf5	0.015570869
143	0x3cdf417c	0.027252905
144	0xbdfe5ca4	-0.124200135
145	0x3c616d91	0.013759033
146	0x3cedc50d	0.029024625
147	0x3d633a91	0.055475775
148	0x3d516ba4	0.051128045
149	0x3d8294c8	0.06376034
150	0x3dcebaa9	0.10094196
151	0xbd99d415	-0.075111546
152	0x3ca2ba56	0.019864243
153	0xbba44ea3	-0.005014257
154	0x3db741d4	0.089481026
155	0x3d16847b	0.036747437
156	0xbb52c68f	-0.0032161807
157	0x3c08dde5	0.008353685
158	0x3c1c3f08	0.009536512
159	0x3d505dab	0.05087058
160	0xbdbf4152	-0.09338631
161	0xbdb0a881	-0.086258896
162	0x3a833eea	0.0010013257
163	0xbda5329b	-0.08066293
164	0x3dc051d8	0.093906105
165	0xbdd779a0	-0.10521245
166	0x3db40c5c	0.0879142
167	0x3d90ea8c	0.07075986
168	0x3dd69102	0.10476877
169	0x3daebc10	0.08531964
170	0x3c23359b	0.009961511
171	0x3dd97c77	0.10619443
172	0x3e0bfad5	0.13669904
173	0xbd682914	-0.0566798
174	0xbe02b313	-0.12763624
175	0xbc97723b	-0.018487087
176	0xbba6af15	-0.0050867894
177	0xbd574fd0	-0.05256635
178	0xbd9a0239	-0.07519955
179	0xbcf002e2	-0.02929825
180	0xbdc4d4e4	-0.09610918
181	0xbd8aad3d	-0.06771324
182	0xbba1d925	-0.0049392157
183	0xbcccbab9	-0.02499138
184	0x3c7d40d4	0.015457351
185	0x3d0c4356	0.034243904
186	0x3c879943	0.016552573
187	0x3dbb9188	0.09158617
188	0xbe0e357e	-0.13887593
189	0x3c790931	0.015199945
190	0xbd906fe2	-0.0705259
191	0xbd3e630c	-0.046481177
192	0x3d931a6d	0.07182775
193	0x3b843243	0.004034312
194	0xbd9e358f	-0.07725059
195	0xbe01d060	-0.12677145
196	0xbc4bd18e	-0.012440098
197	0xbc4a68b6	-0.012354067
198	0x3d9b02a0	0.0756886
199	0xbb3cfed6	-0.0028838417
200	0xbc9f6b4d	-0.019460345
201	0xbdb32689	-0.087475844
202	0xbde355b4	-0.11100331
203	0x3d79476d	0.060859133
204	0xbd15bf82	-0.03655959
205	0x3dcc5a4a	0.09978159
206	0xbc351fdb	-0.011054958
207	0x3e8b7583	0.27238092
208	0x3e69661f	0.22792862
209	0xbe306943	-0.17227654
210	0x3d2dfaa6	0.042475365
211	0x3d7c30c7	0.061569955
212	0x3d02f7fc	0.031974778
213	0x3bf17402	0.0073685655
214	0xbcf32aeb	-0.02968355
215	0xbd42e896	-0.047585092
216	0xbc7c907b	-0.015415306
217	0xbcacef0d	-0.021110082
218	0x3db756e6	0.089521214
219	0xbcb98930	-0.022648424
220	0x3e188835	0.14895709
221	0x3d4c59e1	0.049890403
222	0xbc48de60	-0.01226005
223	0x3c2e813f	0.010650932
224	0xbdc29f4d	-0.095030405
225	0x3d22294e	0.039590172
226	0xbdf6f468	-0.120583355
227	0x3c1a75a1	0.009427459
228	0x3d9a5759	0.075361915
229	0xbe11e2d0	-0.14246678
230	0xbe03fa73	-0.12888508
231	0x3c6f2d07	0.014598138
232	0xbd750018	-0.059814543
233	0x3c10c5e5	0.008836244
234	0x3eba893a	0.3643282
235	0x3e1f9369	0.15583576
236	0x3e14e19c	0.14539188
237	0xbe1ee0ef	-0.15515493
238	0xbc995a47	-0.018719805
239	0xbd99c860	-0.075089216
240	0xbcbc1718	-0.02296023
241	0xbde16fdb	-0.11007663
242	0x3d6416d0	0.05568582
243	0x3db919d6	0.09038131
244	0xbb5ddd7e	-0.0033853943
245	0x3d851a04	0.06499103
246	0x3cb93459	0.02260797
247	0x3ae435b0	0.001741102
248	0x3cefcc9c	0.02927237
249	0x3b87db25	0.004145997
250	0xbe2d351d	-0.16914792
251	0x3e3409fb	0.17581932
252	0x3d881c45	0.06646017
253	0x3beea8ee	0.0072833216
254	0x3d3fb945	0.046807546
255	0x3d78baa4	0.06072487

lstm.weight_ih_l1 f4 [256, 64]
0	0xbd82c348	-0.06384903
1	0x3df40109	0.1191426
2	0xbe4b71cb	-0.19867627
3	0x3d394469	0.045231257
4	0xbda82d9a	-0.08211823
5	0xbcc2f422	-0.023798052
6	0x3e20cd28	0.15703261
7	0xbe893e08	-0.2680514
8	0xbe7fd32c	-0.249829
9	0xbcd87c4f	-0.026426462
10	0x3e3a7d08	0.18211758
11	0xbc96a7fc	-0.018390648
12	0x3d1aed9a	0.03782425
13	0x3ddb2d52	0.107020035
14	0x3e242ce5	0.16032751
15	0x3e2f0a66	0.1709381
16	0x3e00bd6a	0.12572256
17	0xbd14b4c5	-0.036305208
18	0xbd83c78b	-0.06434544
19	0x3db67285	0.089085616
20	0x3e7f7a73	0.24949054
21	0xbdff528c	-0.124669164
22	0xbe2116be	-0.15731332
23	0xbc0fc90e	-0.0087759625
24	0xbda1c504	-0.07898906
25	0xbcace11b	-0.021103432
26	0x3da1ed7c	0.07906625
27	0xbc918469	-0.017763333
28	0xbe8a95e9	-0.27067497
29	0x3d7e88cc	0.06214218
30	0xbca2e1dc	-0.019883089
31	0xbd799e76	-0.060942136
32	0xbca778f0	-0.02044341
33	0xbe02cb7b	-0.12772934
34	0xbd7b2f3c	-0.061324343
35	0x3e07ed23	0.13274054
36	0xbe4aa531	-0.19789578
37	0xbc0a65e6	-0.008447146
38	0xbda22b0c	-0.07918367
39	0xbc90790d	-0.017635847
40	0x3ddbec10	0.10738385
41	0x3d6e1678	0.058126897
42	0x3d547c53	0.051876377
43	0xbe1d6454	-0.15370303
44	0x3dce1c9c	0.100640506
45	0x3e607be4	0.2192226
46	0x3d888ef4	0.06667891
47	0xbe85cf38	-0.26134658
48	0xbe6c8bae	-0.23100159
49	0xbe6a1d35	-0.22862704
50	0xbd982b93	-0.07430186
51	0xbdaab7c1	-0.083358295
52	0x3cf10442	0.029420976
53	0xbd2bd8c9	-0.04195479
54	0x3dcde094	0.100526005
55	0xbda6706d	-0.08126912
56	0xbeafb344	-0.34316456
57	0xbd902eca	-0.07040174
58	0xbd03daa7	-0.032190945
59	0x3f655165	0.89577323
60	0xbd9337f8	-0.071884096
61	0x3e2445b0	0.16042209
62	0xbe812729	-0.2522519
63	0x3bad09fa	0.0052807303
64	0xbe069c44	-0.13145548
65	0xbce521de	-0.02797025
66	0xbe09d61a	-0.1346058
67	0x3c305e26	0.010764634
68	0x3d2e3250	0.04252845
69	0xbcd52fc4	-0.026023753
70	0x3d6f7912	0.05846507
71	0xbe6a534d	-0.22883339
72	0xbddf8fd2	-0.109161034
73	0xbd1258cf	-0.035729226
74	0xbc5a41e0	-0.01332137
75	0x3e330894	0.17483741
76	0xbd6a8c01	-0.057262424
77	0xbd052661	-0.032507304
78	0x3e22f5f3	0.15914135
79	0xbc78fbb8	-0.015196733
80	0xbd887e85	-0.06664757
81	0xbc869e37	-0.016432865
82	0xbead8629	-0.3389142
83	0xbe1b7cef	-0.15184377
84	0xbe6bf585	-0.23042877
85	0xbd8bbfa8	-0.06823665
86	0x3d4de05c	0.050262794
87	0x3da0557c	0.07828805
88	0x3e363434	0.17793351
89	0xbde9ae60	-0.114102125
90	0x3da879e2	0.08226372
91	0x3d288ea2	0.04115165
92	0xbe7b9a5f	-0.24570607
93	0x3dc3166c	0.09525761
94	0xbd118730	-0.035529315
95	0x3cde505b	0.027137926
96	0xbdc810f5	-0.09768859
97	0x3dbdf177	0.092745714
98	0x3de75f73	0.11297502
99	0xbd3ef5b3	-0.046621036
100	0xbe45d49c	-0.19319385
101	0x3cf6fa06	0.030148517
102	0xbe34bc1b	-0.17649882
103	0x3e055d48	0.13023865
104	0xbda04dda	-0.07827349
105	0x3e0e640a	0.1390535
106	0x3ecbd412	0.39810234
107	0xbe39d5b9	-0.18147935
108	0x3cc73420	0.024316847
109	0xbda64362	-0.08118321
110	0x3d2869e7	0.04111662
111	0xbd6b8786	-0.057502292
112	0xbdb6283a	-0.08894391
113	0x3c9da2e8	0.019242719
114	0xbd71eea5	-0.05906548
115	0xbe42ab12	-0.1901057
116	0x3d71ea49	0.059061322
117	0xbd6148e9	-0.055001173
118	0xbde32e7b	-0.1109285
119	0xbe2ce266	-0.16883239
120	0xbe6fa4de	-0.23402736
121	0xbe0a7188	-0.13519871
122	0x3d662fda	0.05619798
123	0xbdaf3f47	-0.08556991
124	0x3d8becb8	0.0683226
125	0x3e23522e	0.15949318
126	0xbdcbcf87	-0.09951692
127	0x3d71b44b	0.05900983
128	0x3d85680b	0.06513985
129	0x3ceec3eb	0.029146155
130	0xbc30fb13	-0.010802048
131	0xbd323dc0	-0.04351592
132	0x3dc49f61	0.096007116
133	0xbc10ed9c	-0.008845713
134	0xbc4d4f22	-0.012531074
135	0xbe0da9a9	-0.13834251
136	0xbd46622a	-0.04843346
137	0x3cd163e8	0.025560334
138	0x3e5910c3	0.211978
139	0xbda4d2d9	-0.080480285
140	0xbdf23e19	-0.118282504
141	0x3dca0059	0.098633476
142	0xbd509d50	-0.050931275
143	0xbdc536c2	-0.09629585
144	0xbd719f75	-0.05898996
145	0xbdfc6c13	-0.12325301
146	0xbdcb6cdc	-0.09932873
147	0xbe3a9f38	-0.182248
148	0xbd81ce34	-0.06338158
149	0x3c056b3f	0.008143245
150	0x3d2a8051	0.04162628
151	0x3dcb226f	0.09918677
152	0x3cce5862	0.025188629
153	0xbdc87932	-0.09788741
154	0x3da5279f	0.08064198
155	0xbcc69d01	-0.024244787
156	0xbdf04b32	-0.11733092
157	0x3e139320	0.14411592
158	0x3d5925ca	0.053014554
159	0xbd85586f	-0.06511008
160	0x3d25fd11	0.040524546
161	0x3d3628d1	0.04447252
162	0xbd2cccc0	-0.042187452
163	0x3cb5a261	0.022172155
164	0xbd0699d1	-0.032861535
165	0xbda34502	-0.079721466
166	0x3d48b9f9	0.049005482
167	0x3d97715b	0.07394668
168	0xbdaf28cf	-0.085527055
169	0xbdfd84dd	-0.12378857
170	0x3e8cccc0	0.27499962
171	0xbdf362ca	-0.11884077
172	0xbcc3ae4f	-0.023886828
173	0x3dfd078b	0.12354954
174	0xbdc87131	-0.097872145
175	0xbe4ceddf	-0.20012616
176	0xbe46bb6a	-0.1940743
177	0xbdfc970d	-0.12333498
178	0xbc8b62b6	-0.017014842
179	0xbdea6e1c	-0.11446783
180	0xbda9142b	-0.082558
181	0xbc77bb48	-0.015120335
182	0x3db6e7ad	0.089309074
183	0x3d3a8ca3	0.045544278
184	0xbe9407f4	-0.28912318
185	0x3ccbbcae	0.024870243
186	0x3dbbafa9	0.09164364
187	0xbe2ca92e	-0.16861412
188	0x3dde3bf0	0.10851276
189	0x3dc34912	0.095354214
190	0xbdf66eef	-0.12032878
191	0xbda1b1bd	-0.07895229
192	0xbd9af589	-0.07566363
193	0xbdffa618	-0.12482852
194	0xbe139ab2	-0.1441448
195	0x3d26ad54	0.040692642
196	0xbd54303c	-0.051803812
197	0xbe926e21	-0.28599647
198	0xbe0c6608	-0.13710797
199	0xbd97bf02	-0.07409479
200	0xbe2cf466	-0.16890106
201	0xbd9c99e9	-0.076465435
202	0xbd8d2386	-0.06891541
203	0xbe2a9b65	-0.16660841
204	0x3dd40abc	0.1035361
205	0x3d2719a8	0.040795952
206	0xbd1bc8ea	-0.038033403
207	0x3e5135e6	0.20430717
208	0xbd82c94d	-0.06386051
209	0x3e1db538	0.1540116
210	0xbe6df6e5	-0.23238714
211	0x3d976da6	0.07393961
212	0xbd296728	-0.041358143
213	0x3e33451c	0.17506832
214	0xbd8b2a3c	-0.06795165
215	0xbdd06935	-0.10176317
216	0x3dd562cf	0.10419237
217	0xbe701ec6	-0.23449239
218	0xbd23d797	-0.040000524
219	0xbd267671	-0.0406403
220	0xbd7b8e2e	-0.06141489
221	0x3d106886	0.03525593
222	0x3d414682	0.047186382
223	0xbe53cade	-0.20682856
224	0x3dd097f3	0.10185232
225	0x3c5f1780	0.013616443
226	0x3d1d5d9b	0.038419347
227	0x3ccfd417	0.025369687
228	0x3e151e81	0.14562418
229	0x3c6cd73f	0.014455616
230	0xbe4b73cf	-0.19868396
231	0x3db8f647	0.09031349
232	0x3d890bba	0.0669169
233	0xbe53681e	-0.20645186
234	0xbcd8309e	-0.02639037
235	0xbe3d2151	-0.1846974
236	0x3b8f70b2	0.004377448
237	0xbd17af18	-0.037032217
238	0x3db2a49d	0.08722804
239	0xbdd251ff	-0.10269546
240	0xbd1e83a5	-0.038699765
241	0x3d1ab891	0.037773672
242	0xbb355bfe	-0.002767324
243	0xbe6210c8	-0.22076714
244	0xbb82f373	-0.0039963066
245	0xbcc89fa4	-0.024490185
246	0x3d0aac1b	0.03385554
247	0xbe15bb06	-0.14622125
248	0x3b4023ea	0.0029318281
249	0xbd768766	-0.06018772
250	0x3e2487e4	0.16067463
251	0x3e397921	0.18112613
252	0x3e41323a	0.18866816
253	0xbd43baeb	-0.04778568
254	0xbe11ad74	-0.14226323
255	0x3e084164	0.13306195

lstm.weight_hh_l1 f4 [256, 64]
0	0x3def75c7	0.11692386
1	0xbe0d9b10	-0.13828683
2	0x3d8209f7	0.06349557
3	0x3dcd0e3b	0.1001248
4	0xbcb0d254	-0.021584667
5	0xbbb33f74	-0.0054702107
6	0x3e0bc235	0.13648303
7	0x3dab8cb5	0.08376447
8	0xbdf27128	-0.11837989
9	0xbde78774	-0.113051325
10	0xbd0f38de	-0.034966342
11	0x3e202789	0.15640081
12	0x3e612ce2	0.21989778
13	0xbc99ff8d	-0.018798614
14	0xbdbe8645	-0.09302954
15	0xbdd44d40	-0.10366297
16	0x3d1c33c1	0.038135294
17	0x3d4f421d	0.05060016
18	0x3caeba50	0.021329075
19	0x3dca48d0	0.09877169
20	0xbdb148a9	-0.08656437
21	0x3cd54554	0.026034035
22	0xbdaf088d	-0.08546553
23	0x3c5bc5f4	0.013413895
24	0x3df7510d	0.12076006
25	0xbceaf742	-0.028682355
26	0x3d8da7ae	0.06916748
27	0x3de59dde	0.112117514
28	0xbd9c9a58	-0.07646626
29	0x3e47a410	0.19496179
30	0xbe402b6c	-0.18766564
31	0x3d015158	0.031571716
32	0x3e22efc1	0.15911771
33	0x3cf3d9d3	0.029766953
34	0xbe1f19e6	-0.15537223
35	0xbdccc60c	-0.09998712
36	0x3e37e8f8	0.17959964
37	0x3db7360b	0.08945855
38	0x3d31e1d5	0.04342826
39	0xbdf01c0d	-0.117241
40	0x3dee5f5a	0.116392806
41	0x3ca9567e	0.020671126
42	0x3e06940e	0.13142416
43	0xbe6ad3d1	-0.22932364
44	0xbde31108	-0.11087233
45	0x3e886eb9	0.26646975
46	0x3e0341f1	0.12818123
47	0xbdebbbb8	-0.11510414
48	0xbc8ece50	-0.017432362
49	0xbd94b0d7	-0.07260292
50	0x3d969316	0.07352273
51	0x3cf30f66	0.029670428
52	0x3d30ee90	0.04319626
53	0xbd973ab1	-0.07384241
54	0x3d3e60a6	0.04647889
55	0x3bb0b02f	0.0053920965
56	0xbd6a05ec	-0.057134554
57	0xbe635dda	-0.2220377
58	0x3d21cdee	0.03950303
59	0x3e1d08b4	0.15335351
60	0xbc1656d6	-0.009175977
61	0x3db0f37b	0.0864019
62	0x3ce6206f	0.028091637
63	0xbdda79c7	-0.106677584
64	0x3e1cd694	0.1531623
65	0xbd81cba1	-0.06337667
66	0xbda0f2d2	-0.07858814
67	0x3d8e5f1a	0.06951733
68	0xbd6080fe	-0.054810517
69	0x3d6d07e6	0.05786886
70	0x3dbf51f9	0.09341807
71	0xbce8e374	-0.02842877
72	0xbbb88320	-0.0056308657
73	0x3d86ff4a	0.06591661
74	0x3c0f6fb6	0.008754661
75	0x3da68ffe	0.08132933
76	0xbda51550	-0.08060706
77	0xbc9b7497	-0.018976493
78	0x3d7a8298	0.0611597
79	0xbc8aab35	-0.016927341
80	0xbcca769a	-0.024714757
81	0xbd67ebb0	-0.056621253
82	0x3e106b73	0.14103489
83	0xbe3d54c6	-0.1848937
84	0xbe1a111d	-0.1504559
85	0xbc4e926e	-0.012608154
86	0xbe047a29	-0.12937225
87	0xbd4541d5	-0.048158485
88	0xbdceab91	-0.100913174
89	0xbd80d16f	-0.06289946
90	0xbd9f8bef	-0.07790362
91	0xbd458fc1	-0.048232798
92	0x3e332b27	0.1749693
93	0x3d7ce91a	0.06174574
94	0xbdc786e7	-0.097425275
95	0x3b8e92fe	0.004351019
96	0x3d3ba678	0.045813054
97	0x3da2cc8e	0.07949172
98	0x3d96109e	0.07327388
99	0xbc9e36cd	-0.01931324
100	0x3e0c353b	0.13692181
101	0xbdcb5fd4	-0.09930387
102	0x3dcc624f	0.099796884
103	0xbe671ccb	-0.22569577
104	0xbdbc2e3c	-0.09188506
105	0xbd0a1273	-0.033709
106	0x3e1d8078	0.15381038
107	0x3c48feba	0.012267763
108	0xbcf462ea	-0.029832322
109	0x3c0a5ddd	0.00844523
110	0x3d8c855b	0.06861373
111	0xbd47a136	-0.048737727
112	0x3b13a1c5	0.0022526842
113	0xbd7b2d18	-0.0613223
114	0x3d63b932	0.055596538
115	0x3db56dc3	0.08858826
116	0x3d4e4340	0.050357103
117	0x3e0cdcf8	0.13756168
118	0xbb6e1c9e	-0.0036332975
119	0xbdaf188b	-0.08549603
120	0x3c927fd0	0.017883211
121	0xbd738989	-0.059457336
122	0x3e8d901f	0.27649018
123	0xbdb472c8	-0.08810955
124	0x3e0f1d49	0.13976015
125	0x3dea8066	0.11450271
126	0xbd29afe8	-0.041427523
127	0xbdc1c885	-0.09462074
128	0xbd047d92	-0.032346316
129	0x3c853e20	0.016264975
130	0xbd4d0760	-0.05005586
131	0x3d5c054f	0.053716
132	0x3d5a8a4a	0.05335454
133	0xbcd464cf	-0.025926976
134	0xbd1a48d1	-0.0376671
135	0x3ddb7de8	0.10717374
136	0x3d342ac2	0.04398609
137	0x3cff3d35	0.031157115
138	0x3de570ac	0.11203131
139	0x3d3320ce	0.043732457
140	0xbd332fdf	-0.043746825
141	0xbd07023a	-0.032961108
142	0x3da04ae9	0.07826788
143	0x3cb3c059	0.021942304
144	0xbd9d165a	-0.07670279
145	0xbd992f4e	-0.07479726
146	0x3dc5440b	0.09632119
147	0xbd5d9998	-0.054101557
148	0xbe0ca687	-0.137354
149	0xbda7dc88	-0.0819636
150	0xbdb15818	-0.08659381
151	0x3cdf293c	0.027241342
152	0xbde93652	-0.11387314
153	0x3c07c8cf	0.008287623
154	0x3cb57708	0.022151485
155	0x3dc15ac9	0.09441144
156	0x3d89cd2b	0.06728586
157	0x3dbc2e10	0.09188473
158	0xbd8e4e7c	-0.069485635
159	0x3bfc95f5	0.007708306
160	0xbdf3b2a4	-0.11899307
161	0x3cac0f00	0.021003246
162	0x3d9539ef	0.072864406
163	0xbc6d97e8	-0.014501549
164	0xbbea6dc4	-0.0071541984
165	0xbcef2cea	-0.029196221
166	0xbd01427f	-0.031557556
167	0xbd4fa922	-0.050698407
168	0xbc54ebe4	-0.012995694
169	0xbdf083c3	-0.117438816
170	0x3da72496	0.08161275
171	0x3c9404a4	0.01806862
172	0xbcd5e1e0	-0.026108682
173	0xbe4e0d5e	-0.20122287
174	0x3d84333a	0.06455083
175	0xbb6782a5	-0.0035325673
176	0x3d25f07f	0.040512558
177	0x3dae6486	0.08515267
178	0xbba36bdc	-0.004987223
179	0x3b20214a	0.0024433904
180	0xbd2e5c3f	-0.04256844
181	0xbde6768e	-0.11253081
182	0xbdacf240	-0.08444643
183	0x387705b8	5.8894715e-05
184	0xbd179673	-0.037008714
185	0x3c799ed7	0.015235624
186	0x3e0be010	0.13659692
187	0x3e00082f	0.12503122
188	0x3d751c78	0.059841603
189	0x3cb510aa	0.022102673
190	0xbe0655b7	-0.13118635
191	0xbde8e751	-0.11372245
192	0x3e0916fa	0.13387671
193	0x3e14e1b9	0.14539231
194	0xbcd1c5a4	-0.025606938
195	0x3da3bc0b	0.07994851
196	0x3dbb9dbb	0.09160944
197	0xbccadd3c	-0.024763696
198	0x3db5f4f3	0.08884611
199	0x3cb748de	0.022373613
200	0x3d7479da	0.05968652
201	0xbd9fce26	-0.078029916
202	0xbc42eea6	-0.0118977185
203	0x3d6f861c	0.058477506
204	0x3e0d0bd1	0.13774039
205	0x3e1aaa38	0.15103996
206	0xbc974370	-0.018464774
207	0x3d41e289	0.04733518
208	0x3daa09fd	0.08302686
209	0xbd17b624	-0.037038937
210	0x3e3ad104	0.18243796
211	0x3d3455fd	0.044027317
212	0xbde7538a	-0.11295231
213	0x3d0e9a80	0.03481531
214	0x3e0e2123	0.13879828
215	0x3ddaa556	0.106760666
216	0x3c30cce2	0.010791035
217	0xbc96ddd8	-0.01841633
218	0x3d2eec2a	0.042705692
219	0xbd94bfd0	-0.07263148
220	0xbd17154e	-0.036885552
221	0x3a4c45b3	0.00077923684
222	0xbdc5b758	-0.09654111
223	0xbd01dd95	-0.031705458
224	0xbdc7b30d	-0.09750948
225	0xbde08484	-0.10962775
226	0xbdb43364	-0.087988645
227	0x3dc053f4	0.09391013
228	0x3d404a56	0.046945892
229	0x3c77f1e7	0.015133358
230	0x3e4ec3c2	0.20191863
231	0xbe13119e	-0.14362189
232	0x3d1c178a	0.038108386
233	0x3dc22c86	0.094811484
234	0x3e4e1266	0.20124206
235	0xbd7a9a86	-0.06118252
236	0xbcff3fb2	-0.031158302
237	0x3e1850ce	0.14874575
238	0xbd8ca7fa	-0.068679765
239	0xbdd74b69	-0.1051243
240	0xbda2654c	-0.07929477
241	0xbca29b58	-0.019849464
242	0x3e0f38dd	0.13986535
243	0xbd7888ca	-0.060677327
244	0x3dc96221	0.0983317
245	0xbd8bb8b4	-0.06822339
246	0xbdf4b3f5	-0.119483866
247	0x3dd8e662	0.10590817
248	0xbcd3588b	-0.025799057
249	0x3df37dd4	0.11889234
250	0x3d252f52	0.04032833
251	0xbd481b78	-0.04885432
252	0xbbfe6a86	-0.0077641634
253	0xbd6b5982	-0.05745841
254	0xbdd27780	-0.10276699
255	0x3b823ec0	0.0039747655

lstm.bias_ih_l1 f4 [256]
0	0xbcbed855	-0.023296515
1	0x3d8ddf2b	0.069273315
2	0x3da860c3	0.08221581
3	0x3dd0325e	0.10165857
4	0x3d97c89f	0.07411312
5	0xbcbda905	-0.023151884
6	0x3d944c0c	0.07241067
7	0x3d9d3d71	0.07677735
8	0x3ad66d77	0.0016359527
9	0x3d5f2666	0.05447998
10	0x3d8d28d7	0.06892555
11	0xbd1eaef0	-0.038741052
12	0xbe3b974e	-0.18319437
13	0xbdabf0ea	-0.0839556
14	0xbe0e7b09	-0.13914122
15	0xbe251df0	-0.16124701
16	0xbc013f0a	-0.007888565
17	0x3c4dab26	0.012553012
18	0xbdc069b3	-0.093951605
19	0x3bc96a59	0.006146711
20	0x3d6f7fe7	0.058471587
21	0xbdfa2364	-0.122137815
22	0xbe441f45	-0.19152553
23	0xbdbac31e	-0.09119247
24	0xbdc8eaee	-0.09810434
25	0xbdddd2db	-0.10831233
26	0x3d77f690	0.060537875
27	0xbde65ac1	-0.11247779
28	0xbe2a59e5	-0.16635855
29	0x3d90770d	0.07053957
30	0xbcd518d2	-0.026012812
31	0xbdbcd136	-0.09219591
32	0x3a9a4f06	0.0011772818
33	0xbce74204	-0.02822972
34	0x3ea5f504	0.32413495
35	0xbd7d0194	-0.061769083
36	0xbe089156	-0.13336691
37	0xbd72e87b	-0.059303742
38	0x3c6b25d4	0.014352281
39	0xbd37d138	-0.04487726
40	0xbcf9a145	-0.030472407
41	0x3db1781e	0.08665489
42	0x3e672314	0.22571975
43	0x3d25b3db	0.040454727
44	0xbe8d694e	-0.27619404
45	0xbe3ed0a0	-0.18634272
46	0xbe127477	-0.1430224
47	0x3caf38a6	0.021389317
48	0xbc30b0d8	-0.01078435
49	0xbcb789a6	-0.022404503
50	0x3d41d920	0.047326207
51	0xbe08f52e	-0.13374779
52	0x3cffc2cb	0.031220814
53	0xbdc6a7f6	-0.09700005
54	0x3d04f83c	0.032463297
55	0x3dbd3931	0.09239424
56	0xbe055684	-0.13021284
57	0x3ce40699	0.027835177
58	0x3db5c592	0.08875574
59	0xbaa290d8	-0.0012402786
60	0xbe1c7cb5	-0.15281947
61	0xbca7d178	-0.020485625
62	0x3dabd755	0.08390681
63	0x3d979d14	0.07403007
64	0x3d8edc2d	0.06975589
65	0x3d51a430	0.051181972
66	0x3ca67b5e	0.020322498
67	0x3d1dd31e	0.038531415
68	0x3e04c2ca	0.12964931
69	0xbc9dcaca	-0.019261736
70	0xbe0545a3	-0.13014846
71	0x3d61ba2c	0.055109188
72	0x3ddfd58d	0.109294035
73	0xbbaafe56	-0.0052183075
74	0xbdd0707c	-0.10177705
75	0x3cd187ec	0.025577508
76	0xbdb89b4e	-0.09013997
77	0xbe0c95dd	-0.13729043
78	0xbd7ddea4	-0.061979905
79	0x3d335dab	0.0437905
80	0xbddeeadf	-0.10884642
81	0xbd929bb9	-0.07158608
82	0xbd124765	-0.03571262
83	0xbe679bd6	-0.2261804
84	0xbc1472ec	-0.009060603
85	0xbd249ac5	-0.040186662
86	0xbcd3c7c9	-0.0258521
87	0xbe28179c	-0.16415256
88	0x3da5513e	0.08072136
89	0xbe054f1a	-0.13018456
90	0x3e00e91c	0.12588924
91	0x3e0f4764	0.13992077
92	0xbcab232f	-0.0208908
93	0x3e008c90	0.1255362
94	0xbe236b82	-0.1595898
95	0x3d4b13d2	0.04957945
96	0x3ca1fe7b	0.019774666
97	0xbde3354a	-0.110941485
98	0x3d650ec3	0.05592228
99	0xbdd63372	-0.10459031
100	0x3cdc72d7	0.026910229
101	0xbe4838cb	-0.19552915
102	0xbd8d7828	-0.069076836
103	0x3d413506	0.047169708
104	0x3d7b2a06	0.061319374
105	0xb5166800	-5.6030694e-07
106	0xbdcff44a	-0.10154016
107	0x3d15f082	0.03660632
108	0xbe33b5f5	-0.1754988
109	0xbe1a5088	-0.15069783
110	0xbdac1f2e	-0.084043846
111	0xbe100986	-0.14066133
112	0xbd8b0707	-0.0678845
113	0x3ca9f7f4	0.020748116
114	0xbd8b6dcc	-0.068080515
115	0xbdbd3e9d	-0.09240458
116	0xbda970c5	-0.08273462
117	0x3d82d008	0.06387335
118	0x3dbbd946	0.09172301
119	0x3dbfa898	0.093583286
120	0xbdcc692b	-0.09980997
121	0xbdf52eda	-0.11971827
122	0xbe37311e	-0.1788983
123	0xbdb76a6a	-0.08955844
124	0xbdca14b8	-0.09867233
125	0x3da897c2	0.082320705
126	0x3e210ad4	0.15726787
127	0xbc4a3f82	-0.012344243
128	0xbd7569ae	-0.059915237
129	0x3df2ce52	0.11855759
130	0xbca42b8e	-0.0200403
131	0xbddc42a9	-0.10754902
132	0x3cb91e20	0.022597373
133	0xbd439722	-0.047751553
134	0xbdc00e52	-0.093777314
135	0xbdb04bc0	-0.08608198
136	0x3dc84d87	0.09780412
137	0x3db932fa	0.09042926
138	0x3d935826	0.07194547
139	0xbdabe5d4	-0.083934456
140	0x3d7b5822	0.061363347
141	0x3b964c70	0.004586749
142	0xbd4967dd	-0.049171317
143	0x3c9bcf5f	0.01901978
144	0xbcee8b2a	-0.029119093
145	0x3a82542a	0.0009943296
146	0xbc06a15a	-0.00821718
147	0x3cf5de22	0.030013148
148	0x3b400576	0.002930013
149	0x3d8031f1	0.062595256
150	0xbcd8d35f	-0.026467977
151	0xbdb63025	-0.088959016
152	0x390051a8	0.0001223745
153	0x3d8fc4ac	0.07019934
154	0xbb44361f	-0.0029939485
155	0x3d4869ca	0.048929013
156	0xbd8df8a4	-0.0693219
157	0x3d28cf35	0.041213233
158	0xbe0fcdea	-0.14043394
159	0x3db52b91	0.088462
160	0x3e0c28e5	0.13687475
161	0x3db51a3a	0.08842893
162	0xbdb6fdb7	-0.08935111
163	0x3dac730c	0.08420381
164	0xbd05b7b3	-0.032645892
165	0xbd2a715e	-0.04161202
166	0x3c833b98	0.016019627
167	0xbcc67325	-0.024224827
168	0x3d5a742e	0.053333454
169	0x3dd3b759	0.10337705
170	0xbdb1027d	-0.08643053
171	0x3dbf5c9a	0.09343834
172	0x3da44417	0.080207996
173	0xbc5fd357	-0.013661227
174	0x3de53b24	0.11192921
175	0xbdf14c4c	-0.117821306
176	0x3de3a322	0.111150995
177	0x3d9ef291	0.077611096
178	0xbd6b961c	-0.057516202
179	0xbdb6f143	-0.08932736
180	0xbcda2802	-0.026630405
181	0x3cbbe19c	0.022934727
182	0xbdbc7d3c	-0.09203574
183	0x3d8eb57e	0.06968211
184	0x3d486f6c	0.048934385
185	0xbc37592b	-0.011190693
186	0xbdb61349	-0.08890397
187	0xbd803896	-0.06260793
188	0xbd806903	-0.062700294
189	0xbd24dbbe	-0.040248625
190	0x3d3e588b	0.04647116
191	0xbdbc03c6	-0.09180407
192	0xbe0aed24	-0.13567024
193	0x3ca35ea5	0.019942591
194	0xbdf17c59	-0.117912956
195	0x3dbd1f3c	0.09234473
196	0x3d8dd217	0.06924837
197	0xbdb90724	-0.09034565
198	0xbe2123ff	-0.15736388
199	0xbdcbac16	-0.09944932
200	0x3d6ea83a	0.058265902
201	0xbd0481e9	-0.032350454
202	0x3d8a3abe	0.067494854
203	0xbe0f0661	-0.13967277
204	0x3ba1d317	0.004938494
205	0xbd0f5183	-0.034989845
206	0xbe182c10	-0.14860559
207	0xbcfe8813	-0.031070745
208	0xbdefaebd	-0.117032506
209	0xbd822ffb	-0.06356808
210	0xbdb04d15	-0.08608452
211	0x3b7d68cc	0.00386672
212	0xbe1a9e09	-0.15099348
213	0xbbe9da1b	-0.007136596
214	0xbd9801f8	-0.074222505
215	0x3cbe5187	0.023232235
216	0xbdf90012	-0.121582165
217	0x3dc75a1e	0.09733985
218	0xbd361f9e	-0.044463746
219	0x3c3fc916	0.0117056575
220	0xbdd9b2dc	-0.10629818
221	0xbcc57124	-0.024101801
222	0xbe145c64	-0.14488369
223	0xbd28ea83	-0.041239273
224	0x3d958047	0.072998576
225	0x3c2b9dab	0.010474603
226	0x3c93b6ab	0.018031439
227	0xbd7e7468	-0.062122732
228	0xbb993e2e	-0.004676602
229	0xbe1f8331	-0.1557739
230	0xbe486564	-0.19569927
231	0xbdf98004	-0.1218262
232	0xbce855c3	-0.028361207
233	0xbc38f756	-0.011289438
234	0x3e083a13	0.13303404
235	0xbd23b69b	-0.039969068
236	0x3b537fd5	0.0032272239
237	0xbd4023c4	-0.04690911
238	0x3d5c163d	0.053732146
239	0xbca75cac	-0.020429932
240	0x3d14913b	0.036271315
241	0xbde87b8e	-0.11351691
242	0x3d7bda8a	0.061487712
243	0xbcbb5be6	-0.022870969
244	0x3d3d0103	0.046143543
245	0xbe23d2cf	-0.15998386
246	0xbbb35c42	-0.0054736445
247	0xbd548614	-0.05188568
248	0x3d9520e2	0.072816625
249	0x3c0bfab0	0.008543655
250	0xbdeae519	-0.11469478
251	0xbe00d047	-0.12579452
252	0xbe3b3732	-0.18282774
253	0xbe3dbf8c	-0.185301
254	0xbdb1c342	-0.086798206
255	0xbd04caa0	-0.0324198
